{
    "Layers": [
        {
            "Name": "Reformatting CopyNode for Input Tensor 0 to /conv1/Conv + /relu/Relu",
            "LayerType": "Reformat",
            "Inputs": [
                {
                    "Name": "input",
                    "Location": "Device",
                    "Dimensions": [
                        1,
                        3,
                        224,
                        224
                    ],
                    "Format/Datatype": "Row major linear FP16 format"
                }
            ],
            "Outputs": [
                {
                    "Name": "Reformatted Input Tensor 0 to /conv1/Conv + /relu/Relu",
                    "Location": "Device",
                    "Dimensions": [
                        1,
                        3,
                        224,
                        224
                    ],
                    "Format/Datatype": "Channel major FP32 format where channel % 4 == 0"
                }
            ],
            "ParameterType": "Reformat",
            "Origin": "REFORMAT",
            "TacticValue": "0x00000000000003e8",
            "StreamId": 0,
            "Metadata": ""
        },
        {
            "Name": "/conv1/Conv + /relu/Relu",
            "LayerType": "CaskConvolution",
            "Inputs": [
                {
                    "Name": "Reformatted Input Tensor 0 to /conv1/Conv + /relu/Relu",
                    "Location": "Device",
                    "Dimensions": [
                        1,
                        3,
                        224,
                        224
                    ],
                    "Format/Datatype": "Channel major FP32 format where channel % 4 == 0"
                }
            ],
            "Outputs": [
                {
                    "Name": "/relu/Relu_output_0",
                    "Location": "Device",
                    "Dimensions": [
                        1,
                        64,
                        112,
                        112
                    ],
                    "Format/Datatype": "Channel major FP32 format where channel % 4 == 0"
                }
            ],
            "ParameterType": "Convolution",
            "Kernel": [
                7,
                7
            ],
            "PaddingMode": "kEXPLICIT_ROUND_DOWN",
            "PrePadding": [
                3,
                3
            ],
            "PostPadding": [
                3,
                3
            ],
            "Stride": [
                2,
                2
            ],
            "Dilation": [
                1,
                1
            ],
            "OutMaps": 64,
            "Groups": 1,
            "Weights": {
                "Type": "Float",
                "Count": 9408
            },
            "Bias": {
                "Type": "Float",
                "Count": 64
            },
            "HasBias": 1,
            "HasReLU": 1,
            "HasSparseWeights": 0,
            "HasDynamicFilter": 0,
            "HasDynamicBias": 0,
            "HasResidual": 0,
            "ConvXAsActInputIdx": -1,
            "BiasAsActInputIdx": -1,
            "ResAsActInputIdx": -1,
            "Activation": "RELU",
            "TacticName": "sm80_xmma_fprop_implicit_gemm_indexed_wo_smem_f32f32_tf32f32_f32_nhwckrsc_nhwc_tilesize128x32x16_stage1_warpsize4x1x1_g1_tensor16x8x8",
            "TacticValue": "0x9cb304e2edbc1221",
            "StreamId": 0,
            "Metadata": "[ONNX Layer: /conv1/Conv]\u001e[ONNX Layer: /relu/Relu]"
        },
        {
            "Name": "/maxpool/MaxPool",
            "LayerType": "CaskPooling",
            "Inputs": [
                {
                    "Name": "/relu/Relu_output_0",
                    "Location": "Device",
                    "Dimensions": [
                        1,
                        64,
                        112,
                        112
                    ],
                    "Format/Datatype": "Channel major FP32 format where channel % 4 == 0"
                }
            ],
            "Outputs": [
                {
                    "Name": "Reformatted Output Tensor 0 to /maxpool/MaxPool",
                    "Location": "Device",
                    "Dimensions": [
                        1,
                        64,
                        56,
                        56
                    ],
                    "Format/Datatype": "Channel major FP32 format where channel % 4 == 0"
                }
            ],
            "ParameterType": "Pooling",
            "PoolingType": "MAX",
            "WindowSize": [
                3,
                3
            ],
            "PaddingMode": "kEXPLICIT_ROUND_DOWN",
            "PrePadding": [
                1,
                1
            ],
            "PostPadding": [
                1,
                1
            ],
            "Stride": [
                2,
                2
            ],
            "BlendFactor": 0,
            "AverageCountExcludesPadding": 1,
            "TacticName": "sm50_xmma_pooling_max_nhwc_FP32FP32_WINDOWSIZE_3_NOT_PROPAGATE_NAN_2D",
            "TacticValue": "0x789b2859f2e03e79",
            "StreamId": 0,
            "Metadata": "[ONNX Layer: /maxpool/MaxPool]"
        },
        {
            "Name": "Reformatting CopyNode for Output Tensor 0 to /maxpool/MaxPool",
            "LayerType": "Reformat",
            "Inputs": [
                {
                    "Name": "Reformatted Output Tensor 0 to /maxpool/MaxPool",
                    "Location": "Device",
                    "Dimensions": [
                        1,
                        64,
                        56,
                        56
                    ],
                    "Format/Datatype": "Channel major FP32 format where channel % 4 == 0"
                }
            ],
            "Outputs": [
                {
                    "Name": "/maxpool/MaxPool_output_0",
                    "Location": "Device",
                    "Dimensions": [
                        1,
                        64,
                        56,
                        56
                    ],
                    "Format/Datatype": "Row major linear FP32"
                }
            ],
            "ParameterType": "Reformat",
            "Origin": "REFORMAT",
            "TacticValue": "0x0000000000000000",
            "StreamId": 0,
            "Metadata": ""
        },
        {
            "Name": "/layer1/layer1.0/conv1/Conv + /layer1/layer1.0/relu/Relu",
            "LayerType": "CaskConvolution",
            "Inputs": [
                {
                    "Name": "/maxpool/MaxPool_output_0",
                    "Location": "Device",
                    "Dimensions": [
                        1,
                        64,
                        56,
                        56
                    ],
                    "Format/Datatype": "Row major linear FP32"
                }
            ],
            "Outputs": [
                {
                    "Name": "/layer1/layer1.0/relu/Relu_output_0",
                    "Location": "Device",
                    "Dimensions": [
                        1,
                        64,
                        56,
                        56
                    ],
                    "Format/Datatype": "Row major linear FP32"
                }
            ],
            "ParameterType": "Convolution",
            "Kernel": [
                3,
                3
            ],
            "PaddingMode": "kEXPLICIT_ROUND_DOWN",
            "PrePadding": [
                1,
                1
            ],
            "PostPadding": [
                1,
                1
            ],
            "Stride": [
                1,
                1
            ],
            "Dilation": [
                1,
                1
            ],
            "OutMaps": 64,
            "Groups": 1,
            "Weights": {
                "Type": "Float",
                "Count": 36864
            },
            "Bias": {
                "Type": "Float",
                "Count": 64
            },
            "HasBias": 1,
            "HasReLU": 1,
            "HasSparseWeights": 0,
            "HasDynamicFilter": 0,
            "HasDynamicBias": 0,
            "HasResidual": 0,
            "ConvXAsActInputIdx": -1,
            "BiasAsActInputIdx": -1,
            "ResAsActInputIdx": -1,
            "Activation": "RELU",
            "TacticName": "sm80_xmma_fprop_wngd_f32f32_f32_f32_nchwkcrs_nchw_tilesize8x16x64x8_warpsize8x1x1_wngd2x2",
            "TacticValue": "0x0190806602534cfd",
            "StreamId": 0,
            "Metadata": "[ONNX Layer: /layer1/layer1.0/conv1/Conv]\u001e[ONNX Layer: /layer1/layer1.0/relu/Relu]"
        },
        {
            "Name": "/layer1/layer1.0/conv2/Conv + /layer1/layer1.0/Add + /layer1/layer1.0/relu_1/Relu",
            "LayerType": "CaskConvolution",
            "Inputs": [
                {
                    "Name": "/layer1/layer1.0/relu/Relu_output_0",
                    "Location": "Device",
                    "Dimensions": [
                        1,
                        64,
                        56,
                        56
                    ],
                    "Format/Datatype": "Row major linear FP32"
                },
                {
                    "Name": "/maxpool/MaxPool_output_0",
                    "Location": "Device",
                    "Dimensions": [
                        1,
                        64,
                        56,
                        56
                    ],
                    "Format/Datatype": "Row major linear FP32"
                }
            ],
            "Outputs": [
                {
                    "Name": "/layer1/layer1.0/relu_1/Relu_output_0",
                    "Location": "Device",
                    "Dimensions": [
                        1,
                        64,
                        56,
                        56
                    ],
                    "Format/Datatype": "Row major linear FP32"
                }
            ],
            "ParameterType": "Convolution",
            "Kernel": [
                3,
                3
            ],
            "PaddingMode": "kEXPLICIT_ROUND_DOWN",
            "PrePadding": [
                1,
                1
            ],
            "PostPadding": [
                1,
                1
            ],
            "Stride": [
                1,
                1
            ],
            "Dilation": [
                1,
                1
            ],
            "OutMaps": 64,
            "Groups": 1,
            "Weights": {
                "Type": "Float",
                "Count": 36864
            },
            "Bias": {
                "Type": "Float",
                "Count": 64
            },
            "HasBias": 1,
            "HasReLU": 1,
            "HasSparseWeights": 0,
            "HasDynamicFilter": 0,
            "HasDynamicBias": 0,
            "HasResidual": 1,
            "ConvXAsActInputIdx": -1,
            "BiasAsActInputIdx": -1,
            "ResAsActInputIdx": -1,
            "Activation": "RELU",
            "TacticName": "ampere_scudnn_winograd_128x128_ldg1_ldg4_relu_tile148t_nt_v1",
            "TacticValue": "0x94119b4c514b211a",
            "StreamId": 0,
            "Metadata": "[ONNX Layer: /layer1/layer1.0/conv2/Conv]\u001e[ONNX Layer: /layer1/layer1.0/Add]\u001e[ONNX Layer: /layer1/layer1.0/relu_1/Relu]"
        },
        {
            "Name": "/layer1/layer1.1/conv1/Conv + /layer1/layer1.1/relu/Relu",
            "LayerType": "CaskConvolution",
            "Inputs": [
                {
                    "Name": "/layer1/layer1.0/relu_1/Relu_output_0",
                    "Location": "Device",
                    "Dimensions": [
                        1,
                        64,
                        56,
                        56
                    ],
                    "Format/Datatype": "Row major linear FP32"
                }
            ],
            "Outputs": [
                {
                    "Name": "/layer1/layer1.1/relu/Relu_output_0",
                    "Location": "Device",
                    "Dimensions": [
                        1,
                        64,
                        56,
                        56
                    ],
                    "Format/Datatype": "Row major linear FP32"
                }
            ],
            "ParameterType": "Convolution",
            "Kernel": [
                3,
                3
            ],
            "PaddingMode": "kEXPLICIT_ROUND_DOWN",
            "PrePadding": [
                1,
                1
            ],
            "PostPadding": [
                1,
                1
            ],
            "Stride": [
                1,
                1
            ],
            "Dilation": [
                1,
                1
            ],
            "OutMaps": 64,
            "Groups": 1,
            "Weights": {
                "Type": "Float",
                "Count": 36864
            },
            "Bias": {
                "Type": "Float",
                "Count": 64
            },
            "HasBias": 1,
            "HasReLU": 1,
            "HasSparseWeights": 0,
            "HasDynamicFilter": 0,
            "HasDynamicBias": 0,
            "HasResidual": 0,
            "ConvXAsActInputIdx": -1,
            "BiasAsActInputIdx": -1,
            "ResAsActInputIdx": -1,
            "Activation": "RELU",
            "TacticName": "sm80_xmma_fprop_wngd_f32f32_f32_f32_nchwkcrs_nchw_tilesize8x16x64x8_warpsize8x1x1_wngd2x2",
            "TacticValue": "0x0190806602534cfd",
            "StreamId": 0,
            "Metadata": "[ONNX Layer: /layer1/layer1.1/conv1/Conv]\u001e[ONNX Layer: /layer1/layer1.1/relu/Relu]"
        },
        {
            "Name": "/layer1/layer1.1/conv2/Conv + /layer1/layer1.1/Add + /layer1/layer1.1/relu_1/Relu",
            "LayerType": "CaskConvolution",
            "Inputs": [
                {
                    "Name": "/layer1/layer1.1/relu/Relu_output_0",
                    "Location": "Device",
                    "Dimensions": [
                        1,
                        64,
                        56,
                        56
                    ],
                    "Format/Datatype": "Row major linear FP32"
                },
                {
                    "Name": "/layer1/layer1.0/relu_1/Relu_output_0",
                    "Location": "Device",
                    "Dimensions": [
                        1,
                        64,
                        56,
                        56
                    ],
                    "Format/Datatype": "Row major linear FP32"
                }
            ],
            "Outputs": [
                {
                    "Name": "/layer1/layer1.1/relu_1/Relu_output_0",
                    "Location": "Device",
                    "Dimensions": [
                        1,
                        64,
                        56,
                        56
                    ],
                    "Format/Datatype": "Row major linear FP32"
                }
            ],
            "ParameterType": "Convolution",
            "Kernel": [
                3,
                3
            ],
            "PaddingMode": "kEXPLICIT_ROUND_DOWN",
            "PrePadding": [
                1,
                1
            ],
            "PostPadding": [
                1,
                1
            ],
            "Stride": [
                1,
                1
            ],
            "Dilation": [
                1,
                1
            ],
            "OutMaps": 64,
            "Groups": 1,
            "Weights": {
                "Type": "Float",
                "Count": 36864
            },
            "Bias": {
                "Type": "Float",
                "Count": 64
            },
            "HasBias": 1,
            "HasReLU": 1,
            "HasSparseWeights": 0,
            "HasDynamicFilter": 0,
            "HasDynamicBias": 0,
            "HasResidual": 1,
            "ConvXAsActInputIdx": -1,
            "BiasAsActInputIdx": -1,
            "ResAsActInputIdx": -1,
            "Activation": "RELU",
            "TacticName": "ampere_scudnn_winograd_128x128_ldg1_ldg4_relu_tile148t_nt_v1",
            "TacticValue": "0x94119b4c514b211a",
            "StreamId": 0,
            "Metadata": "[ONNX Layer: /layer1/layer1.1/conv2/Conv]\u001e[ONNX Layer: /layer1/layer1.1/Add]\u001e[ONNX Layer: /layer1/layer1.1/relu_1/Relu]"
        },
        {
            "Name": "/layer2/layer2.0/conv1/Conv + /layer2/layer2.0/relu/Relu",
            "LayerType": "CaskConvolution",
            "Inputs": [
                {
                    "Name": "/layer1/layer1.1/relu_1/Relu_output_0",
                    "Location": "Device",
                    "Dimensions": [
                        1,
                        64,
                        56,
                        56
                    ],
                    "Format/Datatype": "Row major linear FP32"
                }
            ],
            "Outputs": [
                {
                    "Name": "/layer2/layer2.0/relu/Relu_output_0",
                    "Location": "Device",
                    "Dimensions": [
                        1,
                        128,
                        28,
                        28
                    ],
                    "Format/Datatype": "Row major linear FP32"
                }
            ],
            "ParameterType": "Convolution",
            "Kernel": [
                3,
                3
            ],
            "PaddingMode": "kEXPLICIT_ROUND_DOWN",
            "PrePadding": [
                1,
                1
            ],
            "PostPadding": [
                1,
                1
            ],
            "Stride": [
                2,
                2
            ],
            "Dilation": [
                1,
                1
            ],
            "OutMaps": 128,
            "Groups": 1,
            "Weights": {
                "Type": "Float",
                "Count": 73728
            },
            "Bias": {
                "Type": "Float",
                "Count": 128
            },
            "HasBias": 1,
            "HasReLU": 1,
            "HasSparseWeights": 0,
            "HasDynamicFilter": 0,
            "HasDynamicBias": 0,
            "HasResidual": 0,
            "ConvXAsActInputIdx": -1,
            "BiasAsActInputIdx": -1,
            "ResAsActInputIdx": -1,
            "Activation": "RELU",
            "TacticName": "sm80_xmma_fprop_implicit_gemm_f32f32_f32f32_f32_nchwkcrs_nchw_tilesize64x64x8_stage3_warpsize1x4x1_g1_ffma_t1r3s3_aligna4_alignc4",
            "TacticValue": "0x4727434768e46395",
            "StreamId": 0,
            "Metadata": "[ONNX Layer: /layer2/layer2.0/conv1/Conv]\u001e[ONNX Layer: /layer2/layer2.0/relu/Relu]"
        },
        {
            "Name": "/layer2/layer2.0/conv2/Conv",
            "LayerType": "CaskConvolution",
            "Inputs": [
                {
                    "Name": "/layer2/layer2.0/relu/Relu_output_0",
                    "Location": "Device",
                    "Dimensions": [
                        1,
                        128,
                        28,
                        28
                    ],
                    "Format/Datatype": "Row major linear FP32"
                }
            ],
            "Outputs": [
                {
                    "Name": "/layer2/layer2.0/conv2/Conv_output_0",
                    "Location": "Device",
                    "Dimensions": [
                        1,
                        128,
                        28,
                        28
                    ],
                    "Format/Datatype": "Row major linear FP32"
                }
            ],
            "ParameterType": "Convolution",
            "Kernel": [
                3,
                3
            ],
            "PaddingMode": "kEXPLICIT_ROUND_DOWN",
            "PrePadding": [
                1,
                1
            ],
            "PostPadding": [
                1,
                1
            ],
            "Stride": [
                1,
                1
            ],
            "Dilation": [
                1,
                1
            ],
            "OutMaps": 128,
            "Groups": 1,
            "Weights": {
                "Type": "Float",
                "Count": 147456
            },
            "Bias": {
                "Type": "Float",
                "Count": 128
            },
            "HasBias": 1,
            "HasReLU": 0,
            "HasSparseWeights": 0,
            "HasDynamicFilter": 0,
            "HasDynamicBias": 0,
            "HasResidual": 0,
            "ConvXAsActInputIdx": -1,
            "BiasAsActInputIdx": -1,
            "ResAsActInputIdx": -1,
            "Activation": "NONE",
            "TacticName": "sm80_xmma_fprop_wngd_f32f32_f32_f32_nchwkcrs_nchw_tilesize8x16x64x8_warpsize8x1x1_wngd2x2",
            "TacticValue": "0x0190806602534cfd",
            "StreamId": 0,
            "Metadata": "[ONNX Layer: /layer2/layer2.0/conv2/Conv]"
        },
        {
            "Name": "/layer2/layer2.0/downsample/downsample.0/Conv + /layer2/layer2.0/Add + /layer2/layer2.0/relu_1/Relu",
            "LayerType": "CaskConvolution",
            "Inputs": [
                {
                    "Name": "/layer1/layer1.1/relu_1/Relu_output_0",
                    "Location": "Device",
                    "Dimensions": [
                        1,
                        64,
                        56,
                        56
                    ],
                    "Format/Datatype": "Row major linear FP32"
                },
                {
                    "Name": "/layer2/layer2.0/conv2/Conv_output_0",
                    "Location": "Device",
                    "Dimensions": [
                        1,
                        128,
                        28,
                        28
                    ],
                    "Format/Datatype": "Row major linear FP32"
                }
            ],
            "Outputs": [
                {
                    "Name": "/layer2/layer2.0/relu_1/Relu_output_0",
                    "Location": "Device",
                    "Dimensions": [
                        1,
                        128,
                        28,
                        28
                    ],
                    "Format/Datatype": "Row major linear FP32"
                }
            ],
            "ParameterType": "Convolution",
            "Kernel": [
                1,
                1
            ],
            "PaddingMode": "kEXPLICIT_ROUND_DOWN",
            "PrePadding": [
                0,
                0
            ],
            "PostPadding": [
                0,
                0
            ],
            "Stride": [
                2,
                2
            ],
            "Dilation": [
                1,
                1
            ],
            "OutMaps": 128,
            "Groups": 1,
            "Weights": {
                "Type": "Float",
                "Count": 8192
            },
            "Bias": {
                "Type": "Float",
                "Count": 128
            },
            "HasBias": 1,
            "HasReLU": 1,
            "HasSparseWeights": 0,
            "HasDynamicFilter": 0,
            "HasDynamicBias": 0,
            "HasResidual": 1,
            "ConvXAsActInputIdx": -1,
            "BiasAsActInputIdx": -1,
            "ResAsActInputIdx": -1,
            "Activation": "RELU",
            "TacticName": "sm80_xmma_fprop_implicit_gemm_f32f32_f32f32_f32_nchwkcrs_nchw_tilesize64x64x8_stage3_warpsize1x4x1_g1_ffma_t1r1s1_aligna4_alignc4",
            "TacticValue": "0x865894c4635db7fd",
            "StreamId": 0,
            "Metadata": "[ONNX Layer: /layer2/layer2.0/downsample/downsample.0/Conv]\u001e[ONNX Layer: /layer2/layer2.0/Add]\u001e[ONNX Layer: /layer2/layer2.0/relu_1/Relu]"
        },
        {
            "Name": "/layer2/layer2.1/conv1/Conv + /layer2/layer2.1/relu/Relu",
            "LayerType": "CaskConvolution",
            "Inputs": [
                {
                    "Name": "/layer2/layer2.0/relu_1/Relu_output_0",
                    "Location": "Device",
                    "Dimensions": [
                        1,
                        128,
                        28,
                        28
                    ],
                    "Format/Datatype": "Row major linear FP32"
                }
            ],
            "Outputs": [
                {
                    "Name": "/layer2/layer2.1/relu/Relu_output_0",
                    "Location": "Device",
                    "Dimensions": [
                        1,
                        128,
                        28,
                        28
                    ],
                    "Format/Datatype": "Row major linear FP32"
                }
            ],
            "ParameterType": "Convolution",
            "Kernel": [
                3,
                3
            ],
            "PaddingMode": "kEXPLICIT_ROUND_DOWN",
            "PrePadding": [
                1,
                1
            ],
            "PostPadding": [
                1,
                1
            ],
            "Stride": [
                1,
                1
            ],
            "Dilation": [
                1,
                1
            ],
            "OutMaps": 128,
            "Groups": 1,
            "Weights": {
                "Type": "Float",
                "Count": 147456
            },
            "Bias": {
                "Type": "Float",
                "Count": 128
            },
            "HasBias": 1,
            "HasReLU": 1,
            "HasSparseWeights": 0,
            "HasDynamicFilter": 0,
            "HasDynamicBias": 0,
            "HasResidual": 0,
            "ConvXAsActInputIdx": -1,
            "BiasAsActInputIdx": -1,
            "ResAsActInputIdx": -1,
            "Activation": "RELU",
            "TacticName": "sm80_xmma_fprop_wngd_f32f32_f32_f32_nchwkcrs_nchw_tilesize8x16x64x8_warpsize8x1x1_wngd2x2",
            "TacticValue": "0x0190806602534cfd",
            "StreamId": 0,
            "Metadata": "[ONNX Layer: /layer2/layer2.1/conv1/Conv]\u001e[ONNX Layer: /layer2/layer2.1/relu/Relu]"
        },
        {
            "Name": "/layer2/layer2.1/conv2/Conv + /layer2/layer2.1/Add + /layer2/layer2.1/relu_1/Relu",
            "LayerType": "CaskConvolution",
            "Inputs": [
                {
                    "Name": "/layer2/layer2.1/relu/Relu_output_0",
                    "Location": "Device",
                    "Dimensions": [
                        1,
                        128,
                        28,
                        28
                    ],
                    "Format/Datatype": "Row major linear FP32"
                },
                {
                    "Name": "/layer2/layer2.0/relu_1/Relu_output_0",
                    "Location": "Device",
                    "Dimensions": [
                        1,
                        128,
                        28,
                        28
                    ],
                    "Format/Datatype": "Row major linear FP32"
                }
            ],
            "Outputs": [
                {
                    "Name": "/layer2/layer2.1/relu_1/Relu_output_0",
                    "Location": "Device",
                    "Dimensions": [
                        1,
                        128,
                        28,
                        28
                    ],
                    "Format/Datatype": "Row major linear FP32"
                }
            ],
            "ParameterType": "Convolution",
            "Kernel": [
                3,
                3
            ],
            "PaddingMode": "kEXPLICIT_ROUND_DOWN",
            "PrePadding": [
                1,
                1
            ],
            "PostPadding": [
                1,
                1
            ],
            "Stride": [
                1,
                1
            ],
            "Dilation": [
                1,
                1
            ],
            "OutMaps": 128,
            "Groups": 1,
            "Weights": {
                "Type": "Float",
                "Count": 147456
            },
            "Bias": {
                "Type": "Float",
                "Count": 128
            },
            "HasBias": 1,
            "HasReLU": 1,
            "HasSparseWeights": 0,
            "HasDynamicFilter": 0,
            "HasDynamicBias": 0,
            "HasResidual": 1,
            "ConvXAsActInputIdx": -1,
            "BiasAsActInputIdx": -1,
            "ResAsActInputIdx": -1,
            "Activation": "RELU",
            "TacticName": "ampere_scudnn_winograd_128x128_ldg1_ldg4_relu_tile148t_nt_v1",
            "TacticValue": "0x94119b4c514b211a",
            "StreamId": 0,
            "Metadata": "[ONNX Layer: /layer2/layer2.1/conv2/Conv]\u001e[ONNX Layer: /layer2/layer2.1/Add]\u001e[ONNX Layer: /layer2/layer2.1/relu_1/Relu]"
        },
        {
            "Name": "/layer3/layer3.0/conv1/Conv + /layer3/layer3.0/relu/Relu",
            "LayerType": "CaskConvolution",
            "Inputs": [
                {
                    "Name": "/layer2/layer2.1/relu_1/Relu_output_0",
                    "Location": "Device",
                    "Dimensions": [
                        1,
                        128,
                        28,
                        28
                    ],
                    "Format/Datatype": "Row major linear FP32"
                }
            ],
            "Outputs": [
                {
                    "Name": "/layer3/layer3.0/relu/Relu_output_0",
                    "Location": "Device",
                    "Dimensions": [
                        1,
                        256,
                        14,
                        14
                    ],
                    "Format/Datatype": "Row major linear FP32"
                }
            ],
            "ParameterType": "Convolution",
            "Kernel": [
                3,
                3
            ],
            "PaddingMode": "kEXPLICIT_ROUND_DOWN",
            "PrePadding": [
                1,
                1
            ],
            "PostPadding": [
                1,
                1
            ],
            "Stride": [
                2,
                2
            ],
            "Dilation": [
                1,
                1
            ],
            "OutMaps": 256,
            "Groups": 1,
            "Weights": {
                "Type": "Float",
                "Count": 294912
            },
            "Bias": {
                "Type": "Float",
                "Count": 256
            },
            "HasBias": 1,
            "HasReLU": 1,
            "HasSparseWeights": 0,
            "HasDynamicFilter": 0,
            "HasDynamicBias": 0,
            "HasResidual": 0,
            "ConvXAsActInputIdx": -1,
            "BiasAsActInputIdx": -1,
            "ResAsActInputIdx": -1,
            "Activation": "RELU",
            "TacticName": "sm80_xmma_fprop_implicit_gemm_f32f32_f32f32_f32_nchwkcrs_nchw_tilesize32x32x8_stage3_warpsize1x2x1_g1_ffma_t1r3s3_aligna4_alignc4",
            "TacticValue": "0x8ad32616b1424be4",
            "StreamId": 0,
            "Metadata": "[ONNX Layer: /layer3/layer3.0/conv1/Conv]\u001e[ONNX Layer: /layer3/layer3.0/relu/Relu]"
        },
        {
            "Name": "/layer3/layer3.0/conv2/Conv",
            "LayerType": "CaskConvolution",
            "Inputs": [
                {
                    "Name": "/layer3/layer3.0/relu/Relu_output_0",
                    "Location": "Device",
                    "Dimensions": [
                        1,
                        256,
                        14,
                        14
                    ],
                    "Format/Datatype": "Row major linear FP32"
                }
            ],
            "Outputs": [
                {
                    "Name": "/layer3/layer3.0/conv2/Conv_output_0",
                    "Location": "Device",
                    "Dimensions": [
                        1,
                        256,
                        14,
                        14
                    ],
                    "Format/Datatype": "Row major linear FP32"
                }
            ],
            "ParameterType": "Convolution",
            "Kernel": [
                3,
                3
            ],
            "PaddingMode": "kEXPLICIT_ROUND_DOWN",
            "PrePadding": [
                1,
                1
            ],
            "PostPadding": [
                1,
                1
            ],
            "Stride": [
                1,
                1
            ],
            "Dilation": [
                1,
                1
            ],
            "OutMaps": 256,
            "Groups": 1,
            "Weights": {
                "Type": "Float",
                "Count": 589824
            },
            "Bias": {
                "Type": "Float",
                "Count": 256
            },
            "HasBias": 1,
            "HasReLU": 0,
            "HasSparseWeights": 0,
            "HasDynamicFilter": 0,
            "HasDynamicBias": 0,
            "HasResidual": 0,
            "ConvXAsActInputIdx": -1,
            "BiasAsActInputIdx": -1,
            "ResAsActInputIdx": -1,
            "Activation": "NONE",
            "TacticName": "ampere_scudnn_winograd_128x128_ldg1_ldg4_relu_tile148t_nt_v1",
            "TacticValue": "0x94119b4c514b211a",
            "StreamId": 0,
            "Metadata": "[ONNX Layer: /layer3/layer3.0/conv2/Conv]"
        },
        {
            "Name": "/layer3/layer3.0/downsample/downsample.0/Conv + /layer3/layer3.0/Add + /layer3/layer3.0/relu_1/Relu",
            "LayerType": "CaskConvolution",
            "Inputs": [
                {
                    "Name": "/layer2/layer2.1/relu_1/Relu_output_0",
                    "Location": "Device",
                    "Dimensions": [
                        1,
                        128,
                        28,
                        28
                    ],
                    "Format/Datatype": "Row major linear FP32"
                },
                {
                    "Name": "/layer3/layer3.0/conv2/Conv_output_0",
                    "Location": "Device",
                    "Dimensions": [
                        1,
                        256,
                        14,
                        14
                    ],
                    "Format/Datatype": "Row major linear FP32"
                }
            ],
            "Outputs": [
                {
                    "Name": "/layer3/layer3.0/relu_1/Relu_output_0",
                    "Location": "Device",
                    "Dimensions": [
                        1,
                        256,
                        14,
                        14
                    ],
                    "Format/Datatype": "Row major linear FP32"
                }
            ],
            "ParameterType": "Convolution",
            "Kernel": [
                1,
                1
            ],
            "PaddingMode": "kEXPLICIT_ROUND_DOWN",
            "PrePadding": [
                0,
                0
            ],
            "PostPadding": [
                0,
                0
            ],
            "Stride": [
                2,
                2
            ],
            "Dilation": [
                1,
                1
            ],
            "OutMaps": 256,
            "Groups": 1,
            "Weights": {
                "Type": "Float",
                "Count": 32768
            },
            "Bias": {
                "Type": "Float",
                "Count": 256
            },
            "HasBias": 1,
            "HasReLU": 1,
            "HasSparseWeights": 0,
            "HasDynamicFilter": 0,
            "HasDynamicBias": 0,
            "HasResidual": 1,
            "ConvXAsActInputIdx": -1,
            "BiasAsActInputIdx": -1,
            "ResAsActInputIdx": -1,
            "Activation": "RELU",
            "TacticName": "sm80_xmma_fprop_implicit_gemm_f32f32_f32f32_f32_nchwkcrs_nchw_tilesize32x32x8_stage3_warpsize1x2x1_g1_ffma_aligna4_alignc4",
            "TacticValue": "0xb0bf940d5e0f9f45",
            "StreamId": 0,
            "Metadata": "[ONNX Layer: /layer3/layer3.0/downsample/downsample.0/Conv]\u001e[ONNX Layer: /layer3/layer3.0/Add]\u001e[ONNX Layer: /layer3/layer3.0/relu_1/Relu]"
        },
        {
            "Name": "/layer3/layer3.1/conv1/Conv + /layer3/layer3.1/relu/Relu",
            "LayerType": "CaskConvolution",
            "Inputs": [
                {
                    "Name": "/layer3/layer3.0/relu_1/Relu_output_0",
                    "Location": "Device",
                    "Dimensions": [
                        1,
                        256,
                        14,
                        14
                    ],
                    "Format/Datatype": "Row major linear FP32"
                }
            ],
            "Outputs": [
                {
                    "Name": "/layer3/layer3.1/relu/Relu_output_0",
                    "Location": "Device",
                    "Dimensions": [
                        1,
                        256,
                        14,
                        14
                    ],
                    "Format/Datatype": "Row major linear FP32"
                }
            ],
            "ParameterType": "Convolution",
            "Kernel": [
                3,
                3
            ],
            "PaddingMode": "kEXPLICIT_ROUND_DOWN",
            "PrePadding": [
                1,
                1
            ],
            "PostPadding": [
                1,
                1
            ],
            "Stride": [
                1,
                1
            ],
            "Dilation": [
                1,
                1
            ],
            "OutMaps": 256,
            "Groups": 1,
            "Weights": {
                "Type": "Float",
                "Count": 589824
            },
            "Bias": {
                "Type": "Float",
                "Count": 256
            },
            "HasBias": 1,
            "HasReLU": 1,
            "HasSparseWeights": 0,
            "HasDynamicFilter": 0,
            "HasDynamicBias": 0,
            "HasResidual": 0,
            "ConvXAsActInputIdx": -1,
            "BiasAsActInputIdx": -1,
            "ResAsActInputIdx": -1,
            "Activation": "RELU",
            "TacticName": "ampere_scudnn_winograd_128x128_ldg1_ldg4_relu_tile148t_nt_v1",
            "TacticValue": "0x94119b4c514b211a",
            "StreamId": 0,
            "Metadata": "[ONNX Layer: /layer3/layer3.1/conv1/Conv]\u001e[ONNX Layer: /layer3/layer3.1/relu/Relu]"
        },
        {
            "Name": "/layer3/layer3.1/conv2/Conv + /layer3/layer3.1/Add + /layer3/layer3.1/relu_1/Relu",
            "LayerType": "CaskConvolution",
            "Inputs": [
                {
                    "Name": "/layer3/layer3.1/relu/Relu_output_0",
                    "Location": "Device",
                    "Dimensions": [
                        1,
                        256,
                        14,
                        14
                    ],
                    "Format/Datatype": "Row major linear FP32"
                },
                {
                    "Name": "/layer3/layer3.0/relu_1/Relu_output_0",
                    "Location": "Device",
                    "Dimensions": [
                        1,
                        256,
                        14,
                        14
                    ],
                    "Format/Datatype": "Row major linear FP32"
                }
            ],
            "Outputs": [
                {
                    "Name": "/layer3/layer3.1/relu_1/Relu_output_0",
                    "Location": "Device",
                    "Dimensions": [
                        1,
                        256,
                        14,
                        14
                    ],
                    "Format/Datatype": "Row major linear FP32"
                }
            ],
            "ParameterType": "Convolution",
            "Kernel": [
                3,
                3
            ],
            "PaddingMode": "kEXPLICIT_ROUND_DOWN",
            "PrePadding": [
                1,
                1
            ],
            "PostPadding": [
                1,
                1
            ],
            "Stride": [
                1,
                1
            ],
            "Dilation": [
                1,
                1
            ],
            "OutMaps": 256,
            "Groups": 1,
            "Weights": {
                "Type": "Float",
                "Count": 589824
            },
            "Bias": {
                "Type": "Float",
                "Count": 256
            },
            "HasBias": 1,
            "HasReLU": 1,
            "HasSparseWeights": 0,
            "HasDynamicFilter": 0,
            "HasDynamicBias": 0,
            "HasResidual": 1,
            "ConvXAsActInputIdx": -1,
            "BiasAsActInputIdx": -1,
            "ResAsActInputIdx": -1,
            "Activation": "RELU",
            "TacticName": "ampere_scudnn_winograd_128x128_ldg1_ldg4_relu_tile148t_nt_v1",
            "TacticValue": "0x94119b4c514b211a",
            "StreamId": 0,
            "Metadata": "[ONNX Layer: /layer3/layer3.1/conv2/Conv]\u001e[ONNX Layer: /layer3/layer3.1/Add]\u001e[ONNX Layer: /layer3/layer3.1/relu_1/Relu]"
        },
        {
            "Name": "Reformatting CopyNode for Input Tensor 0 to /layer4/layer4.0/conv1/Conv + /layer4/layer4.0/relu/Relu",
            "LayerType": "Reformat",
            "Inputs": [
                {
                    "Name": "/layer3/layer3.1/relu_1/Relu_output_0",
                    "Location": "Device",
                    "Dimensions": [
                        1,
                        256,
                        14,
                        14
                    ],
                    "Format/Datatype": "Row major linear FP32"
                }
            ],
            "Outputs": [
                {
                    "Name": "Reformatted Input Tensor 0 to /layer4/layer4.0/conv1/Conv + /layer4/layer4.0/relu/Relu",
                    "Location": "Device",
                    "Dimensions": [
                        1,
                        256,
                        14,
                        14
                    ],
                    "Format/Datatype": "Channel major FP32 format"
                }
            ],
            "ParameterType": "Reformat",
            "Origin": "REFORMAT",
            "TacticValue": "0x0000000000000000",
            "StreamId": 0,
            "Metadata": ""
        },
        {
            "Name": "/layer4/layer4.0/conv1/Conv + /layer4/layer4.0/relu/Relu",
            "LayerType": "CaskConvolution",
            "Inputs": [
                {
                    "Name": "Reformatted Input Tensor 0 to /layer4/layer4.0/conv1/Conv + /layer4/layer4.0/relu/Relu",
                    "Location": "Device",
                    "Dimensions": [
                        1,
                        256,
                        14,
                        14
                    ],
                    "Format/Datatype": "Channel major FP32 format"
                }
            ],
            "Outputs": [
                {
                    "Name": "/layer4/layer4.0/relu/Relu_output_0",
                    "Location": "Device",
                    "Dimensions": [
                        1,
                        512,
                        7,
                        7
                    ],
                    "Format/Datatype": "Channel major FP32 format"
                }
            ],
            "ParameterType": "Convolution",
            "Kernel": [
                3,
                3
            ],
            "PaddingMode": "kEXPLICIT_ROUND_DOWN",
            "PrePadding": [
                1,
                1
            ],
            "PostPadding": [
                1,
                1
            ],
            "Stride": [
                2,
                2
            ],
            "Dilation": [
                1,
                1
            ],
            "OutMaps": 512,
            "Groups": 1,
            "Weights": {
                "Type": "Float",
                "Count": 1179648
            },
            "Bias": {
                "Type": "Float",
                "Count": 512
            },
            "HasBias": 1,
            "HasReLU": 1,
            "HasSparseWeights": 0,
            "HasDynamicFilter": 0,
            "HasDynamicBias": 0,
            "HasResidual": 0,
            "ConvXAsActInputIdx": -1,
            "BiasAsActInputIdx": -1,
            "ResAsActInputIdx": -1,
            "Activation": "RELU",
            "TacticName": "sm80_xmma_fprop_implicit_gemm_f32f32_f32f32_f32_nhwckrsc_nhwc_tilesize32x32x8_stage3_warpsize1x2x1_g1_ffma_aligna4_alignc4",
            "TacticValue": "0x7121ec1db3f80c67",
            "StreamId": 0,
            "Metadata": "[ONNX Layer: /layer4/layer4.0/conv1/Conv]\u001e[ONNX Layer: /layer4/layer4.0/relu/Relu]"
        },
        {
            "Name": "Reformatting CopyNode for Input Tensor 0 to /layer4/layer4.0/conv2/Conv",
            "LayerType": "Reformat",
            "Inputs": [
                {
                    "Name": "/layer4/layer4.0/relu/Relu_output_0",
                    "Location": "Device",
                    "Dimensions": [
                        1,
                        512,
                        7,
                        7
                    ],
                    "Format/Datatype": "Channel major FP32 format"
                }
            ],
            "Outputs": [
                {
                    "Name": "Reformatted Input Tensor 0 to /layer4/layer4.0/conv2/Conv",
                    "Location": "Device",
                    "Dimensions": [
                        1,
                        512,
                        7,
                        7
                    ],
                    "Format/Datatype": "Row major linear FP32"
                }
            ],
            "ParameterType": "Reformat",
            "Origin": "REFORMAT",
            "TacticValue": "0x0000000000000000",
            "StreamId": 0,
            "Metadata": ""
        },
        {
            "Name": "/layer4/layer4.0/conv2/Conv",
            "LayerType": "CaskConvolution",
            "Inputs": [
                {
                    "Name": "Reformatted Input Tensor 0 to /layer4/layer4.0/conv2/Conv",
                    "Location": "Device",
                    "Dimensions": [
                        1,
                        512,
                        7,
                        7
                    ],
                    "Format/Datatype": "Row major linear FP32"
                }
            ],
            "Outputs": [
                {
                    "Name": "/layer4/layer4.0/conv2/Conv_output_0",
                    "Location": "Device",
                    "Dimensions": [
                        1,
                        512,
                        7,
                        7
                    ],
                    "Format/Datatype": "Row major linear FP32"
                }
            ],
            "ParameterType": "Convolution",
            "Kernel": [
                3,
                3
            ],
            "PaddingMode": "kEXPLICIT_ROUND_DOWN",
            "PrePadding": [
                1,
                1
            ],
            "PostPadding": [
                1,
                1
            ],
            "Stride": [
                1,
                1
            ],
            "Dilation": [
                1,
                1
            ],
            "OutMaps": 512,
            "Groups": 1,
            "Weights": {
                "Type": "Float",
                "Count": 2359296
            },
            "Bias": {
                "Type": "Float",
                "Count": 512
            },
            "HasBias": 1,
            "HasReLU": 0,
            "HasSparseWeights": 0,
            "HasDynamicFilter": 0,
            "HasDynamicBias": 0,
            "HasResidual": 0,
            "ConvXAsActInputIdx": -1,
            "BiasAsActInputIdx": -1,
            "ResAsActInputIdx": -1,
            "Activation": "NONE",
            "TacticName": "sm50_xmma_conv_fprop_fused_conv_act_fp32_NCHW_fp32_NCHW_KCRS_fp32_fp32_fp32_Accfloat_1_1_cC1_dC1_srcVec1_fltVec2_2_TP3_TQ7_C8_R3_S3_U1_V1",
            "TacticValue": "0xacd7fdab1dbcfb17",
            "StreamId": 0,
            "Metadata": "[ONNX Layer: /layer4/layer4.0/conv2/Conv]"
        },
        {
            "Name": "/layer4/layer4.0/downsample/downsample.0/Conv + /layer4/layer4.0/Add + /layer4/layer4.0/relu_1/Relu",
            "LayerType": "CaskConvolution",
            "Inputs": [
                {
                    "Name": "/layer3/layer3.1/relu_1/Relu_output_0",
                    "Location": "Device",
                    "Dimensions": [
                        1,
                        256,
                        14,
                        14
                    ],
                    "Format/Datatype": "Row major linear FP32"
                },
                {
                    "Name": "/layer4/layer4.0/conv2/Conv_output_0",
                    "Location": "Device",
                    "Dimensions": [
                        1,
                        512,
                        7,
                        7
                    ],
                    "Format/Datatype": "Row major linear FP32"
                }
            ],
            "Outputs": [
                {
                    "Name": "/layer4/layer4.0/relu_1/Relu_output_0",
                    "Location": "Device",
                    "Dimensions": [
                        1,
                        512,
                        7,
                        7
                    ],
                    "Format/Datatype": "Row major linear FP32"
                }
            ],
            "ParameterType": "Convolution",
            "Kernel": [
                1,
                1
            ],
            "PaddingMode": "kEXPLICIT_ROUND_DOWN",
            "PrePadding": [
                0,
                0
            ],
            "PostPadding": [
                0,
                0
            ],
            "Stride": [
                2,
                2
            ],
            "Dilation": [
                1,
                1
            ],
            "OutMaps": 512,
            "Groups": 1,
            "Weights": {
                "Type": "Float",
                "Count": 131072
            },
            "Bias": {
                "Type": "Float",
                "Count": 512
            },
            "HasBias": 1,
            "HasReLU": 1,
            "HasSparseWeights": 0,
            "HasDynamicFilter": 0,
            "HasDynamicBias": 0,
            "HasResidual": 1,
            "ConvXAsActInputIdx": -1,
            "BiasAsActInputIdx": -1,
            "ResAsActInputIdx": -1,
            "Activation": "RELU",
            "TacticName": "sm80_xmma_fprop_implicit_gemm_f32f32_f32f32_f32_nchwkcrs_nchw_tilesize32x32x8_stage3_warpsize1x2x1_g1_ffma_aligna4_alignc4",
            "TacticValue": "0xb0bf940d5e0f9f45",
            "StreamId": 0,
            "Metadata": "[ONNX Layer: /layer4/layer4.0/downsample/downsample.0/Conv]\u001e[ONNX Layer: /layer4/layer4.0/Add]\u001e[ONNX Layer: /layer4/layer4.0/relu_1/Relu]"
        },
        {
            "Name": "/layer4/layer4.1/conv1/Conv + /layer4/layer4.1/relu/Relu",
            "LayerType": "CaskConvolution",
            "Inputs": [
                {
                    "Name": "/layer4/layer4.0/relu_1/Relu_output_0",
                    "Location": "Device",
                    "Dimensions": [
                        1,
                        512,
                        7,
                        7
                    ],
                    "Format/Datatype": "Row major linear FP32"
                }
            ],
            "Outputs": [
                {
                    "Name": "/layer4/layer4.1/relu/Relu_output_0",
                    "Location": "Device",
                    "Dimensions": [
                        1,
                        512,
                        7,
                        7
                    ],
                    "Format/Datatype": "Row major linear FP32"
                }
            ],
            "ParameterType": "Convolution",
            "Kernel": [
                3,
                3
            ],
            "PaddingMode": "kEXPLICIT_ROUND_DOWN",
            "PrePadding": [
                1,
                1
            ],
            "PostPadding": [
                1,
                1
            ],
            "Stride": [
                1,
                1
            ],
            "Dilation": [
                1,
                1
            ],
            "OutMaps": 512,
            "Groups": 1,
            "Weights": {
                "Type": "Float",
                "Count": 2359296
            },
            "Bias": {
                "Type": "Float",
                "Count": 512
            },
            "HasBias": 1,
            "HasReLU": 1,
            "HasSparseWeights": 0,
            "HasDynamicFilter": 0,
            "HasDynamicBias": 0,
            "HasResidual": 0,
            "ConvXAsActInputIdx": -1,
            "BiasAsActInputIdx": -1,
            "ResAsActInputIdx": -1,
            "Activation": "RELU",
            "TacticName": "sm50_xmma_conv_fprop_fused_conv_act_fp32_NCHW_fp32_NCHW_KCRS_fp32_fp32_fp32_Accfloat_1_1_cC1_dC1_srcVec1_fltVec2_2_TP3_TQ7_C8_R3_S3_U1_V1",
            "TacticValue": "0xacd7fdab1dbcfb17",
            "StreamId": 0,
            "Metadata": "[ONNX Layer: /layer4/layer4.1/conv1/Conv]\u001e[ONNX Layer: /layer4/layer4.1/relu/Relu]"
        },
        {
            "Name": "/layer4/layer4.1/conv2/Conv + /layer4/layer4.1/Add + /layer4/layer4.1/relu_1/Relu",
            "LayerType": "CaskConvolution",
            "Inputs": [
                {
                    "Name": "/layer4/layer4.1/relu/Relu_output_0",
                    "Location": "Device",
                    "Dimensions": [
                        1,
                        512,
                        7,
                        7
                    ],
                    "Format/Datatype": "Row major linear FP32"
                },
                {
                    "Name": "/layer4/layer4.0/relu_1/Relu_output_0",
                    "Location": "Device",
                    "Dimensions": [
                        1,
                        512,
                        7,
                        7
                    ],
                    "Format/Datatype": "Row major linear FP32"
                }
            ],
            "Outputs": [
                {
                    "Name": "/layer4/layer4.1/relu_1/Relu_output_0",
                    "Location": "Device",
                    "Dimensions": [
                        1,
                        512,
                        7,
                        7
                    ],
                    "Format/Datatype": "Row major linear FP32"
                }
            ],
            "ParameterType": "Convolution",
            "Kernel": [
                3,
                3
            ],
            "PaddingMode": "kEXPLICIT_ROUND_DOWN",
            "PrePadding": [
                1,
                1
            ],
            "PostPadding": [
                1,
                1
            ],
            "Stride": [
                1,
                1
            ],
            "Dilation": [
                1,
                1
            ],
            "OutMaps": 512,
            "Groups": 1,
            "Weights": {
                "Type": "Float",
                "Count": 2359296
            },
            "Bias": {
                "Type": "Float",
                "Count": 512
            },
            "HasBias": 1,
            "HasReLU": 1,
            "HasSparseWeights": 0,
            "HasDynamicFilter": 0,
            "HasDynamicBias": 0,
            "HasResidual": 1,
            "ConvXAsActInputIdx": -1,
            "BiasAsActInputIdx": -1,
            "ResAsActInputIdx": -1,
            "Activation": "RELU",
            "TacticName": "ampere_scudnn_winograd_128x128_ldg1_ldg4_relu_tile148t_nt_v1",
            "TacticValue": "0x94119b4c514b211a",
            "StreamId": 0,
            "Metadata": "[ONNX Layer: /layer4/layer4.1/conv2/Conv]\u001e[ONNX Layer: /layer4/layer4.1/Add]\u001e[ONNX Layer: /layer4/layer4.1/relu_1/Relu]"
        },
        {
            "Name": "/avgpool/GlobalAveragePool",
            "LayerType": "CaskPooling",
            "Inputs": [
                {
                    "Name": "/layer4/layer4.1/relu_1/Relu_output_0",
                    "Location": "Device",
                    "Dimensions": [
                        1,
                        512,
                        7,
                        7
                    ],
                    "Format/Datatype": "Row major linear FP32"
                }
            ],
            "Outputs": [
                {
                    "Name": "/avgpool/GlobalAveragePool_output_0",
                    "Location": "Device",
                    "Dimensions": [
                        1,
                        512,
                        1,
                        1
                    ],
                    "Format/Datatype": "Row major linear FP32"
                }
            ],
            "ParameterType": "Pooling",
            "PoolingType": "AVERAGE",
            "WindowSize": [
                7,
                7
            ],
            "PaddingMode": "kEXPLICIT_ROUND_DOWN",
            "PrePadding": [
                0,
                0
            ],
            "PostPadding": [
                0,
                0
            ],
            "Stride": [
                1,
                1
            ],
            "BlendFactor": 0,
            "AverageCountExcludesPadding": 1,
            "TacticName": "sm50_xmma_pooling_tiled_FP32NCHW_kAVERAGE_tP1_tQ1_tR7_tS7_tU1_tV1_tUnroll3_tThreads49",
            "TacticValue": "0xdde1c0e17b540744",
            "StreamId": 0,
            "Metadata": "[ONNX Layer: /avgpool/GlobalAveragePool]"
        },
        {
            "Name": "/fc/Gemm + (Unnamed Layer* 58) [ElementWise]",
            "LayerType": "CaskGemmConvolution",
            "Inputs": [
                {
                    "Name": "/avgpool/GlobalAveragePool_output_0",
                    "Location": "Device",
                    "Dimensions": [
                        1,
                        512,
                        1,
                        1
                    ],
                    "Format/Datatype": "Row major linear FP32"
                }
            ],
            "Outputs": [
                {
                    "Name": "/fc/Gemm_conv_out",
                    "Location": "Device",
                    "Dimensions": [
                        1,
                        1000,
                        1,
                        1
                    ],
                    "Format/Datatype": "Row major linear FP32"
                }
            ],
            "ParameterType": "Convolution",
            "Kernel": [
                1,
                1
            ],
            "PaddingMode": "kEXPLICIT_ROUND_DOWN",
            "PrePadding": [
                0,
                0
            ],
            "PostPadding": [
                0,
                0
            ],
            "Stride": [
                1,
                1
            ],
            "Dilation": [
                1,
                1
            ],
            "OutMaps": 1000,
            "Groups": 1,
            "Weights": {
                "Type": "Float",
                "Count": 512000
            },
            "Bias": {
                "Type": "Float",
                "Count": 1000
            },
            "HasBias": 1,
            "HasReLU": 0,
            "HasSparseWeights": 0,
            "HasDynamicFilter": 0,
            "HasDynamicBias": 0,
            "HasResidual": 0,
            "ConvXAsActInputIdx": -1,
            "BiasAsActInputIdx": -1,
            "ResAsActInputIdx": -1,
            "Activation": "NONE",
            "TacticName": "sm50_xmma_cublas_gemvx_f32f32_f32_f32_nn_n_int32_unit_n_launch_param64x8x8_strided_unit_stride",
            "TacticValue": "0x000000000002078b",
            "StreamId": 0,
            "Metadata": "[ONNX Layer: /fc/Gemm]"
        },
        {
            "Name": "reshape_after_/fc/Gemm",
            "LayerType": "NoOp",
            "Inputs": [
                {
                    "Name": "/fc/Gemm_conv_out",
                    "Location": "Device",
                    "Dimensions": [
                        1,
                        1000,
                        1,
                        1
                    ],
                    "Format/Datatype": "Row major linear FP32"
                }
            ],
            "Outputs": [
                {
                    "Name": "Reformatted Output Tensor 0 to reshape_after_/fc/Gemm",
                    "Location": "Device",
                    "Dimensions": [
                        1,
                        1000
                    ],
                    "Format/Datatype": "Row major linear FP32"
                }
            ],
            "TacticValue": "0x0000000000000000",
            "StreamId": 0,
            "Metadata": "[ONNX Layer: /fc/Gemm]"
        },
        {
            "Name": "Reformatting CopyNode for Output Tensor 0 to reshape_after_/fc/Gemm",
            "LayerType": "Reformat",
            "Inputs": [
                {
                    "Name": "Reformatted Output Tensor 0 to reshape_after_/fc/Gemm",
                    "Location": "Device",
                    "Dimensions": [
                        1,
                        1000
                    ],
                    "Format/Datatype": "Row major linear FP32"
                }
            ],
            "Outputs": [
                {
                    "Name": "output",
                    "Location": "Device",
                    "Dimensions": [
                        1,
                        1000
                    ],
                    "Format/Datatype": "Row major linear FP16 format"
                }
            ],
            "ParameterType": "Reformat",
            "Origin": "REFORMAT",
            "TacticValue": "0x00000000000003e8",
            "StreamId": 0,
            "Metadata": ""
        }
    ],
    "Bindings": [
        "input",
        "output"
    ]
}