{
    "Layers": [
        {
            "Name": "Reformatting CopyNode for Input Tensor 0 to [CONVOLUTION]-[aten_ops.convolution.default]-[/features/0/convolution] + [RELU]-[aten_ops.relu.default]-[/features/1/relu]",
            "LayerType": "Reformat",
            "Inputs": [
                {
                    "Name": "x",
                    "Location": "Device",
                    "Dimensions": [
                        1,
                        3,
                        224,
                        224
                    ],
                    "Format/Datatype": "Row major linear FP16 format"
                }
            ],
            "Outputs": [
                {
                    "Name": "Reformatted Input Tensor 0 to [CONVOLUTION]-[aten_ops.convolution.default]-[/features/0/convolution] + [RELU]-[aten_ops.relu.default]-[/features/1/relu]",
                    "Location": "Device",
                    "Dimensions": [
                        1,
                        3,
                        224,
                        224
                    ],
                    "Format/Datatype": "Channel major FP16 format where channel % 4 == 0"
                }
            ],
            "ParameterType": "Reformat",
            "Origin": "REFORMAT",
            "TacticValue": "0x00000000000003ea",
            "StreamId": 0,
            "Metadata": ""
        },
        {
            "Name": "[CONVOLUTION]-[aten_ops.convolution.default]-[/features/0/convolution] + [RELU]-[aten_ops.relu.default]-[/features/1/relu]",
            "LayerType": "CaskConvolution",
            "Inputs": [
                {
                    "Name": "Reformatted Input Tensor 0 to [CONVOLUTION]-[aten_ops.convolution.default]-[/features/0/convolution] + [RELU]-[aten_ops.relu.default]-[/features/1/relu]",
                    "Location": "Device",
                    "Dimensions": [
                        1,
                        3,
                        224,
                        224
                    ],
                    "Format/Datatype": "Channel major FP16 format where channel % 4 == 0"
                }
            ],
            "Outputs": [
                {
                    "Name": "(Unnamed Layer* 1) [Activation]_output",
                    "Location": "Device",
                    "Dimensions": [
                        1,
                        64,
                        224,
                        224
                    ],
                    "Format/Datatype": "Channel major FP16 format where channel % 8 == 0"
                }
            ],
            "ParameterType": "Convolution",
            "Kernel": [
                3,
                3
            ],
            "PaddingMode": "kEXPLICIT_ROUND_DOWN",
            "PrePadding": [
                1,
                1
            ],
            "PostPadding": [
                1,
                1
            ],
            "Stride": [
                1,
                1
            ],
            "Dilation": [
                1,
                1
            ],
            "OutMaps": 64,
            "Groups": 1,
            "Weights": {
                "Type": "Half",
                "Count": 1728
            },
            "Bias": {
                "Type": "Half",
                "Count": 64
            },
            "HasSparseWeights": 0,
            "HasDynamicFilter": 0,
            "HasDynamicBias": 0,
            "HasResidual": 0,
            "ConvXAsActInputIdx": -1,
            "BiasAsActInputIdx": -1,
            "ResAsActInputIdx": -1,
            "Activation": "RELU",
            "HasBias": 1,
            "HasReLU": 1,
            "TacticName": "sm80_xmma_fprop_implicit_gemm_indexed_wo_smem_f16f16_f16f16_f16_nhwckrsc_nhwc_tilesize128x32x16_stage1_warpsize4x1x1_g1_tensor16x8x16_aligna8_alignc8",
            "TacticValue": "0xfb0beb2dd64ff6e8",
            "StreamId": 0,
            "Metadata": ""
        },
        {
            "Name": "[CONVOLUTION]-[aten_ops.convolution.default]-[/features/2/convolution_1] + [RELU]-[aten_ops.relu.default]-[/features/3/relu_1]",
            "LayerType": "CaskConvolution",
            "Inputs": [
                {
                    "Name": "(Unnamed Layer* 1) [Activation]_output",
                    "Location": "Device",
                    "Dimensions": [
                        1,
                        64,
                        224,
                        224
                    ],
                    "Format/Datatype": "Channel major FP16 format where channel % 8 == 0"
                }
            ],
            "Outputs": [
                {
                    "Name": "(Unnamed Layer* 3) [Activation]_output",
                    "Location": "Device",
                    "Dimensions": [
                        1,
                        64,
                        224,
                        224
                    ],
                    "Format/Datatype": "Channel major FP16 format where channel % 8 == 0"
                }
            ],
            "ParameterType": "Convolution",
            "Kernel": [
                3,
                3
            ],
            "PaddingMode": "kEXPLICIT_ROUND_DOWN",
            "PrePadding": [
                1,
                1
            ],
            "PostPadding": [
                1,
                1
            ],
            "Stride": [
                1,
                1
            ],
            "Dilation": [
                1,
                1
            ],
            "OutMaps": 64,
            "Groups": 1,
            "Weights": {
                "Type": "Half",
                "Count": 36864
            },
            "Bias": {
                "Type": "Half",
                "Count": 64
            },
            "HasSparseWeights": 0,
            "HasDynamicFilter": 0,
            "HasDynamicBias": 0,
            "HasResidual": 0,
            "ConvXAsActInputIdx": -1,
            "BiasAsActInputIdx": -1,
            "ResAsActInputIdx": -1,
            "Activation": "RELU",
            "HasBias": 1,
            "HasReLU": 1,
            "TacticName": "sm80_xmma_fprop_implicit_gemm_f16f16_f16f16_f16_nhwckrsc_nhwc_tilesize256x64x32_stage3_warpsize4x1x1_g1_tensor16x8x16_t1r3s3",
            "TacticValue": "0x529f4431bdae94f5",
            "StreamId": 0,
            "Metadata": ""
        },
        {
            "Name": "[MAX]-[aten_ops.max_pool2d.default]-[max_pool2d_default]",
            "LayerType": "CaskPooling",
            "Inputs": [
                {
                    "Name": "(Unnamed Layer* 3) [Activation]_output",
                    "Location": "Device",
                    "Dimensions": [
                        1,
                        64,
                        224,
                        224
                    ],
                    "Format/Datatype": "Channel major FP16 format where channel % 8 == 0"
                }
            ],
            "Outputs": [
                {
                    "Name": "(Unnamed Layer* 4) [Pooling]_output",
                    "Location": "Device",
                    "Dimensions": [
                        1,
                        64,
                        112,
                        112
                    ],
                    "Format/Datatype": "Channel major FP16 format where channel % 8 == 0"
                }
            ],
            "ParameterType": "Pooling",
            "PoolingType": "MAX",
            "WindowSize": [
                2,
                2
            ],
            "PaddingMode": "kEXPLICIT_ROUND_DOWN",
            "PrePadding": [
                0,
                0
            ],
            "PostPadding": [
                0,
                0
            ],
            "Stride": [
                2,
                2
            ],
            "BlendFactor": 0,
            "AverageCountExcludesPadding": 1,
            "TacticName": "sm50_xmma_pooling_coalescedC_NHWC_kMAX_2_False",
            "TacticValue": "0xf9ae51e35ff7f5db",
            "StreamId": 0,
            "Metadata": ""
        },
        {
            "Name": "[CONVOLUTION]-[aten_ops.convolution.default]-[/features/5/convolution_2] + [RELU]-[aten_ops.relu.default]-[/features/6/relu_2]",
            "LayerType": "CaskConvolution",
            "Inputs": [
                {
                    "Name": "(Unnamed Layer* 4) [Pooling]_output",
                    "Location": "Device",
                    "Dimensions": [
                        1,
                        64,
                        112,
                        112
                    ],
                    "Format/Datatype": "Channel major FP16 format where channel % 8 == 0"
                }
            ],
            "Outputs": [
                {
                    "Name": "(Unnamed Layer* 6) [Activation]_output",
                    "Location": "Device",
                    "Dimensions": [
                        1,
                        128,
                        112,
                        112
                    ],
                    "Format/Datatype": "Channel major FP16 format where channel % 8 == 0"
                }
            ],
            "ParameterType": "Convolution",
            "Kernel": [
                3,
                3
            ],
            "PaddingMode": "kEXPLICIT_ROUND_DOWN",
            "PrePadding": [
                1,
                1
            ],
            "PostPadding": [
                1,
                1
            ],
            "Stride": [
                1,
                1
            ],
            "Dilation": [
                1,
                1
            ],
            "OutMaps": 128,
            "Groups": 1,
            "Weights": {
                "Type": "Half",
                "Count": 73728
            },
            "Bias": {
                "Type": "Half",
                "Count": 128
            },
            "HasSparseWeights": 0,
            "HasDynamicFilter": 0,
            "HasDynamicBias": 0,
            "HasResidual": 0,
            "ConvXAsActInputIdx": -1,
            "BiasAsActInputIdx": -1,
            "ResAsActInputIdx": -1,
            "Activation": "RELU",
            "HasBias": 1,
            "HasReLU": 1,
            "TacticName": "sm80_xmma_fprop_implicit_gemm_f16f16_f16f16_f16_nhwckrsc_nhwc_tilesize128x128x32_stage4_warpsize2x2x1_g1_tensor16x8x16",
            "TacticValue": "0xdfa020ef435ef810",
            "StreamId": 0,
            "Metadata": ""
        },
        {
            "Name": "[CONVOLUTION]-[aten_ops.convolution.default]-[/features/7/convolution_3] + [RELU]-[aten_ops.relu.default]-[/features/8/relu_3]",
            "LayerType": "CaskConvolution",
            "Inputs": [
                {
                    "Name": "(Unnamed Layer* 6) [Activation]_output",
                    "Location": "Device",
                    "Dimensions": [
                        1,
                        128,
                        112,
                        112
                    ],
                    "Format/Datatype": "Channel major FP16 format where channel % 8 == 0"
                }
            ],
            "Outputs": [
                {
                    "Name": "(Unnamed Layer* 8) [Activation]_output",
                    "Location": "Device",
                    "Dimensions": [
                        1,
                        128,
                        112,
                        112
                    ],
                    "Format/Datatype": "Channel major FP16 format where channel % 8 == 0"
                }
            ],
            "ParameterType": "Convolution",
            "Kernel": [
                3,
                3
            ],
            "PaddingMode": "kEXPLICIT_ROUND_DOWN",
            "PrePadding": [
                1,
                1
            ],
            "PostPadding": [
                1,
                1
            ],
            "Stride": [
                1,
                1
            ],
            "Dilation": [
                1,
                1
            ],
            "OutMaps": 128,
            "Groups": 1,
            "Weights": {
                "Type": "Half",
                "Count": 147456
            },
            "Bias": {
                "Type": "Half",
                "Count": 128
            },
            "HasSparseWeights": 0,
            "HasDynamicFilter": 0,
            "HasDynamicBias": 0,
            "HasResidual": 0,
            "ConvXAsActInputIdx": -1,
            "BiasAsActInputIdx": -1,
            "ResAsActInputIdx": -1,
            "Activation": "RELU",
            "HasBias": 1,
            "HasReLU": 1,
            "TacticName": "sm80_xmma_fprop_implicit_gemm_f16f16_f16f16_f16_nhwckrsc_nhwc_tilesize128x128x32_stage4_warpsize2x2x1_g1_tensor16x8x16_t1r3s3",
            "TacticValue": "0x60c3421152ef8e10",
            "StreamId": 0,
            "Metadata": ""
        },
        {
            "Name": "[MAX]-[aten_ops.max_pool2d.default]-[max_pool2d_default_1]",
            "LayerType": "CaskPooling",
            "Inputs": [
                {
                    "Name": "(Unnamed Layer* 8) [Activation]_output",
                    "Location": "Device",
                    "Dimensions": [
                        1,
                        128,
                        112,
                        112
                    ],
                    "Format/Datatype": "Channel major FP16 format where channel % 8 == 0"
                }
            ],
            "Outputs": [
                {
                    "Name": "(Unnamed Layer* 9) [Pooling]_output",
                    "Location": "Device",
                    "Dimensions": [
                        1,
                        128,
                        56,
                        56
                    ],
                    "Format/Datatype": "Channel major FP16 format where channel % 8 == 0"
                }
            ],
            "ParameterType": "Pooling",
            "PoolingType": "MAX",
            "WindowSize": [
                2,
                2
            ],
            "PaddingMode": "kEXPLICIT_ROUND_DOWN",
            "PrePadding": [
                0,
                0
            ],
            "PostPadding": [
                0,
                0
            ],
            "Stride": [
                2,
                2
            ],
            "BlendFactor": 0,
            "AverageCountExcludesPadding": 1,
            "TacticName": "sm50_xmma_pooling_coalescedC_NHWC_kMAX_2_False",
            "TacticValue": "0xf9ae51e35ff7f5db",
            "StreamId": 0,
            "Metadata": ""
        },
        {
            "Name": "[CONVOLUTION]-[aten_ops.convolution.default]-[/features/10/convolution_4] + [RELU]-[aten_ops.relu.default]-[/features/11/relu_4]",
            "LayerType": "CaskConvolution",
            "Inputs": [
                {
                    "Name": "(Unnamed Layer* 9) [Pooling]_output",
                    "Location": "Device",
                    "Dimensions": [
                        1,
                        128,
                        56,
                        56
                    ],
                    "Format/Datatype": "Channel major FP16 format where channel % 8 == 0"
                }
            ],
            "Outputs": [
                {
                    "Name": "(Unnamed Layer* 11) [Activation]_output",
                    "Location": "Device",
                    "Dimensions": [
                        1,
                        256,
                        56,
                        56
                    ],
                    "Format/Datatype": "Channel major FP16 format where channel % 8 == 0"
                }
            ],
            "ParameterType": "Convolution",
            "Kernel": [
                3,
                3
            ],
            "PaddingMode": "kEXPLICIT_ROUND_DOWN",
            "PrePadding": [
                1,
                1
            ],
            "PostPadding": [
                1,
                1
            ],
            "Stride": [
                1,
                1
            ],
            "Dilation": [
                1,
                1
            ],
            "OutMaps": 256,
            "Groups": 1,
            "Weights": {
                "Type": "Half",
                "Count": 294912
            },
            "Bias": {
                "Type": "Half",
                "Count": 256
            },
            "HasSparseWeights": 0,
            "HasDynamicFilter": 0,
            "HasDynamicBias": 0,
            "HasResidual": 0,
            "ConvXAsActInputIdx": -1,
            "BiasAsActInputIdx": -1,
            "ResAsActInputIdx": -1,
            "Activation": "RELU",
            "HasBias": 1,
            "HasReLU": 1,
            "TacticName": "sm80_xmma_fprop_implicit_gemm_f16f16_f16f16_f16_nhwckrsc_nhwc_tilesize128x128x32_stage4_warpsize2x2x1_g1_tensor16x8x16",
            "TacticValue": "0xdfa020ef435ef810",
            "StreamId": 0,
            "Metadata": ""
        },
        {
            "Name": "[CONVOLUTION]-[aten_ops.convolution.default]-[/features/12/convolution_5] + [RELU]-[aten_ops.relu.default]-[/features/13/relu_5]",
            "LayerType": "CaskConvolution",
            "Inputs": [
                {
                    "Name": "(Unnamed Layer* 11) [Activation]_output",
                    "Location": "Device",
                    "Dimensions": [
                        1,
                        256,
                        56,
                        56
                    ],
                    "Format/Datatype": "Channel major FP16 format where channel % 8 == 0"
                }
            ],
            "Outputs": [
                {
                    "Name": "(Unnamed Layer* 13) [Activation]_output",
                    "Location": "Device",
                    "Dimensions": [
                        1,
                        256,
                        56,
                        56
                    ],
                    "Format/Datatype": "Channel major FP16 format where channel % 8 == 0"
                }
            ],
            "ParameterType": "Convolution",
            "Kernel": [
                3,
                3
            ],
            "PaddingMode": "kEXPLICIT_ROUND_DOWN",
            "PrePadding": [
                1,
                1
            ],
            "PostPadding": [
                1,
                1
            ],
            "Stride": [
                1,
                1
            ],
            "Dilation": [
                1,
                1
            ],
            "OutMaps": 256,
            "Groups": 1,
            "Weights": {
                "Type": "Half",
                "Count": 589824
            },
            "Bias": {
                "Type": "Half",
                "Count": 256
            },
            "HasSparseWeights": 0,
            "HasDynamicFilter": 0,
            "HasDynamicBias": 0,
            "HasResidual": 0,
            "ConvXAsActInputIdx": -1,
            "BiasAsActInputIdx": -1,
            "ResAsActInputIdx": -1,
            "Activation": "RELU",
            "HasBias": 1,
            "HasReLU": 1,
            "TacticName": "sm80_xmma_fprop_implicit_gemm_f16f16_f16f16_f16_nhwckrsc_nhwc_tilesize128x128x32_stage4_warpsize2x2x1_g1_tensor16x8x16_t1r3s3_aACCESS",
            "TacticValue": "0x245530c34bd6090f",
            "StreamId": 0,
            "Metadata": ""
        },
        {
            "Name": "[CONVOLUTION]-[aten_ops.convolution.default]-[/features/14/convolution_6] + [RELU]-[aten_ops.relu.default]-[/features/15/relu_6]",
            "LayerType": "CaskConvolution",
            "Inputs": [
                {
                    "Name": "(Unnamed Layer* 13) [Activation]_output",
                    "Location": "Device",
                    "Dimensions": [
                        1,
                        256,
                        56,
                        56
                    ],
                    "Format/Datatype": "Channel major FP16 format where channel % 8 == 0"
                }
            ],
            "Outputs": [
                {
                    "Name": "(Unnamed Layer* 15) [Activation]_output",
                    "Location": "Device",
                    "Dimensions": [
                        1,
                        256,
                        56,
                        56
                    ],
                    "Format/Datatype": "Channel major FP16 format where channel % 8 == 0"
                }
            ],
            "ParameterType": "Convolution",
            "Kernel": [
                3,
                3
            ],
            "PaddingMode": "kEXPLICIT_ROUND_DOWN",
            "PrePadding": [
                1,
                1
            ],
            "PostPadding": [
                1,
                1
            ],
            "Stride": [
                1,
                1
            ],
            "Dilation": [
                1,
                1
            ],
            "OutMaps": 256,
            "Groups": 1,
            "Weights": {
                "Type": "Half",
                "Count": 589824
            },
            "Bias": {
                "Type": "Half",
                "Count": 256
            },
            "HasSparseWeights": 0,
            "HasDynamicFilter": 0,
            "HasDynamicBias": 0,
            "HasResidual": 0,
            "ConvXAsActInputIdx": -1,
            "BiasAsActInputIdx": -1,
            "ResAsActInputIdx": -1,
            "Activation": "RELU",
            "HasBias": 1,
            "HasReLU": 1,
            "TacticName": "sm80_xmma_fprop_implicit_gemm_f16f16_f16f16_f16_nhwckrsc_nhwc_tilesize128x128x32_stage4_warpsize2x2x1_g1_tensor16x8x16_t1r3s3_aACCESS",
            "TacticValue": "0x245530c34bd6090f",
            "StreamId": 0,
            "Metadata": ""
        },
        {
            "Name": "[MAX]-[aten_ops.max_pool2d.default]-[max_pool2d_default_2]",
            "LayerType": "CaskPooling",
            "Inputs": [
                {
                    "Name": "(Unnamed Layer* 15) [Activation]_output",
                    "Location": "Device",
                    "Dimensions": [
                        1,
                        256,
                        56,
                        56
                    ],
                    "Format/Datatype": "Channel major FP16 format where channel % 8 == 0"
                }
            ],
            "Outputs": [
                {
                    "Name": "(Unnamed Layer* 16) [Pooling]_output",
                    "Location": "Device",
                    "Dimensions": [
                        1,
                        256,
                        28,
                        28
                    ],
                    "Format/Datatype": "Channel major FP16 format where channel % 8 == 0"
                }
            ],
            "ParameterType": "Pooling",
            "PoolingType": "MAX",
            "WindowSize": [
                2,
                2
            ],
            "PaddingMode": "kEXPLICIT_ROUND_DOWN",
            "PrePadding": [
                0,
                0
            ],
            "PostPadding": [
                0,
                0
            ],
            "Stride": [
                2,
                2
            ],
            "BlendFactor": 0,
            "AverageCountExcludesPadding": 1,
            "TacticName": "sm50_xmma_pooling_coalescedC_NHWC_kMAX_3_False",
            "TacticValue": "0xdb415cba6b0e9137",
            "StreamId": 0,
            "Metadata": ""
        },
        {
            "Name": "[CONVOLUTION]-[aten_ops.convolution.default]-[/features/17/convolution_7] + [RELU]-[aten_ops.relu.default]-[/features/18/relu_7]",
            "LayerType": "CaskConvolution",
            "Inputs": [
                {
                    "Name": "(Unnamed Layer* 16) [Pooling]_output",
                    "Location": "Device",
                    "Dimensions": [
                        1,
                        256,
                        28,
                        28
                    ],
                    "Format/Datatype": "Channel major FP16 format where channel % 8 == 0"
                }
            ],
            "Outputs": [
                {
                    "Name": "(Unnamed Layer* 18) [Activation]_output",
                    "Location": "Device",
                    "Dimensions": [
                        1,
                        512,
                        28,
                        28
                    ],
                    "Format/Datatype": "Channel major FP16 format where channel % 8 == 0"
                }
            ],
            "ParameterType": "Convolution",
            "Kernel": [
                3,
                3
            ],
            "PaddingMode": "kEXPLICIT_ROUND_DOWN",
            "PrePadding": [
                1,
                1
            ],
            "PostPadding": [
                1,
                1
            ],
            "Stride": [
                1,
                1
            ],
            "Dilation": [
                1,
                1
            ],
            "OutMaps": 512,
            "Groups": 1,
            "Weights": {
                "Type": "Half",
                "Count": 1179648
            },
            "Bias": {
                "Type": "Half",
                "Count": 512
            },
            "HasSparseWeights": 0,
            "HasDynamicFilter": 0,
            "HasDynamicBias": 0,
            "HasResidual": 0,
            "ConvXAsActInputIdx": -1,
            "BiasAsActInputIdx": -1,
            "ResAsActInputIdx": -1,
            "Activation": "RELU",
            "HasBias": 1,
            "HasReLU": 1,
            "TacticName": "sm80_xmma_fprop_implicit_gemm_f16f16_f16f16_f16_nhwckrsc_nhwc_tilesize128x128x32_stage4_warpsize2x2x1_g1_tensor16x8x16_t1r3s3_aACCESS",
            "TacticValue": "0x245530c34bd6090f",
            "StreamId": 0,
            "Metadata": ""
        },
        {
            "Name": "[CONVOLUTION]-[aten_ops.convolution.default]-[/features/19/convolution_8] + [RELU]-[aten_ops.relu.default]-[/features/20/relu_8]",
            "LayerType": "CaskConvolution",
            "Inputs": [
                {
                    "Name": "(Unnamed Layer* 18) [Activation]_output",
                    "Location": "Device",
                    "Dimensions": [
                        1,
                        512,
                        28,
                        28
                    ],
                    "Format/Datatype": "Channel major FP16 format where channel % 8 == 0"
                }
            ],
            "Outputs": [
                {
                    "Name": "(Unnamed Layer* 20) [Activation]_output",
                    "Location": "Device",
                    "Dimensions": [
                        1,
                        512,
                        28,
                        28
                    ],
                    "Format/Datatype": "Channel major FP16 format where channel % 8 == 0"
                }
            ],
            "ParameterType": "Convolution",
            "Kernel": [
                3,
                3
            ],
            "PaddingMode": "kEXPLICIT_ROUND_DOWN",
            "PrePadding": [
                1,
                1
            ],
            "PostPadding": [
                1,
                1
            ],
            "Stride": [
                1,
                1
            ],
            "Dilation": [
                1,
                1
            ],
            "OutMaps": 512,
            "Groups": 1,
            "Weights": {
                "Type": "Half",
                "Count": 2359296
            },
            "Bias": {
                "Type": "Half",
                "Count": 512
            },
            "HasSparseWeights": 0,
            "HasDynamicFilter": 0,
            "HasDynamicBias": 0,
            "HasResidual": 0,
            "ConvXAsActInputIdx": -1,
            "BiasAsActInputIdx": -1,
            "ResAsActInputIdx": -1,
            "Activation": "RELU",
            "HasBias": 1,
            "HasReLU": 1,
            "TacticName": "sm80_xmma_fprop_implicit_gemm_f16f16_f16f16_f16_nhwckrsc_nhwc_tilesize256x128x64_stage3_warpsize4x2x1_g1_tensor16x8x16",
            "TacticValue": "0x5a55274960724ba8",
            "StreamId": 0,
            "Metadata": ""
        },
        {
            "Name": "[CONVOLUTION]-[aten_ops.convolution.default]-[/features/21/convolution_9] + [RELU]-[aten_ops.relu.default]-[/features/22/relu_9]",
            "LayerType": "CaskConvolution",
            "Inputs": [
                {
                    "Name": "(Unnamed Layer* 20) [Activation]_output",
                    "Location": "Device",
                    "Dimensions": [
                        1,
                        512,
                        28,
                        28
                    ],
                    "Format/Datatype": "Channel major FP16 format where channel % 8 == 0"
                }
            ],
            "Outputs": [
                {
                    "Name": "(Unnamed Layer* 22) [Activation]_output",
                    "Location": "Device",
                    "Dimensions": [
                        1,
                        512,
                        28,
                        28
                    ],
                    "Format/Datatype": "Channel major FP16 format where channel % 8 == 0"
                }
            ],
            "ParameterType": "Convolution",
            "Kernel": [
                3,
                3
            ],
            "PaddingMode": "kEXPLICIT_ROUND_DOWN",
            "PrePadding": [
                1,
                1
            ],
            "PostPadding": [
                1,
                1
            ],
            "Stride": [
                1,
                1
            ],
            "Dilation": [
                1,
                1
            ],
            "OutMaps": 512,
            "Groups": 1,
            "Weights": {
                "Type": "Half",
                "Count": 2359296
            },
            "Bias": {
                "Type": "Half",
                "Count": 512
            },
            "HasSparseWeights": 0,
            "HasDynamicFilter": 0,
            "HasDynamicBias": 0,
            "HasResidual": 0,
            "ConvXAsActInputIdx": -1,
            "BiasAsActInputIdx": -1,
            "ResAsActInputIdx": -1,
            "Activation": "RELU",
            "HasBias": 1,
            "HasReLU": 1,
            "TacticName": "sm80_xmma_fprop_implicit_gemm_f16f16_f16f16_f16_nhwckrsc_nhwc_tilesize256x128x64_stage3_warpsize4x2x1_g1_tensor16x8x16",
            "TacticValue": "0x5a55274960724ba8",
            "StreamId": 0,
            "Metadata": ""
        },
        {
            "Name": "[MAX]-[aten_ops.max_pool2d.default]-[max_pool2d_default_3]",
            "LayerType": "CaskPooling",
            "Inputs": [
                {
                    "Name": "(Unnamed Layer* 22) [Activation]_output",
                    "Location": "Device",
                    "Dimensions": [
                        1,
                        512,
                        28,
                        28
                    ],
                    "Format/Datatype": "Channel major FP16 format where channel % 8 == 0"
                }
            ],
            "Outputs": [
                {
                    "Name": "(Unnamed Layer* 23) [Pooling]_output",
                    "Location": "Device",
                    "Dimensions": [
                        1,
                        512,
                        14,
                        14
                    ],
                    "Format/Datatype": "Channel major FP16 format where channel % 8 == 0"
                }
            ],
            "ParameterType": "Pooling",
            "PoolingType": "MAX",
            "WindowSize": [
                2,
                2
            ],
            "PaddingMode": "kEXPLICIT_ROUND_DOWN",
            "PrePadding": [
                0,
                0
            ],
            "PostPadding": [
                0,
                0
            ],
            "Stride": [
                2,
                2
            ],
            "BlendFactor": 0,
            "AverageCountExcludesPadding": 1,
            "TacticName": "sm50_xmma_pooling_coalescedC_NHWC_kMAX_2_False",
            "TacticValue": "0xf9ae51e35ff7f5db",
            "StreamId": 0,
            "Metadata": ""
        },
        {
            "Name": "[CONVOLUTION]-[aten_ops.convolution.default]-[/features/24/convolution_10] + [RELU]-[aten_ops.relu.default]-[/features/25/relu_10]",
            "LayerType": "CaskConvolution",
            "Inputs": [
                {
                    "Name": "(Unnamed Layer* 23) [Pooling]_output",
                    "Location": "Device",
                    "Dimensions": [
                        1,
                        512,
                        14,
                        14
                    ],
                    "Format/Datatype": "Channel major FP16 format where channel % 8 == 0"
                }
            ],
            "Outputs": [
                {
                    "Name": "(Unnamed Layer* 25) [Activation]_output",
                    "Location": "Device",
                    "Dimensions": [
                        1,
                        512,
                        14,
                        14
                    ],
                    "Format/Datatype": "Channel major FP16 format where channel % 8 == 0"
                }
            ],
            "ParameterType": "Convolution",
            "Kernel": [
                3,
                3
            ],
            "PaddingMode": "kEXPLICIT_ROUND_DOWN",
            "PrePadding": [
                1,
                1
            ],
            "PostPadding": [
                1,
                1
            ],
            "Stride": [
                1,
                1
            ],
            "Dilation": [
                1,
                1
            ],
            "OutMaps": 512,
            "Groups": 1,
            "Weights": {
                "Type": "Half",
                "Count": 2359296
            },
            "Bias": {
                "Type": "Half",
                "Count": 512
            },
            "HasSparseWeights": 0,
            "HasDynamicFilter": 0,
            "HasDynamicBias": 0,
            "HasResidual": 0,
            "ConvXAsActInputIdx": -1,
            "BiasAsActInputIdx": -1,
            "ResAsActInputIdx": -1,
            "Activation": "RELU",
            "HasBias": 1,
            "HasReLU": 1,
            "TacticName": "sm80_xmma_fprop_implicit_gemm_f16f16_f16f16_f16_nhwckrsc_nhwc_tilesize128x128x64_stage3_warpsize2x2x1_g1_tensor16x8x16",
            "TacticValue": "0x57c9a5ff682354a6",
            "StreamId": 0,
            "Metadata": ""
        },
        {
            "Name": "[CONVOLUTION]-[aten_ops.convolution.default]-[/features/26/convolution_11] + [RELU]-[aten_ops.relu.default]-[/features/27/relu_11]",
            "LayerType": "CaskConvolution",
            "Inputs": [
                {
                    "Name": "(Unnamed Layer* 25) [Activation]_output",
                    "Location": "Device",
                    "Dimensions": [
                        1,
                        512,
                        14,
                        14
                    ],
                    "Format/Datatype": "Channel major FP16 format where channel % 8 == 0"
                }
            ],
            "Outputs": [
                {
                    "Name": "(Unnamed Layer* 27) [Activation]_output",
                    "Location": "Device",
                    "Dimensions": [
                        1,
                        512,
                        14,
                        14
                    ],
                    "Format/Datatype": "Channel major FP16 format where channel % 8 == 0"
                }
            ],
            "ParameterType": "Convolution",
            "Kernel": [
                3,
                3
            ],
            "PaddingMode": "kEXPLICIT_ROUND_DOWN",
            "PrePadding": [
                1,
                1
            ],
            "PostPadding": [
                1,
                1
            ],
            "Stride": [
                1,
                1
            ],
            "Dilation": [
                1,
                1
            ],
            "OutMaps": 512,
            "Groups": 1,
            "Weights": {
                "Type": "Half",
                "Count": 2359296
            },
            "Bias": {
                "Type": "Half",
                "Count": 512
            },
            "HasSparseWeights": 0,
            "HasDynamicFilter": 0,
            "HasDynamicBias": 0,
            "HasResidual": 0,
            "ConvXAsActInputIdx": -1,
            "BiasAsActInputIdx": -1,
            "ResAsActInputIdx": -1,
            "Activation": "RELU",
            "HasBias": 1,
            "HasReLU": 1,
            "TacticName": "sm80_xmma_fprop_implicit_gemm_f16f16_f16f16_f16_nhwckrsc_nhwc_tilesize128x128x64_stage3_warpsize2x2x1_g1_tensor16x8x16",
            "TacticValue": "0x57c9a5ff682354a6",
            "StreamId": 0,
            "Metadata": ""
        },
        {
            "Name": "[CONVOLUTION]-[aten_ops.convolution.default]-[/features/28/convolution_12] + [RELU]-[aten_ops.relu.default]-[/features/29/relu_12]",
            "LayerType": "CaskConvolution",
            "Inputs": [
                {
                    "Name": "(Unnamed Layer* 27) [Activation]_output",
                    "Location": "Device",
                    "Dimensions": [
                        1,
                        512,
                        14,
                        14
                    ],
                    "Format/Datatype": "Channel major FP16 format where channel % 8 == 0"
                }
            ],
            "Outputs": [
                {
                    "Name": "(Unnamed Layer* 29) [Activation]_output",
                    "Location": "Device",
                    "Dimensions": [
                        1,
                        512,
                        14,
                        14
                    ],
                    "Format/Datatype": "Channel major FP16 format where channel % 8 == 0"
                }
            ],
            "ParameterType": "Convolution",
            "Kernel": [
                3,
                3
            ],
            "PaddingMode": "kEXPLICIT_ROUND_DOWN",
            "PrePadding": [
                1,
                1
            ],
            "PostPadding": [
                1,
                1
            ],
            "Stride": [
                1,
                1
            ],
            "Dilation": [
                1,
                1
            ],
            "OutMaps": 512,
            "Groups": 1,
            "Weights": {
                "Type": "Half",
                "Count": 2359296
            },
            "Bias": {
                "Type": "Half",
                "Count": 512
            },
            "HasSparseWeights": 0,
            "HasDynamicFilter": 0,
            "HasDynamicBias": 0,
            "HasResidual": 0,
            "ConvXAsActInputIdx": -1,
            "BiasAsActInputIdx": -1,
            "ResAsActInputIdx": -1,
            "Activation": "RELU",
            "HasBias": 1,
            "HasReLU": 1,
            "TacticName": "sm80_xmma_fprop_implicit_gemm_f16f16_f16f16_f16_nhwckrsc_nhwc_tilesize128x128x64_stage3_warpsize2x2x1_g1_tensor16x8x16",
            "TacticValue": "0x57c9a5ff682354a6",
            "StreamId": 0,
            "Metadata": ""
        },
        {
            "Name": "[MAX]-[aten_ops.max_pool2d.default]-[max_pool2d_default_4]",
            "LayerType": "CaskPooling",
            "Inputs": [
                {
                    "Name": "(Unnamed Layer* 29) [Activation]_output",
                    "Location": "Device",
                    "Dimensions": [
                        1,
                        512,
                        14,
                        14
                    ],
                    "Format/Datatype": "Channel major FP16 format where channel % 8 == 0"
                }
            ],
            "Outputs": [
                {
                    "Name": "(Unnamed Layer* 30) [Pooling]_output",
                    "Location": "Device",
                    "Dimensions": [
                        1,
                        512,
                        7,
                        7
                    ],
                    "Format/Datatype": "Channel major FP16 format where channel % 8 == 0"
                }
            ],
            "ParameterType": "Pooling",
            "PoolingType": "MAX",
            "WindowSize": [
                2,
                2
            ],
            "PaddingMode": "kEXPLICIT_ROUND_DOWN",
            "PrePadding": [
                0,
                0
            ],
            "PostPadding": [
                0,
                0
            ],
            "Stride": [
                2,
                2
            ],
            "BlendFactor": 0,
            "AverageCountExcludesPadding": 1,
            "TacticName": "sm50_xmma_pooling_coalescedC_NHWC_kMAX_2_False",
            "TacticValue": "0xf9ae51e35ff7f5db",
            "StreamId": 0,
            "Metadata": ""
        },
        {
            "Name": "Reformatting CopyNode for Input Tensor 0 to [SHUFFLE]-[aten_ops.reshape.default]-[reshape_default] + reshape_before_[MATRIX_MULTIPLY]-[aten_ops.addmm.default]-[/classifier/0/addmm_mm]",
            "LayerType": "Reformat",
            "Inputs": [
                {
                    "Name": "(Unnamed Layer* 30) [Pooling]_output",
                    "Location": "Device",
                    "Dimensions": [
                        1,
                        512,
                        7,
                        7
                    ],
                    "Format/Datatype": "Channel major FP16 format where channel % 8 == 0"
                }
            ],
            "Outputs": [
                {
                    "Name": "Reformatted Input Tensor 0 to [SHUFFLE]-[aten_ops.reshape.default]-[reshape_default] + reshape_before_[MATRIX_MULTIPLY]-[aten_ops.addmm.default]-[/classifier/0/addmm_mm]",
                    "Location": "Device",
                    "Dimensions": [
                        1,
                        512,
                        7,
                        7
                    ],
                    "Format/Datatype": "Row major linear FP16 format"
                }
            ],
            "ParameterType": "Reformat",
            "Origin": "REFORMAT",
            "TacticValue": "0x0000000000000000",
            "StreamId": 0,
            "Metadata": ""
        },
        {
            "Name": "[SHUFFLE]-[aten_ops.reshape.default]-[reshape_default] + reshape_before_[MATRIX_MULTIPLY]-[aten_ops.addmm.default]-[/classifier/0/addmm_mm]",
            "LayerType": "NoOp",
            "Inputs": [
                {
                    "Name": "Reformatted Input Tensor 0 to [SHUFFLE]-[aten_ops.reshape.default]-[reshape_default] + reshape_before_[MATRIX_MULTIPLY]-[aten_ops.addmm.default]-[/classifier/0/addmm_mm]",
                    "Location": "Device",
                    "Dimensions": [
                        1,
                        512,
                        7,
                        7
                    ],
                    "Format/Datatype": "Row major linear FP16 format"
                }
            ],
            "Outputs": [
                {
                    "Name": "reshape_before_[MATRIX_MULTIPLY]-[aten_ops.addmm.default]-[/classifier/0/addmm_mm]_out_tensor",
                    "Location": "Device",
                    "Dimensions": [
                        1,
                        25088,
                        1,
                        1
                    ],
                    "Format/Datatype": "Row major linear FP16 format"
                }
            ],
            "TacticValue": "0x0000000000000000",
            "StreamId": 0,
            "Metadata": ""
        },
        {
            "Name": "Reformatting CopyNode for Input Tensor 0 to [MATRIX_MULTIPLY]-[aten_ops.addmm.default]-[/classifier/0/addmm_mm] + /classifier/0/addmm_constant_0 + /classifier/0/addmm_add_lhs_broadcast + unsqueeze_node_after_/classifier/0/addmm_constant_0 + /classifier/0/addmm_add_lhs_broadcast_(Unnamed Layer* 35) [Shuffle]_output + [ELEMENTWISE]-[aten_ops.addmm.default]-[/classifier/0/addmm_add] + [RELU]-[aten_ops.relu.default]-[/classifier/1/relu_13]",
            "LayerType": "NoOp",
            "Inputs": [
                {
                    "Name": "reshape_before_[MATRIX_MULTIPLY]-[aten_ops.addmm.default]-[/classifier/0/addmm_mm]_out_tensor",
                    "Location": "Device",
                    "Dimensions": [
                        1,
                        25088,
                        1,
                        1
                    ],
                    "Format/Datatype": "Row major linear FP16 format"
                }
            ],
            "Outputs": [
                {
                    "Name": "Reformatted Input Tensor 0 to [MATRIX_MULTIPLY]-[aten_ops.addmm.default]-[/classifier/0/addmm_mm] + /classifier/0/addmm_constant_0 + /classifier/0/addmm_add_lhs_broadcast + unsqueeze_node_after_/classifier/0/addmm_constant_0 + /classifier/0/addmm_add_lhs_broadcast_(Unnamed Layer* 35) [Shuffle]_output + [ELEMENTWISE]-[aten_ops.addmm.default]-[/classifier/0/addmm_add] + [RELU]-[aten_ops.relu.default]-[/classifier/1/relu_13]",
                    "Location": "Device",
                    "Dimensions": [
                        1,
                        25088,
                        1,
                        1
                    ],
                    "Format/Datatype": "Channel major FP16 format where channel % 8 == 0"
                }
            ],
            "TacticValue": "0x0000000000000000",
            "StreamId": 0,
            "Metadata": ""
        },
        {
            "Name": "[MATRIX_MULTIPLY]-[aten_ops.addmm.default]-[/classifier/0/addmm_mm] + /classifier/0/addmm_constant_0 + /classifier/0/addmm_add_lhs_broadcast + unsqueeze_node_after_/classifier/0/addmm_constant_0 + /classifier/0/addmm_add_lhs_broadcast_(Unnamed Layer* 35) [Shuffle]_output + [ELEMENTWISE]-[aten_ops.addmm.default]-[/classifier/0/addmm_add] + [RELU]-[aten_ops.relu.default]-[/classifier/1/relu_13]",
            "LayerType": "CaskGemmConvolution",
            "Inputs": [
                {
                    "Name": "Reformatted Input Tensor 0 to [MATRIX_MULTIPLY]-[aten_ops.addmm.default]-[/classifier/0/addmm_mm] + /classifier/0/addmm_constant_0 + /classifier/0/addmm_add_lhs_broadcast + unsqueeze_node_after_/classifier/0/addmm_constant_0 + /classifier/0/addmm_add_lhs_broadcast_(Unnamed Layer* 35) [Shuffle]_output + [ELEMENTWISE]-[aten_ops.addmm.default]-[/classifier/0/addmm_add] + [RELU]-[aten_ops.relu.default]-[/classifier/1/relu_13]",
                    "Location": "Device",
                    "Dimensions": [
                        1,
                        25088,
                        1,
                        1
                    ],
                    "Format/Datatype": "Channel major FP16 format where channel % 8 == 0"
                }
            ],
            "Outputs": [
                {
                    "Name": "[RELU]-[aten_ops.relu.default]-[/classifier/1/relu_13]_out_tensor",
                    "Location": "Device",
                    "Dimensions": [
                        1,
                        4096,
                        1,
                        1
                    ],
                    "Format/Datatype": "Channel major FP16 format where channel % 8 == 0"
                }
            ],
            "ParameterType": "Convolution",
            "Kernel": [
                1,
                1
            ],
            "PaddingMode": "kEXPLICIT_ROUND_DOWN",
            "PrePadding": [
                0,
                0
            ],
            "PostPadding": [
                0,
                0
            ],
            "Stride": [
                1,
                1
            ],
            "Dilation": [
                1,
                1
            ],
            "OutMaps": 4096,
            "Groups": 1,
            "Weights": {
                "Type": "Half",
                "Count": 102760448
            },
            "Bias": {
                "Type": "Half",
                "Count": 4096
            },
            "HasSparseWeights": 0,
            "HasDynamicFilter": 0,
            "HasDynamicBias": 0,
            "HasResidual": 0,
            "ConvXAsActInputIdx": -1,
            "BiasAsActInputIdx": -1,
            "ResAsActInputIdx": -1,
            "Activation": "RELU",
            "TacticName": "ampere_h16816gemm_256x64_ldg8_relu_nn_v1",
            "TacticValue": "0x0000000000020965",
            "StreamId": 0,
            "Metadata": ""
        },
        {
            "Name": "Reformatting CopyNode for Input Tensor 0 to squeeze_after_[RELU]-[aten_ops.relu.default]-[/classifier/1/relu_13]",
            "LayerType": "NoOp",
            "Inputs": [
                {
                    "Name": "[RELU]-[aten_ops.relu.default]-[/classifier/1/relu_13]_out_tensor",
                    "Location": "Device",
                    "Dimensions": [
                        1,
                        4096,
                        1,
                        1
                    ],
                    "Format/Datatype": "Channel major FP16 format where channel % 8 == 0"
                }
            ],
            "Outputs": [
                {
                    "Name": "Reformatted Input Tensor 0 to squeeze_after_[RELU]-[aten_ops.relu.default]-[/classifier/1/relu_13]",
                    "Location": "Device",
                    "Dimensions": [
                        1,
                        4096,
                        1,
                        1
                    ],
                    "Format/Datatype": "Row major linear FP16 format"
                }
            ],
            "TacticValue": "0x0000000000000000",
            "StreamId": 0,
            "Metadata": ""
        },
        {
            "Name": "squeeze_after_[RELU]-[aten_ops.relu.default]-[/classifier/1/relu_13]",
            "LayerType": "NoOp",
            "Inputs": [
                {
                    "Name": "Reformatted Input Tensor 0 to squeeze_after_[RELU]-[aten_ops.relu.default]-[/classifier/1/relu_13]",
                    "Location": "Device",
                    "Dimensions": [
                        1,
                        4096,
                        1,
                        1
                    ],
                    "Format/Datatype": "Row major linear FP16 format"
                }
            ],
            "Outputs": [
                {
                    "Name": "squeeze_after_[RELU]-[aten_ops.relu.default]-[/classifier/1/relu_13]_out_tensor",
                    "Location": "Device",
                    "Dimensions": [
                        1,
                        4096
                    ],
                    "Format/Datatype": "Row major linear FP16 format"
                }
            ],
            "TacticValue": "0x0000000000000000",
            "StreamId": 0,
            "Metadata": ""
        },
        {
            "Name": "Forced Cast ITensor (Unnamed Layer* 37) [Activation]_output from DataType.FLOAT to DataType.FLOAT - [aten_ops.torch.ops.aten.clone.default]-[/classifier/2/clone]",
            "LayerType": "NoOp",
            "Inputs": [
                {
                    "Name": "squeeze_after_[RELU]-[aten_ops.relu.default]-[/classifier/1/relu_13]_out_tensor",
                    "Location": "Device",
                    "Dimensions": [
                        1,
                        4096
                    ],
                    "Format/Datatype": "Row major linear FP16 format"
                }
            ],
            "Outputs": [
                {
                    "Name": "(Unnamed Layer* 38) [Identity]_output",
                    "Location": "Device",
                    "Dimensions": [
                        1,
                        4096
                    ],
                    "Format/Datatype": "Row major linear FP16 format"
                }
            ],
            "TacticValue": "0x0000000000000000",
            "StreamId": 0,
            "Metadata": ""
        },
        {
            "Name": "reshape_before_[MATRIX_MULTIPLY]-[aten_ops.addmm.default]-[/classifier/3/addmm_1_mm]",
            "LayerType": "NoOp",
            "Inputs": [
                {
                    "Name": "(Unnamed Layer* 38) [Identity]_output",
                    "Location": "Device",
                    "Dimensions": [
                        1,
                        4096
                    ],
                    "Format/Datatype": "Row major linear FP16 format"
                }
            ],
            "Outputs": [
                {
                    "Name": "reshape_before_[MATRIX_MULTIPLY]-[aten_ops.addmm.default]-[/classifier/3/addmm_1_mm]_out_tensor",
                    "Location": "Device",
                    "Dimensions": [
                        1,
                        4096,
                        1,
                        1
                    ],
                    "Format/Datatype": "Row major linear FP16 format"
                }
            ],
            "TacticValue": "0x0000000000000000",
            "StreamId": 0,
            "Metadata": ""
        },
        {
            "Name": "Reformatting CopyNode for Input Tensor 0 to [MATRIX_MULTIPLY]-[aten_ops.addmm.default]-[/classifier/3/addmm_1_mm] + /classifier/3/addmm_1_constant_0 + /classifier/3/addmm_1_add_lhs_broadcast + unsqueeze_node_after_/classifier/3/addmm_1_constant_0 + /classifier/3/addmm_1_add_lhs_broadcast_(Unnamed Layer* 42) [Shuffle]_output + [ELEMENTWISE]-[aten_ops.addmm.default]-[/classifier/3/addmm_1_add] + [RELU]-[aten_ops.relu.default]-[/classifier/4/relu_14]",
            "LayerType": "NoOp",
            "Inputs": [
                {
                    "Name": "reshape_before_[MATRIX_MULTIPLY]-[aten_ops.addmm.default]-[/classifier/3/addmm_1_mm]_out_tensor",
                    "Location": "Device",
                    "Dimensions": [
                        1,
                        4096,
                        1,
                        1
                    ],
                    "Format/Datatype": "Row major linear FP16 format"
                }
            ],
            "Outputs": [
                {
                    "Name": "Reformatted Input Tensor 0 to [MATRIX_MULTIPLY]-[aten_ops.addmm.default]-[/classifier/3/addmm_1_mm] + /classifier/3/addmm_1_constant_0 + /classifier/3/addmm_1_add_lhs_broadcast + unsqueeze_node_after_/classifier/3/addmm_1_constant_0 + /classifier/3/addmm_1_add_lhs_broadcast_(Unnamed Layer* 42) [Shuffle]_output + [ELEMENTWISE]-[aten_ops.addmm.default]-[/classifier/3/addmm_1_add] + [RELU]-[aten_ops.relu.default]-[/classifier/4/relu_14]",
                    "Location": "Device",
                    "Dimensions": [
                        1,
                        4096,
                        1,
                        1
                    ],
                    "Format/Datatype": "Channel major FP16 format where channel % 8 == 0"
                }
            ],
            "TacticValue": "0x0000000000000000",
            "StreamId": 0,
            "Metadata": ""
        },
        {
            "Name": "[MATRIX_MULTIPLY]-[aten_ops.addmm.default]-[/classifier/3/addmm_1_mm] + /classifier/3/addmm_1_constant_0 + /classifier/3/addmm_1_add_lhs_broadcast + unsqueeze_node_after_/classifier/3/addmm_1_constant_0 + /classifier/3/addmm_1_add_lhs_broadcast_(Unnamed Layer* 42) [Shuffle]_output + [ELEMENTWISE]-[aten_ops.addmm.default]-[/classifier/3/addmm_1_add] + [RELU]-[aten_ops.relu.default]-[/classifier/4/relu_14]",
            "LayerType": "CaskGemmConvolution",
            "Inputs": [
                {
                    "Name": "Reformatted Input Tensor 0 to [MATRIX_MULTIPLY]-[aten_ops.addmm.default]-[/classifier/3/addmm_1_mm] + /classifier/3/addmm_1_constant_0 + /classifier/3/addmm_1_add_lhs_broadcast + unsqueeze_node_after_/classifier/3/addmm_1_constant_0 + /classifier/3/addmm_1_add_lhs_broadcast_(Unnamed Layer* 42) [Shuffle]_output + [ELEMENTWISE]-[aten_ops.addmm.default]-[/classifier/3/addmm_1_add] + [RELU]-[aten_ops.relu.default]-[/classifier/4/relu_14]",
                    "Location": "Device",
                    "Dimensions": [
                        1,
                        4096,
                        1,
                        1
                    ],
                    "Format/Datatype": "Channel major FP16 format where channel % 8 == 0"
                }
            ],
            "Outputs": [
                {
                    "Name": "[RELU]-[aten_ops.relu.default]-[/classifier/4/relu_14]_out_tensor",
                    "Location": "Device",
                    "Dimensions": [
                        1,
                        4096,
                        1,
                        1
                    ],
                    "Format/Datatype": "Channel major FP16 format where channel % 8 == 0"
                }
            ],
            "ParameterType": "Convolution",
            "Kernel": [
                1,
                1
            ],
            "PaddingMode": "kEXPLICIT_ROUND_DOWN",
            "PrePadding": [
                0,
                0
            ],
            "PostPadding": [
                0,
                0
            ],
            "Stride": [
                1,
                1
            ],
            "Dilation": [
                1,
                1
            ],
            "OutMaps": 4096,
            "Groups": 1,
            "Weights": {
                "Type": "Half",
                "Count": 16777216
            },
            "Bias": {
                "Type": "Half",
                "Count": 4096
            },
            "HasSparseWeights": 0,
            "HasDynamicFilter": 0,
            "HasDynamicBias": 0,
            "HasResidual": 0,
            "ConvXAsActInputIdx": -1,
            "BiasAsActInputIdx": -1,
            "ResAsActInputIdx": -1,
            "Activation": "RELU",
            "TacticName": "sm70_xmma_gemm_as_conv1x1_f16f16_f16_f16_tn_n_simt_small_batch_bias_relu",
            "TacticValue": "0x00000000000202e2",
            "StreamId": 0,
            "Metadata": ""
        },
        {
            "Name": "Reformatting CopyNode for Input Tensor 0 to squeeze_after_[RELU]-[aten_ops.relu.default]-[/classifier/4/relu_14]",
            "LayerType": "NoOp",
            "Inputs": [
                {
                    "Name": "[RELU]-[aten_ops.relu.default]-[/classifier/4/relu_14]_out_tensor",
                    "Location": "Device",
                    "Dimensions": [
                        1,
                        4096,
                        1,
                        1
                    ],
                    "Format/Datatype": "Channel major FP16 format where channel % 8 == 0"
                }
            ],
            "Outputs": [
                {
                    "Name": "Reformatted Input Tensor 0 to squeeze_after_[RELU]-[aten_ops.relu.default]-[/classifier/4/relu_14]",
                    "Location": "Device",
                    "Dimensions": [
                        1,
                        4096,
                        1,
                        1
                    ],
                    "Format/Datatype": "Row major linear FP16 format"
                }
            ],
            "TacticValue": "0x0000000000000000",
            "StreamId": 0,
            "Metadata": ""
        },
        {
            "Name": "squeeze_after_[RELU]-[aten_ops.relu.default]-[/classifier/4/relu_14]",
            "LayerType": "NoOp",
            "Inputs": [
                {
                    "Name": "Reformatted Input Tensor 0 to squeeze_after_[RELU]-[aten_ops.relu.default]-[/classifier/4/relu_14]",
                    "Location": "Device",
                    "Dimensions": [
                        1,
                        4096,
                        1,
                        1
                    ],
                    "Format/Datatype": "Row major linear FP16 format"
                }
            ],
            "Outputs": [
                {
                    "Name": "squeeze_after_[RELU]-[aten_ops.relu.default]-[/classifier/4/relu_14]_out_tensor",
                    "Location": "Device",
                    "Dimensions": [
                        1,
                        4096
                    ],
                    "Format/Datatype": "Row major linear FP16 format"
                }
            ],
            "TacticValue": "0x0000000000000000",
            "StreamId": 0,
            "Metadata": ""
        },
        {
            "Name": "Forced Cast ITensor (Unnamed Layer* 44) [Activation]_output from DataType.FLOAT to DataType.FLOAT - [aten_ops.torch.ops.aten.clone.default]-[/classifier/5/clone_1]",
            "LayerType": "NoOp",
            "Inputs": [
                {
                    "Name": "squeeze_after_[RELU]-[aten_ops.relu.default]-[/classifier/4/relu_14]_out_tensor",
                    "Location": "Device",
                    "Dimensions": [
                        1,
                        4096
                    ],
                    "Format/Datatype": "Row major linear FP16 format"
                }
            ],
            "Outputs": [
                {
                    "Name": "(Unnamed Layer* 45) [Identity]_output",
                    "Location": "Device",
                    "Dimensions": [
                        1,
                        4096
                    ],
                    "Format/Datatype": "Row major linear FP16 format"
                }
            ],
            "TacticValue": "0x0000000000000000",
            "StreamId": 0,
            "Metadata": ""
        },
        {
            "Name": "reshape_before_[MATRIX_MULTIPLY]-[aten_ops.addmm.default]-[/classifier/6/addmm_2_mm]",
            "LayerType": "NoOp",
            "Inputs": [
                {
                    "Name": "(Unnamed Layer* 45) [Identity]_output",
                    "Location": "Device",
                    "Dimensions": [
                        1,
                        4096
                    ],
                    "Format/Datatype": "Row major linear FP16 format"
                }
            ],
            "Outputs": [
                {
                    "Name": "reshape_before_[MATRIX_MULTIPLY]-[aten_ops.addmm.default]-[/classifier/6/addmm_2_mm]_out_tensor",
                    "Location": "Device",
                    "Dimensions": [
                        1,
                        4096,
                        1,
                        1
                    ],
                    "Format/Datatype": "Row major linear FP16 format"
                }
            ],
            "TacticValue": "0x0000000000000000",
            "StreamId": 0,
            "Metadata": ""
        },
        {
            "Name": "Reformatting CopyNode for Input Tensor 0 to [MATRIX_MULTIPLY]-[aten_ops.addmm.default]-[/classifier/6/addmm_2_mm] + /classifier/6/addmm_2_constant_0 + /classifier/6/addmm_2_add_lhs_broadcast + unsqueeze_node_after_/classifier/6/addmm_2_constant_0 + /classifier/6/addmm_2_add_lhs_broadcast_(Unnamed Layer* 49) [Shuffle]_output + [ELEMENTWISE]-[aten_ops.addmm.default]-[/classifier/6/addmm_2_add]",
            "LayerType": "NoOp",
            "Inputs": [
                {
                    "Name": "reshape_before_[MATRIX_MULTIPLY]-[aten_ops.addmm.default]-[/classifier/6/addmm_2_mm]_out_tensor",
                    "Location": "Device",
                    "Dimensions": [
                        1,
                        4096,
                        1,
                        1
                    ],
                    "Format/Datatype": "Row major linear FP16 format"
                }
            ],
            "Outputs": [
                {
                    "Name": "Reformatted Input Tensor 0 to [MATRIX_MULTIPLY]-[aten_ops.addmm.default]-[/classifier/6/addmm_2_mm] + /classifier/6/addmm_2_constant_0 + /classifier/6/addmm_2_add_lhs_broadcast + unsqueeze_node_after_/classifier/6/addmm_2_constant_0 + /classifier/6/addmm_2_add_lhs_broadcast_(Unnamed Layer* 49) [Shuffle]_output + [ELEMENTWISE]-[aten_ops.addmm.default]-[/classifier/6/addmm_2_add]",
                    "Location": "Device",
                    "Dimensions": [
                        1,
                        4096,
                        1,
                        1
                    ],
                    "Format/Datatype": "Channel major FP16 format where channel % 8 == 0"
                }
            ],
            "TacticValue": "0x0000000000000000",
            "StreamId": 0,
            "Metadata": ""
        },
        {
            "Name": "[MATRIX_MULTIPLY]-[aten_ops.addmm.default]-[/classifier/6/addmm_2_mm] + /classifier/6/addmm_2_constant_0 + /classifier/6/addmm_2_add_lhs_broadcast + unsqueeze_node_after_/classifier/6/addmm_2_constant_0 + /classifier/6/addmm_2_add_lhs_broadcast_(Unnamed Layer* 49) [Shuffle]_output + [ELEMENTWISE]-[aten_ops.addmm.default]-[/classifier/6/addmm_2_add]",
            "LayerType": "CaskGemmConvolution",
            "Inputs": [
                {
                    "Name": "Reformatted Input Tensor 0 to [MATRIX_MULTIPLY]-[aten_ops.addmm.default]-[/classifier/6/addmm_2_mm] + /classifier/6/addmm_2_constant_0 + /classifier/6/addmm_2_add_lhs_broadcast + unsqueeze_node_after_/classifier/6/addmm_2_constant_0 + /classifier/6/addmm_2_add_lhs_broadcast_(Unnamed Layer* 49) [Shuffle]_output + [ELEMENTWISE]-[aten_ops.addmm.default]-[/classifier/6/addmm_2_add]",
                    "Location": "Device",
                    "Dimensions": [
                        1,
                        4096,
                        1,
                        1
                    ],
                    "Format/Datatype": "Channel major FP16 format where channel % 8 == 0"
                }
            ],
            "Outputs": [
                {
                    "Name": "[ELEMENTWISE]-[aten_ops.addmm.default]-[/classifier/6/addmm_2_add]_out_tensor",
                    "Location": "Device",
                    "Dimensions": [
                        1,
                        1000,
                        1,
                        1
                    ],
                    "Format/Datatype": "Channel major FP16 format where channel % 8 == 0"
                }
            ],
            "ParameterType": "Convolution",
            "Kernel": [
                1,
                1
            ],
            "PaddingMode": "kEXPLICIT_ROUND_DOWN",
            "PrePadding": [
                0,
                0
            ],
            "PostPadding": [
                0,
                0
            ],
            "Stride": [
                1,
                1
            ],
            "Dilation": [
                1,
                1
            ],
            "OutMaps": 1000,
            "Groups": 1,
            "Weights": {
                "Type": "Half",
                "Count": 4096000
            },
            "Bias": {
                "Type": "Half",
                "Count": 1000
            },
            "HasSparseWeights": 0,
            "HasDynamicFilter": 0,
            "HasDynamicBias": 0,
            "HasResidual": 0,
            "ConvXAsActInputIdx": -1,
            "BiasAsActInputIdx": -1,
            "ResAsActInputIdx": -1,
            "Activation": "NONE",
            "TacticName": "sm70_xmma_gemm_as_conv1x1_f16f16_f16_f16_tn_n_simt_small_batch_bias_relu",
            "TacticValue": "0x00000000000202e2",
            "StreamId": 0,
            "Metadata": ""
        },
        {
            "Name": "Reformatting CopyNode for Input Tensor 0 to copied_squeeze_after_[ELEMENTWISE]-[aten_ops.addmm.default]-[/classifier/6/addmm_2_add]",
            "LayerType": "NoOp",
            "Inputs": [
                {
                    "Name": "[ELEMENTWISE]-[aten_ops.addmm.default]-[/classifier/6/addmm_2_add]_out_tensor",
                    "Location": "Device",
                    "Dimensions": [
                        1,
                        1000,
                        1,
                        1
                    ],
                    "Format/Datatype": "Channel major FP16 format where channel % 8 == 0"
                }
            ],
            "Outputs": [
                {
                    "Name": "Reformatted Input Tensor 0 to copied_squeeze_after_[ELEMENTWISE]-[aten_ops.addmm.default]-[/classifier/6/addmm_2_add]",
                    "Location": "Device",
                    "Dimensions": [
                        1,
                        1000,
                        1,
                        1
                    ],
                    "Format/Datatype": "Row major linear FP16 format"
                }
            ],
            "TacticValue": "0x0000000000000000",
            "StreamId": 0,
            "Metadata": ""
        },
        {
            "Name": "copied_squeeze_after_[ELEMENTWISE]-[aten_ops.addmm.default]-[/classifier/6/addmm_2_add]",
            "LayerType": "NoOp",
            "Inputs": [
                {
                    "Name": "Reformatted Input Tensor 0 to copied_squeeze_after_[ELEMENTWISE]-[aten_ops.addmm.default]-[/classifier/6/addmm_2_add]",
                    "Location": "Device",
                    "Dimensions": [
                        1,
                        1000,
                        1,
                        1
                    ],
                    "Format/Datatype": "Row major linear FP16 format"
                }
            ],
            "Outputs": [
                {
                    "Name": "output0",
                    "Location": "Device",
                    "Dimensions": [
                        1,
                        1000
                    ],
                    "Format/Datatype": "Row major linear FP16 format"
                }
            ],
            "TacticValue": "0x0000000000000000",
            "StreamId": 0,
            "Metadata": ""
        }
    ],
    "Bindings": [
        "x",
        "output0"
    ]
}