{
    "Layers": [
        {
            "Name": "Reformatting CopyNode for Input Tensor 0 to [CONVOLUTION]-[aten_ops.convolution.default]-[/features_0/0/convolution] + [SCALE]-[aten_ops._native_batch_norm_legit_no_training.default]-[/features_0/1/_native_batch_norm_legit_no_training]",
            "LayerType": "Reformat",
            "Inputs": [
                {
                    "Name": "x",
                    "Location": "Device",
                    "Dimensions": [
                        1,
                        3,
                        224,
                        224
                    ],
                    "Format/Datatype": "Row major linear FP16 format"
                }
            ],
            "Outputs": [
                {
                    "Name": "Reformatted Input Tensor 0 to [CONVOLUTION]-[aten_ops.convolution.default]-[/features_0/0/convolution] + [SCALE]-[aten_ops._native_batch_norm_legit_no_training.default]-[/features_0/1/_native_batch_norm_legit_no_training]",
                    "Location": "Device",
                    "Dimensions": [
                        1,
                        3,
                        224,
                        224
                    ],
                    "Format/Datatype": "Channel major FP16 format where channel % 4 == 0"
                }
            ],
            "ParameterType": "Reformat",
            "Origin": "REFORMAT",
            "TacticValue": "0x00000000000003e8",
            "StreamId": 0,
            "Metadata": ""
        },
        {
            "Name": "[CONVOLUTION]-[aten_ops.convolution.default]-[/features_0/0/convolution] + [SCALE]-[aten_ops._native_batch_norm_legit_no_training.default]-[/features_0/1/_native_batch_norm_legit_no_training]",
            "LayerType": "CaskConvolution",
            "Inputs": [
                {
                    "Name": "Reformatted Input Tensor 0 to [CONVOLUTION]-[aten_ops.convolution.default]-[/features_0/0/convolution] + [SCALE]-[aten_ops._native_batch_norm_legit_no_training.default]-[/features_0/1/_native_batch_norm_legit_no_training]",
                    "Location": "Device",
                    "Dimensions": [
                        1,
                        3,
                        224,
                        224
                    ],
                    "Format/Datatype": "Channel major FP16 format where channel % 4 == 0"
                }
            ],
            "Outputs": [
                {
                    "Name": "(Unnamed Layer* 1) [Scale]_output",
                    "Location": "Device",
                    "Dimensions": [
                        1,
                        32,
                        112,
                        112
                    ],
                    "Format/Datatype": "Channel major FP16 format where channel % 8 == 0"
                }
            ],
            "ParameterType": "Convolution",
            "Kernel": [
                3,
                3
            ],
            "PaddingMode": "kEXPLICIT_ROUND_DOWN",
            "PrePadding": [
                1,
                1
            ],
            "PostPadding": [
                1,
                1
            ],
            "Stride": [
                2,
                2
            ],
            "Dilation": [
                1,
                1
            ],
            "OutMaps": 32,
            "Groups": 1,
            "Weights": {
                "Type": "Half",
                "Count": 864
            },
            "Bias": {
                "Type": "Half",
                "Count": 32
            },
            "HasBias": 1,
            "HasReLU": 0,
            "HasSparseWeights": 0,
            "HasDynamicFilter": 0,
            "HasDynamicBias": 0,
            "HasResidual": 0,
            "ConvXAsActInputIdx": -1,
            "BiasAsActInputIdx": -1,
            "ResAsActInputIdx": -1,
            "Activation": "NONE",
            "TacticName": "sm80_xmma_fprop_implicit_gemm_indexed_wo_smem_f16f16_f16f16_f16_nhwckrsc_nhwc_tilesize128x32x64_stage1_warpsize4x1x1_g1_tensor16x8x16_aligna8_alignc4",
            "TacticValue": "0xa47a4e5ec2ac6617",
            "StreamId": 0,
            "Metadata": ""
        },
        {
            "Name": "__myl_MaxMinCas_myl2_0",
            "LayerType": "kgen",
            "Inputs": [
                {
                    "Name": "(Unnamed Layer* 1) [Scale]_output",
                    "Dimensions": [
                        1,
                        32,
                        112,
                        112
                    ],
                    "Format/Datatype": "Half"
                }
            ],
            "Outputs": [
                {
                    "Name": "(Unnamed Layer* 11) [Identity]_output",
                    "Dimensions": [
                        1,
                        32,
                        112,
                        112
                    ],
                    "Format/Datatype": "Half"
                }
            ],
            "TacticName": "__myl_MaxMinCas_0xb1dd7265f56dbe49ab964785c1d46d9c",
            "StreamId": 0,
            "Metadata": ""
        },
        {
            "Name": "[CONVOLUTION]-[aten_ops.convolution.default]-[/features/1/conv_0/0/convolution_1] + [SCALE]-[aten_ops._native_batch_norm_legit_no_training.default]-[/features/1/conv_0/1/_native_batch_norm_legit_no_training_1]",
            "LayerType": "CaskConvolution",
            "Inputs": [
                {
                    "Name": "(Unnamed Layer* 11) [Identity]_output",
                    "Location": "Device",
                    "Dimensions": [
                        1,
                        32,
                        112,
                        112
                    ],
                    "Format/Datatype": "Channel major FP16 format where channel % 8 == 0"
                }
            ],
            "Outputs": [
                {
                    "Name": "(Unnamed Layer* 13) [Scale]_output",
                    "Location": "Device",
                    "Dimensions": [
                        1,
                        32,
                        112,
                        112
                    ],
                    "Format/Datatype": "Channel major FP16 format where channel % 8 == 0"
                }
            ],
            "ParameterType": "Convolution",
            "Kernel": [
                3,
                3
            ],
            "PaddingMode": "kEXPLICIT_ROUND_DOWN",
            "PrePadding": [
                1,
                1
            ],
            "PostPadding": [
                1,
                1
            ],
            "Stride": [
                1,
                1
            ],
            "Dilation": [
                1,
                1
            ],
            "OutMaps": 32,
            "Groups": 32,
            "Weights": {
                "Type": "Half",
                "Count": 288
            },
            "Bias": {
                "Type": "Half",
                "Count": 32
            },
            "HasBias": 1,
            "HasReLU": 0,
            "HasSparseWeights": 0,
            "HasDynamicFilter": 0,
            "HasDynamicBias": 0,
            "HasResidual": 0,
            "ConvXAsActInputIdx": -1,
            "BiasAsActInputIdx": -1,
            "ResAsActInputIdx": -1,
            "Activation": "NONE",
            "TacticName": "sm50_xmma_convolution_depthwiseHMMA_FP16NHWCx8_TR3_TS3_STRIDEH1_STRIDEW1",
            "TacticValue": "0xf9f6e2e1b0fd88e6",
            "StreamId": 0,
            "Metadata": ""
        },
        {
            "Name": "__myl_MaxMinCas_myl4_0",
            "LayerType": "kgen",
            "Inputs": [
                {
                    "Name": "(Unnamed Layer* 13) [Scale]_output",
                    "Dimensions": [
                        1,
                        32,
                        112,
                        112
                    ],
                    "Format/Datatype": "Half"
                }
            ],
            "Outputs": [
                {
                    "Name": "(Unnamed Layer* 23) [Identity]_output",
                    "Dimensions": [
                        1,
                        32,
                        112,
                        112
                    ],
                    "Format/Datatype": "Half"
                }
            ],
            "TacticName": "__myl_MaxMinCas_0xb1dd7265f56dbe49ab964785c1d46d9c",
            "StreamId": 0,
            "Metadata": ""
        },
        {
            "Name": "[CONVOLUTION]-[aten_ops.convolution.default]-[/features/1/conv/1/convolution_2] + [SCALE]-[aten_ops._native_batch_norm_legit_no_training.default]-[/features/1/conv/2/_native_batch_norm_legit_no_training_2]",
            "LayerType": "CaskConvolution",
            "Inputs": [
                {
                    "Name": "(Unnamed Layer* 23) [Identity]_output",
                    "Location": "Device",
                    "Dimensions": [
                        1,
                        32,
                        112,
                        112
                    ],
                    "Format/Datatype": "Channel major FP16 format where channel % 8 == 0"
                }
            ],
            "Outputs": [
                {
                    "Name": "(Unnamed Layer* 25) [Scale]_output",
                    "Location": "Device",
                    "Dimensions": [
                        1,
                        16,
                        112,
                        112
                    ],
                    "Format/Datatype": "Channel major FP16 format where channel % 8 == 0"
                }
            ],
            "ParameterType": "Convolution",
            "Kernel": [
                1,
                1
            ],
            "PaddingMode": "kEXPLICIT_ROUND_DOWN",
            "PrePadding": [
                0,
                0
            ],
            "PostPadding": [
                0,
                0
            ],
            "Stride": [
                1,
                1
            ],
            "Dilation": [
                1,
                1
            ],
            "OutMaps": 16,
            "Groups": 1,
            "Weights": {
                "Type": "Half",
                "Count": 512
            },
            "Bias": {
                "Type": "Half",
                "Count": 16
            },
            "HasBias": 1,
            "HasReLU": 0,
            "HasSparseWeights": 0,
            "HasDynamicFilter": 0,
            "HasDynamicBias": 0,
            "HasResidual": 0,
            "ConvXAsActInputIdx": -1,
            "BiasAsActInputIdx": -1,
            "ResAsActInputIdx": -1,
            "Activation": "NONE",
            "TacticName": "sm80_xmma_fprop_implicit_gemm_indexed_wo_smem_f16f16_f16f16_f16_nhwckrsc_nhwc_tilesize128x16x32_stage1_warpsize4x1x1_g1_tensor16x8x16_alignc8",
            "TacticValue": "0xfbf5ea2d8a6293cd",
            "StreamId": 0,
            "Metadata": ""
        },
        {
            "Name": "[CONVOLUTION]-[aten_ops.convolution.default]-[/features/2/conv_0/0/convolution_3] + [SCALE]-[aten_ops._native_batch_norm_legit_no_training.default]-[/features/2/conv_0/1/_native_batch_norm_legit_no_training_3]",
            "LayerType": "CaskConvolution",
            "Inputs": [
                {
                    "Name": "(Unnamed Layer* 25) [Scale]_output",
                    "Location": "Device",
                    "Dimensions": [
                        1,
                        16,
                        112,
                        112
                    ],
                    "Format/Datatype": "Channel major FP16 format where channel % 8 == 0"
                }
            ],
            "Outputs": [
                {
                    "Name": "(Unnamed Layer* 27) [Scale]_output",
                    "Location": "Device",
                    "Dimensions": [
                        1,
                        96,
                        112,
                        112
                    ],
                    "Format/Datatype": "Channel major FP16 format where channel % 8 == 0"
                }
            ],
            "ParameterType": "Convolution",
            "Kernel": [
                1,
                1
            ],
            "PaddingMode": "kEXPLICIT_ROUND_DOWN",
            "PrePadding": [
                0,
                0
            ],
            "PostPadding": [
                0,
                0
            ],
            "Stride": [
                1,
                1
            ],
            "Dilation": [
                1,
                1
            ],
            "OutMaps": 96,
            "Groups": 1,
            "Weights": {
                "Type": "Half",
                "Count": 1536
            },
            "Bias": {
                "Type": "Half",
                "Count": 96
            },
            "HasBias": 1,
            "HasReLU": 0,
            "HasSparseWeights": 0,
            "HasDynamicFilter": 0,
            "HasDynamicBias": 0,
            "HasResidual": 0,
            "ConvXAsActInputIdx": -1,
            "BiasAsActInputIdx": -1,
            "ResAsActInputIdx": -1,
            "Activation": "NONE",
            "TacticName": "sm80_xmma_fprop_implicit_gemm_indexed_wo_smem_f16f16_f16f16_f16_nhwckrsc_nhwc_tilesize128x32x16_stage1_warpsize4x1x1_g1_tensor16x8x16_aligna4_alignc8",
            "TacticValue": "0xfeb4e5d6176dd16f",
            "StreamId": 0,
            "Metadata": ""
        },
        {
            "Name": "__myl_MaxMinCas_myl7_0",
            "LayerType": "kgen",
            "Inputs": [
                {
                    "Name": "(Unnamed Layer* 27) [Scale]_output",
                    "Dimensions": [
                        1,
                        96,
                        112,
                        112
                    ],
                    "Format/Datatype": "Half"
                }
            ],
            "Outputs": [
                {
                    "Name": "(Unnamed Layer* 37) [Identity]_output",
                    "Dimensions": [
                        1,
                        96,
                        112,
                        112
                    ],
                    "Format/Datatype": "Half"
                }
            ],
            "TacticName": "__myl_MaxMinCas_0x151806cb080ba3620ca4711da6f1e2e0",
            "StreamId": 0,
            "Metadata": ""
        },
        {
            "Name": "[CONVOLUTION]-[aten_ops.convolution.default]-[/features/2/conv_1/0/convolution_4] + [SCALE]-[aten_ops._native_batch_norm_legit_no_training.default]-[/features/2/conv_1/1/_native_batch_norm_legit_no_training_4]",
            "LayerType": "CaskConvolution",
            "Inputs": [
                {
                    "Name": "(Unnamed Layer* 37) [Identity]_output",
                    "Location": "Device",
                    "Dimensions": [
                        1,
                        96,
                        112,
                        112
                    ],
                    "Format/Datatype": "Channel major FP16 format where channel % 8 == 0"
                }
            ],
            "Outputs": [
                {
                    "Name": "(Unnamed Layer* 39) [Scale]_output",
                    "Location": "Device",
                    "Dimensions": [
                        1,
                        96,
                        56,
                        56
                    ],
                    "Format/Datatype": "Channel major FP16 format where channel % 8 == 0"
                }
            ],
            "ParameterType": "Convolution",
            "Kernel": [
                3,
                3
            ],
            "PaddingMode": "kEXPLICIT_ROUND_DOWN",
            "PrePadding": [
                1,
                1
            ],
            "PostPadding": [
                1,
                1
            ],
            "Stride": [
                2,
                2
            ],
            "Dilation": [
                1,
                1
            ],
            "OutMaps": 96,
            "Groups": 96,
            "Weights": {
                "Type": "Half",
                "Count": 864
            },
            "Bias": {
                "Type": "Half",
                "Count": 96
            },
            "HasBias": 1,
            "HasReLU": 0,
            "HasSparseWeights": 0,
            "HasDynamicFilter": 0,
            "HasDynamicBias": 0,
            "HasResidual": 0,
            "ConvXAsActInputIdx": -1,
            "BiasAsActInputIdx": -1,
            "ResAsActInputIdx": -1,
            "Activation": "NONE",
            "TacticName": "sm50_xmma_convolution_depthwiseHMMA_FP16NHWCx8_TR3_TS3_STRIDEH2_STRIDEW2",
            "TacticValue": "0x4a741be05296db88",
            "StreamId": 0,
            "Metadata": ""
        },
        {
            "Name": "__myl_MaxMinCas_myl9_0",
            "LayerType": "kgen",
            "Inputs": [
                {
                    "Name": "(Unnamed Layer* 39) [Scale]_output",
                    "Dimensions": [
                        1,
                        96,
                        56,
                        56
                    ],
                    "Format/Datatype": "Half"
                }
            ],
            "Outputs": [
                {
                    "Name": "(Unnamed Layer* 49) [Identity]_output",
                    "Dimensions": [
                        1,
                        96,
                        56,
                        56
                    ],
                    "Format/Datatype": "Half"
                }
            ],
            "TacticName": "__myl_MaxMinCas_0xc46096173cff9ce8e2644c782316da3a",
            "StreamId": 0,
            "Metadata": ""
        },
        {
            "Name": "[CONVOLUTION]-[aten_ops.convolution.default]-[/features/2/conv/2/convolution_5] + [SCALE]-[aten_ops._native_batch_norm_legit_no_training.default]-[/features/2/conv/3/_native_batch_norm_legit_no_training_5]",
            "LayerType": "CaskConvolution",
            "Inputs": [
                {
                    "Name": "(Unnamed Layer* 49) [Identity]_output",
                    "Location": "Device",
                    "Dimensions": [
                        1,
                        96,
                        56,
                        56
                    ],
                    "Format/Datatype": "Channel major FP16 format where channel % 8 == 0"
                }
            ],
            "Outputs": [
                {
                    "Name": "(Unnamed Layer* 51) [Scale]_output",
                    "Location": "Device",
                    "Dimensions": [
                        1,
                        24,
                        56,
                        56
                    ],
                    "Format/Datatype": "Channel major FP16 format where channel % 8 == 0"
                }
            ],
            "ParameterType": "Convolution",
            "Kernel": [
                1,
                1
            ],
            "PaddingMode": "kEXPLICIT_ROUND_DOWN",
            "PrePadding": [
                0,
                0
            ],
            "PostPadding": [
                0,
                0
            ],
            "Stride": [
                1,
                1
            ],
            "Dilation": [
                1,
                1
            ],
            "OutMaps": 24,
            "Groups": 1,
            "Weights": {
                "Type": "Half",
                "Count": 2304
            },
            "Bias": {
                "Type": "Half",
                "Count": 24
            },
            "HasBias": 1,
            "HasReLU": 0,
            "HasSparseWeights": 0,
            "HasDynamicFilter": 0,
            "HasDynamicBias": 0,
            "HasResidual": 0,
            "ConvXAsActInputIdx": -1,
            "BiasAsActInputIdx": -1,
            "ResAsActInputIdx": -1,
            "Activation": "NONE",
            "TacticName": "sm80_xmma_fprop_implicit_gemm_f16f16_f16f16_f16_nhwckrsc_nhwc_tilesize128x32x32_stage4_warpsize4x1x1_g1_tensor16x8x16_simple_t1r1s1",
            "TacticValue": "0x8047bcfcebface4a",
            "StreamId": 0,
            "Metadata": ""
        },
        {
            "Name": "[CONVOLUTION]-[aten_ops.convolution.default]-[/features/3/conv_0/0/convolution_6] + [SCALE]-[aten_ops._native_batch_norm_legit_no_training.default]-[/features/3/conv_0/1/_native_batch_norm_legit_no_training_6]",
            "LayerType": "CaskConvolution",
            "Inputs": [
                {
                    "Name": "(Unnamed Layer* 51) [Scale]_output",
                    "Location": "Device",
                    "Dimensions": [
                        1,
                        24,
                        56,
                        56
                    ],
                    "Format/Datatype": "Channel major FP16 format where channel % 8 == 0"
                }
            ],
            "Outputs": [
                {
                    "Name": "(Unnamed Layer* 53) [Scale]_output",
                    "Location": "Device",
                    "Dimensions": [
                        1,
                        144,
                        56,
                        56
                    ],
                    "Format/Datatype": "Channel major FP16 format where channel % 8 == 0"
                }
            ],
            "ParameterType": "Convolution",
            "Kernel": [
                1,
                1
            ],
            "PaddingMode": "kEXPLICIT_ROUND_DOWN",
            "PrePadding": [
                0,
                0
            ],
            "PostPadding": [
                0,
                0
            ],
            "Stride": [
                1,
                1
            ],
            "Dilation": [
                1,
                1
            ],
            "OutMaps": 144,
            "Groups": 1,
            "Weights": {
                "Type": "Half",
                "Count": 3456
            },
            "Bias": {
                "Type": "Half",
                "Count": 144
            },
            "HasBias": 1,
            "HasReLU": 0,
            "HasSparseWeights": 0,
            "HasDynamicFilter": 0,
            "HasDynamicBias": 0,
            "HasResidual": 0,
            "ConvXAsActInputIdx": -1,
            "BiasAsActInputIdx": -1,
            "ResAsActInputIdx": -1,
            "Activation": "NONE",
            "TacticName": "sm80_xmma_fprop_implicit_gemm_indexed_wo_smem_f16f16_f16f16_f16_nhwckrsc_nhwc_tilesize128x32x16_stage1_warpsize4x1x1_g1_tensor16x8x16_aligna8_alignc8",
            "TacticValue": "0xfb0beb2dd64ff6e8",
            "StreamId": 0,
            "Metadata": ""
        },
        {
            "Name": "__myl_MaxMinCas_myl12_0",
            "LayerType": "kgen",
            "Inputs": [
                {
                    "Name": "(Unnamed Layer* 53) [Scale]_output",
                    "Dimensions": [
                        1,
                        144,
                        56,
                        56
                    ],
                    "Format/Datatype": "Half"
                }
            ],
            "Outputs": [
                {
                    "Name": "(Unnamed Layer* 63) [Identity]_output",
                    "Dimensions": [
                        1,
                        144,
                        56,
                        56
                    ],
                    "Format/Datatype": "Half"
                }
            ],
            "TacticName": "__myl_MaxMinCas_0x8768308d958701295ff310441a492f65",
            "StreamId": 0,
            "Metadata": ""
        },
        {
            "Name": "[CONVOLUTION]-[aten_ops.convolution.default]-[/features/3/conv_1/0/convolution_7] + [SCALE]-[aten_ops._native_batch_norm_legit_no_training.default]-[/features/3/conv_1/1/_native_batch_norm_legit_no_training_7]",
            "LayerType": "CaskConvolution",
            "Inputs": [
                {
                    "Name": "(Unnamed Layer* 63) [Identity]_output",
                    "Location": "Device",
                    "Dimensions": [
                        1,
                        144,
                        56,
                        56
                    ],
                    "Format/Datatype": "Channel major FP16 format where channel % 8 == 0"
                }
            ],
            "Outputs": [
                {
                    "Name": "(Unnamed Layer* 65) [Scale]_output",
                    "Location": "Device",
                    "Dimensions": [
                        1,
                        144,
                        56,
                        56
                    ],
                    "Format/Datatype": "Channel major FP16 format where channel % 8 == 0"
                }
            ],
            "ParameterType": "Convolution",
            "Kernel": [
                3,
                3
            ],
            "PaddingMode": "kEXPLICIT_ROUND_DOWN",
            "PrePadding": [
                1,
                1
            ],
            "PostPadding": [
                1,
                1
            ],
            "Stride": [
                1,
                1
            ],
            "Dilation": [
                1,
                1
            ],
            "OutMaps": 144,
            "Groups": 144,
            "Weights": {
                "Type": "Half",
                "Count": 1296
            },
            "Bias": {
                "Type": "Half",
                "Count": 144
            },
            "HasBias": 1,
            "HasReLU": 0,
            "HasSparseWeights": 0,
            "HasDynamicFilter": 0,
            "HasDynamicBias": 0,
            "HasResidual": 0,
            "ConvXAsActInputIdx": -1,
            "BiasAsActInputIdx": -1,
            "ResAsActInputIdx": -1,
            "Activation": "NONE",
            "TacticName": "sm50_xmma_convolution_depthwiseHMMA_FP16NHWCx8_TR3_TS3_STRIDEH1_STRIDEW1",
            "TacticValue": "0xf9f6e2e1b0fd88e6",
            "StreamId": 0,
            "Metadata": ""
        },
        {
            "Name": "__myl_MaxMinCas_myl14_0",
            "LayerType": "kgen",
            "Inputs": [
                {
                    "Name": "(Unnamed Layer* 65) [Scale]_output",
                    "Dimensions": [
                        1,
                        144,
                        56,
                        56
                    ],
                    "Format/Datatype": "Half"
                }
            ],
            "Outputs": [
                {
                    "Name": "(Unnamed Layer* 75) [Identity]_output",
                    "Dimensions": [
                        1,
                        144,
                        56,
                        56
                    ],
                    "Format/Datatype": "Half"
                }
            ],
            "TacticName": "__myl_MaxMinCas_0x8768308d958701295ff310441a492f65",
            "StreamId": 0,
            "Metadata": ""
        },
        {
            "Name": "[CONVOLUTION]-[aten_ops.convolution.default]-[/features/3/conv/2/convolution_8] + [SCALE]-[aten_ops._native_batch_norm_legit_no_training.default]-[/features/3/conv/3/_native_batch_norm_legit_no_training_8]",
            "LayerType": "CaskConvolution",
            "Inputs": [
                {
                    "Name": "(Unnamed Layer* 75) [Identity]_output",
                    "Location": "Device",
                    "Dimensions": [
                        1,
                        144,
                        56,
                        56
                    ],
                    "Format/Datatype": "Channel major FP16 format where channel % 8 == 0"
                }
            ],
            "Outputs": [
                {
                    "Name": "(Unnamed Layer* 77) [Scale]_output",
                    "Location": "Device",
                    "Dimensions": [
                        1,
                        24,
                        56,
                        56
                    ],
                    "Format/Datatype": "Channel major FP16 format where channel % 8 == 0"
                }
            ],
            "ParameterType": "Convolution",
            "Kernel": [
                1,
                1
            ],
            "PaddingMode": "kEXPLICIT_ROUND_DOWN",
            "PrePadding": [
                0,
                0
            ],
            "PostPadding": [
                0,
                0
            ],
            "Stride": [
                1,
                1
            ],
            "Dilation": [
                1,
                1
            ],
            "OutMaps": 24,
            "Groups": 1,
            "Weights": {
                "Type": "Half",
                "Count": 3456
            },
            "Bias": {
                "Type": "Half",
                "Count": 24
            },
            "HasBias": 1,
            "HasReLU": 0,
            "HasSparseWeights": 0,
            "HasDynamicFilter": 0,
            "HasDynamicBias": 0,
            "HasResidual": 0,
            "ConvXAsActInputIdx": -1,
            "BiasAsActInputIdx": -1,
            "ResAsActInputIdx": -1,
            "Activation": "NONE",
            "TacticName": "sm80_xmma_fprop_implicit_gemm_f16f16_f16f16_f16_nhwckrsc_nhwc_tilesize128x32x32_stage4_warpsize4x1x1_g1_tensor16x8x16_simple_t1r1s1",
            "TacticValue": "0x8047bcfcebface4a",
            "StreamId": 0,
            "Metadata": ""
        },
        {
            "Name": "__myl_Add_myl16_0",
            "LayerType": "kgen",
            "Inputs": [
                {
                    "Name": "(Unnamed Layer* 51) [Scale]_output",
                    "Dimensions": [
                        1,
                        24,
                        56,
                        56
                    ],
                    "Format/Datatype": "Half"
                },
                {
                    "Name": "(Unnamed Layer* 77) [Scale]_output",
                    "Dimensions": [
                        1,
                        24,
                        56,
                        56
                    ],
                    "Format/Datatype": "Half"
                }
            ],
            "Outputs": [
                {
                    "Name": "[ELEMENTWISE]-[aten_ops.add.Tensor]-[/features/3/add]_output_add.Tensor",
                    "Dimensions": [
                        1,
                        24,
                        56,
                        56
                    ],
                    "Format/Datatype": "Half"
                }
            ],
            "TacticName": "__myl_Add_0x45e121be4d17778584efe712b3b668de",
            "StreamId": 0,
            "Metadata": ""
        },
        {
            "Name": "[CONVOLUTION]-[aten_ops.convolution.default]-[/features/4/conv_0/0/convolution_9] + [SCALE]-[aten_ops._native_batch_norm_legit_no_training.default]-[/features/4/conv_0/1/_native_batch_norm_legit_no_training_9]",
            "LayerType": "CaskConvolution",
            "Inputs": [
                {
                    "Name": "[ELEMENTWISE]-[aten_ops.add.Tensor]-[/features/3/add]_output_add.Tensor",
                    "Location": "Device",
                    "Dimensions": [
                        1,
                        24,
                        56,
                        56
                    ],
                    "Format/Datatype": "Channel major FP16 format where channel % 8 == 0"
                }
            ],
            "Outputs": [
                {
                    "Name": "(Unnamed Layer* 80) [Scale]_output",
                    "Location": "Device",
                    "Dimensions": [
                        1,
                        144,
                        56,
                        56
                    ],
                    "Format/Datatype": "Channel major FP16 format where channel % 8 == 0"
                }
            ],
            "ParameterType": "Convolution",
            "Kernel": [
                1,
                1
            ],
            "PaddingMode": "kEXPLICIT_ROUND_DOWN",
            "PrePadding": [
                0,
                0
            ],
            "PostPadding": [
                0,
                0
            ],
            "Stride": [
                1,
                1
            ],
            "Dilation": [
                1,
                1
            ],
            "OutMaps": 144,
            "Groups": 1,
            "Weights": {
                "Type": "Half",
                "Count": 3456
            },
            "Bias": {
                "Type": "Half",
                "Count": 144
            },
            "HasBias": 1,
            "HasReLU": 0,
            "HasSparseWeights": 0,
            "HasDynamicFilter": 0,
            "HasDynamicBias": 0,
            "HasResidual": 0,
            "ConvXAsActInputIdx": -1,
            "BiasAsActInputIdx": -1,
            "ResAsActInputIdx": -1,
            "Activation": "NONE",
            "TacticName": "sm80_xmma_fprop_implicit_gemm_indexed_wo_smem_f16f16_f16f16_f16_nhwckrsc_nhwc_tilesize128x32x16_stage1_warpsize4x1x1_g1_tensor16x8x16_aligna8_alignc8",
            "TacticValue": "0xfb0beb2dd64ff6e8",
            "StreamId": 0,
            "Metadata": ""
        },
        {
            "Name": "__myl_MaxMinCas_myl18_0",
            "LayerType": "kgen",
            "Inputs": [
                {
                    "Name": "(Unnamed Layer* 80) [Scale]_output",
                    "Dimensions": [
                        1,
                        144,
                        56,
                        56
                    ],
                    "Format/Datatype": "Half"
                }
            ],
            "Outputs": [
                {
                    "Name": "(Unnamed Layer* 90) [Identity]_output",
                    "Dimensions": [
                        1,
                        144,
                        56,
                        56
                    ],
                    "Format/Datatype": "Half"
                }
            ],
            "TacticName": "__myl_MaxMinCas_0x8768308d958701295ff310441a492f65",
            "StreamId": 0,
            "Metadata": ""
        },
        {
            "Name": "[CONVOLUTION]-[aten_ops.convolution.default]-[/features/4/conv_1/0/convolution_10] + [SCALE]-[aten_ops._native_batch_norm_legit_no_training.default]-[/features/4/conv_1/1/_native_batch_norm_legit_no_training_10]",
            "LayerType": "CaskConvolution",
            "Inputs": [
                {
                    "Name": "(Unnamed Layer* 90) [Identity]_output",
                    "Location": "Device",
                    "Dimensions": [
                        1,
                        144,
                        56,
                        56
                    ],
                    "Format/Datatype": "Channel major FP16 format where channel % 8 == 0"
                }
            ],
            "Outputs": [
                {
                    "Name": "(Unnamed Layer* 92) [Scale]_output",
                    "Location": "Device",
                    "Dimensions": [
                        1,
                        144,
                        28,
                        28
                    ],
                    "Format/Datatype": "Channel major FP16 format where channel % 8 == 0"
                }
            ],
            "ParameterType": "Convolution",
            "Kernel": [
                3,
                3
            ],
            "PaddingMode": "kEXPLICIT_ROUND_DOWN",
            "PrePadding": [
                1,
                1
            ],
            "PostPadding": [
                1,
                1
            ],
            "Stride": [
                2,
                2
            ],
            "Dilation": [
                1,
                1
            ],
            "OutMaps": 144,
            "Groups": 144,
            "Weights": {
                "Type": "Half",
                "Count": 1296
            },
            "Bias": {
                "Type": "Half",
                "Count": 144
            },
            "HasBias": 1,
            "HasReLU": 0,
            "HasSparseWeights": 0,
            "HasDynamicFilter": 0,
            "HasDynamicBias": 0,
            "HasResidual": 0,
            "ConvXAsActInputIdx": -1,
            "BiasAsActInputIdx": -1,
            "ResAsActInputIdx": -1,
            "Activation": "NONE",
            "TacticName": "sm50_xmma_convolution_depthwiseHMMA_FP16NHWCx8_TR3_TS3_STRIDEH2_STRIDEW2",
            "TacticValue": "0x4a741be05296db88",
            "StreamId": 0,
            "Metadata": ""
        },
        {
            "Name": "__myl_MaxMinCas_myl20_0",
            "LayerType": "kgen",
            "Inputs": [
                {
                    "Name": "(Unnamed Layer* 92) [Scale]_output",
                    "Dimensions": [
                        1,
                        144,
                        28,
                        28
                    ],
                    "Format/Datatype": "Half"
                }
            ],
            "Outputs": [
                {
                    "Name": "(Unnamed Layer* 102) [Identity]_output",
                    "Dimensions": [
                        1,
                        144,
                        28,
                        28
                    ],
                    "Format/Datatype": "Half"
                }
            ],
            "TacticName": "__myl_MaxMinCas_0x3f14f9d04362d9a96eaa9783833ebbd7",
            "StreamId": 0,
            "Metadata": ""
        },
        {
            "Name": "[CONVOLUTION]-[aten_ops.convolution.default]-[/features/4/conv/2/convolution_11] + [SCALE]-[aten_ops._native_batch_norm_legit_no_training.default]-[/features/4/conv/3/_native_batch_norm_legit_no_training_11]",
            "LayerType": "CaskGemmConvolution",
            "Inputs": [
                {
                    "Name": "(Unnamed Layer* 102) [Identity]_output",
                    "Location": "Device",
                    "Dimensions": [
                        1,
                        144,
                        28,
                        28
                    ],
                    "Format/Datatype": "Channel major FP16 format where channel % 8 == 0"
                }
            ],
            "Outputs": [
                {
                    "Name": "(Unnamed Layer* 104) [Scale]_output",
                    "Location": "Device",
                    "Dimensions": [
                        1,
                        32,
                        28,
                        28
                    ],
                    "Format/Datatype": "Channel major FP16 format where channel % 8 == 0"
                }
            ],
            "ParameterType": "Convolution",
            "Kernel": [
                1,
                1
            ],
            "PaddingMode": "kEXPLICIT_ROUND_DOWN",
            "PrePadding": [
                0,
                0
            ],
            "PostPadding": [
                0,
                0
            ],
            "Stride": [
                1,
                1
            ],
            "Dilation": [
                1,
                1
            ],
            "OutMaps": 32,
            "Groups": 1,
            "Weights": {
                "Type": "Half",
                "Count": 4608
            },
            "Bias": {
                "Type": "Half",
                "Count": 32
            },
            "HasBias": 1,
            "HasReLU": 0,
            "HasSparseWeights": 0,
            "HasDynamicFilter": 0,
            "HasDynamicBias": 0,
            "HasResidual": 0,
            "ConvXAsActInputIdx": -1,
            "BiasAsActInputIdx": -1,
            "ResAsActInputIdx": -1,
            "Activation": "NONE",
            "TacticName": "sm80_xmma_gemm_f16f16_f16f16_f16_tn_n_tilesize32x32x64_stage6_warpsize2x2x1_tensor16x8x16",
            "TacticValue": "0x00000000000208d9",
            "StreamId": 0,
            "Metadata": ""
        },
        {
            "Name": "[CONVOLUTION]-[aten_ops.convolution.default]-[/features/5/conv_0/0/convolution_12] + [SCALE]-[aten_ops._native_batch_norm_legit_no_training.default]-[/features/5/conv_0/1/_native_batch_norm_legit_no_training_12]",
            "LayerType": "CaskGemmConvolution",
            "Inputs": [
                {
                    "Name": "(Unnamed Layer* 104) [Scale]_output",
                    "Location": "Device",
                    "Dimensions": [
                        1,
                        32,
                        28,
                        28
                    ],
                    "Format/Datatype": "Channel major FP16 format where channel % 8 == 0"
                }
            ],
            "Outputs": [
                {
                    "Name": "(Unnamed Layer* 106) [Scale]_output",
                    "Location": "Device",
                    "Dimensions": [
                        1,
                        192,
                        28,
                        28
                    ],
                    "Format/Datatype": "Channel major FP16 format where channel % 8 == 0"
                }
            ],
            "ParameterType": "Convolution",
            "Kernel": [
                1,
                1
            ],
            "PaddingMode": "kEXPLICIT_ROUND_DOWN",
            "PrePadding": [
                0,
                0
            ],
            "PostPadding": [
                0,
                0
            ],
            "Stride": [
                1,
                1
            ],
            "Dilation": [
                1,
                1
            ],
            "OutMaps": 192,
            "Groups": 1,
            "Weights": {
                "Type": "Half",
                "Count": 6144
            },
            "Bias": {
                "Type": "Half",
                "Count": 192
            },
            "HasBias": 1,
            "HasReLU": 0,
            "HasSparseWeights": 0,
            "HasDynamicFilter": 0,
            "HasDynamicBias": 0,
            "HasResidual": 0,
            "ConvXAsActInputIdx": -1,
            "BiasAsActInputIdx": -1,
            "ResAsActInputIdx": -1,
            "Activation": "NONE",
            "TacticName": "sm80_xmma_gemm_f16f16_f16f16_f16_nn_n_tilesize128x64x32_stage5_warpsize2x2x1_tensor16x8x16",
            "TacticValue": "0x0000000000020422",
            "StreamId": 0,
            "Metadata": ""
        },
        {
            "Name": "__myl_MaxMinCas_myl23_0",
            "LayerType": "kgen",
            "Inputs": [
                {
                    "Name": "(Unnamed Layer* 106) [Scale]_output",
                    "Dimensions": [
                        1,
                        192,
                        28,
                        28
                    ],
                    "Format/Datatype": "Half"
                }
            ],
            "Outputs": [
                {
                    "Name": "(Unnamed Layer* 116) [Identity]_output",
                    "Dimensions": [
                        1,
                        192,
                        28,
                        28
                    ],
                    "Format/Datatype": "Half"
                }
            ],
            "TacticName": "__myl_MaxMinCas_0xaf4fb041896e57122cd30e94788da6ab",
            "StreamId": 0,
            "Metadata": ""
        },
        {
            "Name": "[CONVOLUTION]-[aten_ops.convolution.default]-[/features/5/conv_1/0/convolution_13] + [SCALE]-[aten_ops._native_batch_norm_legit_no_training.default]-[/features/5/conv_1/1/_native_batch_norm_legit_no_training_13]",
            "LayerType": "CaskConvolution",
            "Inputs": [
                {
                    "Name": "(Unnamed Layer* 116) [Identity]_output",
                    "Location": "Device",
                    "Dimensions": [
                        1,
                        192,
                        28,
                        28
                    ],
                    "Format/Datatype": "Channel major FP16 format where channel % 8 == 0"
                }
            ],
            "Outputs": [
                {
                    "Name": "(Unnamed Layer* 118) [Scale]_output",
                    "Location": "Device",
                    "Dimensions": [
                        1,
                        192,
                        28,
                        28
                    ],
                    "Format/Datatype": "Channel major FP16 format where channel % 8 == 0"
                }
            ],
            "ParameterType": "Convolution",
            "Kernel": [
                3,
                3
            ],
            "PaddingMode": "kEXPLICIT_ROUND_DOWN",
            "PrePadding": [
                1,
                1
            ],
            "PostPadding": [
                1,
                1
            ],
            "Stride": [
                1,
                1
            ],
            "Dilation": [
                1,
                1
            ],
            "OutMaps": 192,
            "Groups": 192,
            "Weights": {
                "Type": "Half",
                "Count": 1728
            },
            "Bias": {
                "Type": "Half",
                "Count": 192
            },
            "HasBias": 1,
            "HasReLU": 0,
            "HasSparseWeights": 0,
            "HasDynamicFilter": 0,
            "HasDynamicBias": 0,
            "HasResidual": 0,
            "ConvXAsActInputIdx": -1,
            "BiasAsActInputIdx": -1,
            "ResAsActInputIdx": -1,
            "Activation": "NONE",
            "TacticName": "sm50_xmma_convolution_depthwiseHMMA_FP16NHWCx8_TR3_TS3_STRIDEH1_STRIDEW1",
            "TacticValue": "0xf9f6e2e1b0fd88e6",
            "StreamId": 0,
            "Metadata": ""
        },
        {
            "Name": "__myl_MaxMinCas_myl25_0",
            "LayerType": "kgen",
            "Inputs": [
                {
                    "Name": "(Unnamed Layer* 118) [Scale]_output",
                    "Dimensions": [
                        1,
                        192,
                        28,
                        28
                    ],
                    "Format/Datatype": "Half"
                }
            ],
            "Outputs": [
                {
                    "Name": "(Unnamed Layer* 128) [Identity]_output",
                    "Dimensions": [
                        1,
                        192,
                        28,
                        28
                    ],
                    "Format/Datatype": "Half"
                }
            ],
            "TacticName": "__myl_MaxMinCas_0xaf4fb041896e57122cd30e94788da6ab",
            "StreamId": 0,
            "Metadata": ""
        },
        {
            "Name": "[CONVOLUTION]-[aten_ops.convolution.default]-[/features/5/conv/2/convolution_14] + [SCALE]-[aten_ops._native_batch_norm_legit_no_training.default]-[/features/5/conv/3/_native_batch_norm_legit_no_training_14]",
            "LayerType": "CaskGemmConvolution",
            "Inputs": [
                {
                    "Name": "(Unnamed Layer* 128) [Identity]_output",
                    "Location": "Device",
                    "Dimensions": [
                        1,
                        192,
                        28,
                        28
                    ],
                    "Format/Datatype": "Channel major FP16 format where channel % 8 == 0"
                }
            ],
            "Outputs": [
                {
                    "Name": "(Unnamed Layer* 130) [Scale]_output",
                    "Location": "Device",
                    "Dimensions": [
                        1,
                        32,
                        28,
                        28
                    ],
                    "Format/Datatype": "Channel major FP16 format where channel % 8 == 0"
                }
            ],
            "ParameterType": "Convolution",
            "Kernel": [
                1,
                1
            ],
            "PaddingMode": "kEXPLICIT_ROUND_DOWN",
            "PrePadding": [
                0,
                0
            ],
            "PostPadding": [
                0,
                0
            ],
            "Stride": [
                1,
                1
            ],
            "Dilation": [
                1,
                1
            ],
            "OutMaps": 32,
            "Groups": 1,
            "Weights": {
                "Type": "Half",
                "Count": 6144
            },
            "Bias": {
                "Type": "Half",
                "Count": 32
            },
            "HasBias": 1,
            "HasReLU": 0,
            "HasSparseWeights": 0,
            "HasDynamicFilter": 0,
            "HasDynamicBias": 0,
            "HasResidual": 0,
            "ConvXAsActInputIdx": -1,
            "BiasAsActInputIdx": -1,
            "ResAsActInputIdx": -1,
            "Activation": "NONE",
            "TacticName": "sm80_xmma_gemm_f16f16_f16f16_f16_tn_n_tilesize32x32x64_stage6_warpsize2x2x1_tensor16x8x16",
            "TacticValue": "0x00000000000208d9",
            "StreamId": 0,
            "Metadata": ""
        },
        {
            "Name": "Reformatting CopyNode for Input Tensor 0 to {ForeignNode[[ELEMENTWISE]-[aten_ops.add.Tensor]-[/features/5/add_1]]}",
            "LayerType": "NoOp",
            "Inputs": [
                {
                    "Name": "(Unnamed Layer* 104) [Scale]_output",
                    "Location": "Device",
                    "Dimensions": [
                        1,
                        32,
                        28,
                        28
                    ],
                    "Format/Datatype": "Channel major FP16 format where channel % 8 == 0"
                }
            ],
            "Outputs": [
                {
                    "Name": "Reformatted Input Tensor 0 to {ForeignNode[[ELEMENTWISE]-[aten_ops.add.Tensor]-[/features/5/add_1]]}",
                    "Location": "Device",
                    "Dimensions": [
                        1,
                        32,
                        28,
                        28
                    ],
                    "Format/Datatype": "Channel major FP16 format where channel % 4 == 0"
                }
            ],
            "TacticValue": "0x0000000000000000",
            "StreamId": 0,
            "Metadata": ""
        },
        {
            "Name": "Reformatting CopyNode for Input Tensor 1 to {ForeignNode[[ELEMENTWISE]-[aten_ops.add.Tensor]-[/features/5/add_1]]}",
            "LayerType": "NoOp",
            "Inputs": [
                {
                    "Name": "(Unnamed Layer* 130) [Scale]_output",
                    "Location": "Device",
                    "Dimensions": [
                        1,
                        32,
                        28,
                        28
                    ],
                    "Format/Datatype": "Channel major FP16 format where channel % 8 == 0"
                }
            ],
            "Outputs": [
                {
                    "Name": "Reformatted Input Tensor 1 to {ForeignNode[[ELEMENTWISE]-[aten_ops.add.Tensor]-[/features/5/add_1]]}",
                    "Location": "Device",
                    "Dimensions": [
                        1,
                        32,
                        28,
                        28
                    ],
                    "Format/Datatype": "Channel major FP16 format where channel % 4 == 0"
                }
            ],
            "TacticValue": "0x0000000000000000",
            "StreamId": 0,
            "Metadata": ""
        },
        {
            "Name": "__myl_Add_myl29_0",
            "LayerType": "kgen",
            "Inputs": [
                {
                    "Name": "Reformatted Input Tensor 0 to {ForeignNode[[ELEMENTWISE]-[aten_ops.add.Tensor]-[/features/5/add_1]]}",
                    "Dimensions": [
                        1,
                        32,
                        28,
                        28
                    ],
                    "Format/Datatype": "Half"
                },
                {
                    "Name": "Reformatted Input Tensor 1 to {ForeignNode[[ELEMENTWISE]-[aten_ops.add.Tensor]-[/features/5/add_1]]}",
                    "Dimensions": [
                        1,
                        32,
                        28,
                        28
                    ],
                    "Format/Datatype": "Half"
                }
            ],
            "Outputs": [
                {
                    "Name": "Reformatted Output Tensor 0 to {ForeignNode[[ELEMENTWISE]-[aten_ops.add.Tensor]-[/features/5/add_1]]}",
                    "Dimensions": [
                        1,
                        32,
                        28,
                        28
                    ],
                    "Format/Datatype": "Half"
                }
            ],
            "TacticName": "__myl_Add_0xbc2348051919479ced2bca4dff6b655c",
            "StreamId": 0,
            "Metadata": ""
        },
        {
            "Name": "Reformatting CopyNode for Output Tensor 0 to {ForeignNode[[ELEMENTWISE]-[aten_ops.add.Tensor]-[/features/5/add_1]]}",
            "LayerType": "NoOp",
            "Inputs": [
                {
                    "Name": "Reformatted Output Tensor 0 to {ForeignNode[[ELEMENTWISE]-[aten_ops.add.Tensor]-[/features/5/add_1]]}",
                    "Location": "Device",
                    "Dimensions": [
                        1,
                        32,
                        28,
                        28
                    ],
                    "Format/Datatype": "Channel major FP16 format where channel % 4 == 0"
                }
            ],
            "Outputs": [
                {
                    "Name": "[ELEMENTWISE]-[aten_ops.add.Tensor]-[/features/5/add_1]_output_add.Tensor",
                    "Location": "Device",
                    "Dimensions": [
                        1,
                        32,
                        28,
                        28
                    ],
                    "Format/Datatype": "Channel major FP16 format where channel % 2 == 0"
                }
            ],
            "TacticValue": "0x0000000000000000",
            "StreamId": 0,
            "Metadata": ""
        },
        {
            "Name": "Reformatting CopyNode for Input Tensor 0 to [CONVOLUTION]-[aten_ops.convolution.default]-[/features/6/conv_0/0/convolution_15] + [SCALE]-[aten_ops._native_batch_norm_legit_no_training.default]-[/features/6/conv_0/1/_native_batch_norm_legit_no_training_15]",
            "LayerType": "NoOp",
            "Inputs": [
                {
                    "Name": "[ELEMENTWISE]-[aten_ops.add.Tensor]-[/features/5/add_1]_output_add.Tensor",
                    "Location": "Device",
                    "Dimensions": [
                        1,
                        32,
                        28,
                        28
                    ],
                    "Format/Datatype": "Channel major FP16 format where channel % 2 == 0"
                }
            ],
            "Outputs": [
                {
                    "Name": "Reformatted Input Tensor 0 to [CONVOLUTION]-[aten_ops.convolution.default]-[/features/6/conv_0/0/convolution_15] + [SCALE]-[aten_ops._native_batch_norm_legit_no_training.default]-[/features/6/conv_0/1/_native_batch_norm_legit_no_training_15]",
                    "Location": "Device",
                    "Dimensions": [
                        1,
                        32,
                        28,
                        28
                    ],
                    "Format/Datatype": "Channel major FP16 format where channel % 8 == 0"
                }
            ],
            "TacticValue": "0x0000000000000000",
            "StreamId": 0,
            "Metadata": ""
        },
        {
            "Name": "[CONVOLUTION]-[aten_ops.convolution.default]-[/features/6/conv_0/0/convolution_15] + [SCALE]-[aten_ops._native_batch_norm_legit_no_training.default]-[/features/6/conv_0/1/_native_batch_norm_legit_no_training_15]",
            "LayerType": "CaskGemmConvolution",
            "Inputs": [
                {
                    "Name": "Reformatted Input Tensor 0 to [CONVOLUTION]-[aten_ops.convolution.default]-[/features/6/conv_0/0/convolution_15] + [SCALE]-[aten_ops._native_batch_norm_legit_no_training.default]-[/features/6/conv_0/1/_native_batch_norm_legit_no_training_15]",
                    "Location": "Device",
                    "Dimensions": [
                        1,
                        32,
                        28,
                        28
                    ],
                    "Format/Datatype": "Channel major FP16 format where channel % 8 == 0"
                }
            ],
            "Outputs": [
                {
                    "Name": "(Unnamed Layer* 133) [Scale]_output",
                    "Location": "Device",
                    "Dimensions": [
                        1,
                        192,
                        28,
                        28
                    ],
                    "Format/Datatype": "Channel major FP16 format where channel % 8 == 0"
                }
            ],
            "ParameterType": "Convolution",
            "Kernel": [
                1,
                1
            ],
            "PaddingMode": "kEXPLICIT_ROUND_DOWN",
            "PrePadding": [
                0,
                0
            ],
            "PostPadding": [
                0,
                0
            ],
            "Stride": [
                1,
                1
            ],
            "Dilation": [
                1,
                1
            ],
            "OutMaps": 192,
            "Groups": 1,
            "Weights": {
                "Type": "Half",
                "Count": 6144
            },
            "Bias": {
                "Type": "Half",
                "Count": 192
            },
            "HasBias": 1,
            "HasReLU": 0,
            "HasSparseWeights": 0,
            "HasDynamicFilter": 0,
            "HasDynamicBias": 0,
            "HasResidual": 0,
            "ConvXAsActInputIdx": -1,
            "BiasAsActInputIdx": -1,
            "ResAsActInputIdx": -1,
            "Activation": "NONE",
            "TacticName": "sm80_xmma_gemm_f16f16_f16f16_f16_nn_n_tilesize128x64x32_stage5_warpsize2x2x1_tensor16x8x16",
            "TacticValue": "0x0000000000020422",
            "StreamId": 0,
            "Metadata": ""
        },
        {
            "Name": "__myl_MaxMinCas_myl33_0",
            "LayerType": "kgen",
            "Inputs": [
                {
                    "Name": "(Unnamed Layer* 133) [Scale]_output",
                    "Dimensions": [
                        1,
                        192,
                        28,
                        28
                    ],
                    "Format/Datatype": "Half"
                }
            ],
            "Outputs": [
                {
                    "Name": "(Unnamed Layer* 143) [Identity]_output",
                    "Dimensions": [
                        1,
                        192,
                        28,
                        28
                    ],
                    "Format/Datatype": "Half"
                }
            ],
            "TacticName": "__myl_MaxMinCas_0xaf4fb041896e57122cd30e94788da6ab",
            "StreamId": 0,
            "Metadata": ""
        },
        {
            "Name": "[CONVOLUTION]-[aten_ops.convolution.default]-[/features/6/conv_1/0/convolution_16] + [SCALE]-[aten_ops._native_batch_norm_legit_no_training.default]-[/features/6/conv_1/1/_native_batch_norm_legit_no_training_16]",
            "LayerType": "CaskConvolution",
            "Inputs": [
                {
                    "Name": "(Unnamed Layer* 143) [Identity]_output",
                    "Location": "Device",
                    "Dimensions": [
                        1,
                        192,
                        28,
                        28
                    ],
                    "Format/Datatype": "Channel major FP16 format where channel % 8 == 0"
                }
            ],
            "Outputs": [
                {
                    "Name": "(Unnamed Layer* 145) [Scale]_output",
                    "Location": "Device",
                    "Dimensions": [
                        1,
                        192,
                        28,
                        28
                    ],
                    "Format/Datatype": "Channel major FP16 format where channel % 8 == 0"
                }
            ],
            "ParameterType": "Convolution",
            "Kernel": [
                3,
                3
            ],
            "PaddingMode": "kEXPLICIT_ROUND_DOWN",
            "PrePadding": [
                1,
                1
            ],
            "PostPadding": [
                1,
                1
            ],
            "Stride": [
                1,
                1
            ],
            "Dilation": [
                1,
                1
            ],
            "OutMaps": 192,
            "Groups": 192,
            "Weights": {
                "Type": "Half",
                "Count": 1728
            },
            "Bias": {
                "Type": "Half",
                "Count": 192
            },
            "HasBias": 1,
            "HasReLU": 0,
            "HasSparseWeights": 0,
            "HasDynamicFilter": 0,
            "HasDynamicBias": 0,
            "HasResidual": 0,
            "ConvXAsActInputIdx": -1,
            "BiasAsActInputIdx": -1,
            "ResAsActInputIdx": -1,
            "Activation": "NONE",
            "TacticName": "sm50_xmma_convolution_depthwiseHMMA_FP16NHWCx8_TR3_TS3_STRIDEH1_STRIDEW1",
            "TacticValue": "0xf9f6e2e1b0fd88e6",
            "StreamId": 0,
            "Metadata": ""
        },
        {
            "Name": "__myl_MaxMinCas_myl35_0",
            "LayerType": "kgen",
            "Inputs": [
                {
                    "Name": "(Unnamed Layer* 145) [Scale]_output",
                    "Dimensions": [
                        1,
                        192,
                        28,
                        28
                    ],
                    "Format/Datatype": "Half"
                }
            ],
            "Outputs": [
                {
                    "Name": "(Unnamed Layer* 155) [Identity]_output",
                    "Dimensions": [
                        1,
                        192,
                        28,
                        28
                    ],
                    "Format/Datatype": "Half"
                }
            ],
            "TacticName": "__myl_MaxMinCas_0xaf4fb041896e57122cd30e94788da6ab",
            "StreamId": 0,
            "Metadata": ""
        },
        {
            "Name": "[CONVOLUTION]-[aten_ops.convolution.default]-[/features/6/conv/2/convolution_17] + [SCALE]-[aten_ops._native_batch_norm_legit_no_training.default]-[/features/6/conv/3/_native_batch_norm_legit_no_training_17]",
            "LayerType": "CaskGemmConvolution",
            "Inputs": [
                {
                    "Name": "(Unnamed Layer* 155) [Identity]_output",
                    "Location": "Device",
                    "Dimensions": [
                        1,
                        192,
                        28,
                        28
                    ],
                    "Format/Datatype": "Channel major FP16 format where channel % 8 == 0"
                }
            ],
            "Outputs": [
                {
                    "Name": "(Unnamed Layer* 157) [Scale]_output",
                    "Location": "Device",
                    "Dimensions": [
                        1,
                        32,
                        28,
                        28
                    ],
                    "Format/Datatype": "Channel major FP16 format where channel % 8 == 0"
                }
            ],
            "ParameterType": "Convolution",
            "Kernel": [
                1,
                1
            ],
            "PaddingMode": "kEXPLICIT_ROUND_DOWN",
            "PrePadding": [
                0,
                0
            ],
            "PostPadding": [
                0,
                0
            ],
            "Stride": [
                1,
                1
            ],
            "Dilation": [
                1,
                1
            ],
            "OutMaps": 32,
            "Groups": 1,
            "Weights": {
                "Type": "Half",
                "Count": 6144
            },
            "Bias": {
                "Type": "Half",
                "Count": 32
            },
            "HasBias": 1,
            "HasReLU": 0,
            "HasSparseWeights": 0,
            "HasDynamicFilter": 0,
            "HasDynamicBias": 0,
            "HasResidual": 0,
            "ConvXAsActInputIdx": -1,
            "BiasAsActInputIdx": -1,
            "ResAsActInputIdx": -1,
            "Activation": "NONE",
            "TacticName": "sm80_xmma_gemm_f16f16_f16f16_f16_tn_n_tilesize32x32x64_stage6_warpsize2x2x1_tensor16x8x16",
            "TacticValue": "0x00000000000208d9",
            "StreamId": 0,
            "Metadata": ""
        },
        {
            "Name": "Reformatting CopyNode for Input Tensor 1 to {ForeignNode[[ELEMENTWISE]-[aten_ops.add.Tensor]-[/features/6/add_2]]}",
            "LayerType": "NoOp",
            "Inputs": [
                {
                    "Name": "(Unnamed Layer* 157) [Scale]_output",
                    "Location": "Device",
                    "Dimensions": [
                        1,
                        32,
                        28,
                        28
                    ],
                    "Format/Datatype": "Channel major FP16 format where channel % 8 == 0"
                }
            ],
            "Outputs": [
                {
                    "Name": "Reformatted Input Tensor 1 to {ForeignNode[[ELEMENTWISE]-[aten_ops.add.Tensor]-[/features/6/add_2]]}",
                    "Location": "Device",
                    "Dimensions": [
                        1,
                        32,
                        28,
                        28
                    ],
                    "Format/Datatype": "Channel major FP16 format where channel % 2 == 0"
                }
            ],
            "TacticValue": "0x0000000000000000",
            "StreamId": 0,
            "Metadata": ""
        },
        {
            "Name": "__myl_Add_myl38_0",
            "LayerType": "kgen",
            "Inputs": [
                {
                    "Name": "[ELEMENTWISE]-[aten_ops.add.Tensor]-[/features/5/add_1]_output_add.Tensor",
                    "Dimensions": [
                        1,
                        32,
                        28,
                        28
                    ],
                    "Format/Datatype": "Half"
                },
                {
                    "Name": "Reformatted Input Tensor 1 to {ForeignNode[[ELEMENTWISE]-[aten_ops.add.Tensor]-[/features/6/add_2]]}",
                    "Dimensions": [
                        1,
                        32,
                        28,
                        28
                    ],
                    "Format/Datatype": "Half"
                }
            ],
            "Outputs": [
                {
                    "Name": "[ELEMENTWISE]-[aten_ops.add.Tensor]-[/features/6/add_2]_output_add.Tensor",
                    "Dimensions": [
                        1,
                        32,
                        28,
                        28
                    ],
                    "Format/Datatype": "Half"
                }
            ],
            "TacticName": "__myl_Add_0xbc2348051919479ced2bca4dff6b655c",
            "StreamId": 0,
            "Metadata": ""
        },
        {
            "Name": "Reformatting CopyNode for Input Tensor 0 to [CONVOLUTION]-[aten_ops.convolution.default]-[/features/7/conv_0/0/convolution_18] + [SCALE]-[aten_ops._native_batch_norm_legit_no_training.default]-[/features/7/conv_0/1/_native_batch_norm_legit_no_training_18]",
            "LayerType": "NoOp",
            "Inputs": [
                {
                    "Name": "[ELEMENTWISE]-[aten_ops.add.Tensor]-[/features/6/add_2]_output_add.Tensor",
                    "Location": "Device",
                    "Dimensions": [
                        1,
                        32,
                        28,
                        28
                    ],
                    "Format/Datatype": "Channel major FP16 format where channel % 2 == 0"
                }
            ],
            "Outputs": [
                {
                    "Name": "Reformatted Input Tensor 0 to [CONVOLUTION]-[aten_ops.convolution.default]-[/features/7/conv_0/0/convolution_18] + [SCALE]-[aten_ops._native_batch_norm_legit_no_training.default]-[/features/7/conv_0/1/_native_batch_norm_legit_no_training_18]",
                    "Location": "Device",
                    "Dimensions": [
                        1,
                        32,
                        28,
                        28
                    ],
                    "Format/Datatype": "Channel major FP16 format where channel % 8 == 0"
                }
            ],
            "TacticValue": "0x0000000000000000",
            "StreamId": 0,
            "Metadata": ""
        },
        {
            "Name": "[CONVOLUTION]-[aten_ops.convolution.default]-[/features/7/conv_0/0/convolution_18] + [SCALE]-[aten_ops._native_batch_norm_legit_no_training.default]-[/features/7/conv_0/1/_native_batch_norm_legit_no_training_18]",
            "LayerType": "CaskGemmConvolution",
            "Inputs": [
                {
                    "Name": "Reformatted Input Tensor 0 to [CONVOLUTION]-[aten_ops.convolution.default]-[/features/7/conv_0/0/convolution_18] + [SCALE]-[aten_ops._native_batch_norm_legit_no_training.default]-[/features/7/conv_0/1/_native_batch_norm_legit_no_training_18]",
                    "Location": "Device",
                    "Dimensions": [
                        1,
                        32,
                        28,
                        28
                    ],
                    "Format/Datatype": "Channel major FP16 format where channel % 8 == 0"
                }
            ],
            "Outputs": [
                {
                    "Name": "(Unnamed Layer* 160) [Scale]_output",
                    "Location": "Device",
                    "Dimensions": [
                        1,
                        192,
                        28,
                        28
                    ],
                    "Format/Datatype": "Channel major FP16 format where channel % 8 == 0"
                }
            ],
            "ParameterType": "Convolution",
            "Kernel": [
                1,
                1
            ],
            "PaddingMode": "kEXPLICIT_ROUND_DOWN",
            "PrePadding": [
                0,
                0
            ],
            "PostPadding": [
                0,
                0
            ],
            "Stride": [
                1,
                1
            ],
            "Dilation": [
                1,
                1
            ],
            "OutMaps": 192,
            "Groups": 1,
            "Weights": {
                "Type": "Half",
                "Count": 6144
            },
            "Bias": {
                "Type": "Half",
                "Count": 192
            },
            "HasBias": 1,
            "HasReLU": 0,
            "HasSparseWeights": 0,
            "HasDynamicFilter": 0,
            "HasDynamicBias": 0,
            "HasResidual": 0,
            "ConvXAsActInputIdx": -1,
            "BiasAsActInputIdx": -1,
            "ResAsActInputIdx": -1,
            "Activation": "NONE",
            "TacticName": "sm80_xmma_gemm_f16f16_f16f16_f16_nn_n_tilesize128x64x32_stage5_warpsize2x2x1_tensor16x8x16",
            "TacticValue": "0x0000000000020422",
            "StreamId": 0,
            "Metadata": ""
        },
        {
            "Name": "__myl_MaxMinCas_myl41_0",
            "LayerType": "kgen",
            "Inputs": [
                {
                    "Name": "(Unnamed Layer* 160) [Scale]_output",
                    "Dimensions": [
                        1,
                        192,
                        28,
                        28
                    ],
                    "Format/Datatype": "Half"
                }
            ],
            "Outputs": [
                {
                    "Name": "(Unnamed Layer* 170) [Identity]_output",
                    "Dimensions": [
                        1,
                        192,
                        28,
                        28
                    ],
                    "Format/Datatype": "Half"
                }
            ],
            "TacticName": "__myl_MaxMinCas_0xaf4fb041896e57122cd30e94788da6ab",
            "StreamId": 0,
            "Metadata": ""
        },
        {
            "Name": "[CONVOLUTION]-[aten_ops.convolution.default]-[/features/7/conv_1/0/convolution_19] + [SCALE]-[aten_ops._native_batch_norm_legit_no_training.default]-[/features/7/conv_1/1/_native_batch_norm_legit_no_training_19]",
            "LayerType": "CaskConvolution",
            "Inputs": [
                {
                    "Name": "(Unnamed Layer* 170) [Identity]_output",
                    "Location": "Device",
                    "Dimensions": [
                        1,
                        192,
                        28,
                        28
                    ],
                    "Format/Datatype": "Channel major FP16 format where channel % 8 == 0"
                }
            ],
            "Outputs": [
                {
                    "Name": "(Unnamed Layer* 172) [Scale]_output",
                    "Location": "Device",
                    "Dimensions": [
                        1,
                        192,
                        14,
                        14
                    ],
                    "Format/Datatype": "Channel major FP16 format where channel % 8 == 0"
                }
            ],
            "ParameterType": "Convolution",
            "Kernel": [
                3,
                3
            ],
            "PaddingMode": "kEXPLICIT_ROUND_DOWN",
            "PrePadding": [
                1,
                1
            ],
            "PostPadding": [
                1,
                1
            ],
            "Stride": [
                2,
                2
            ],
            "Dilation": [
                1,
                1
            ],
            "OutMaps": 192,
            "Groups": 192,
            "Weights": {
                "Type": "Half",
                "Count": 1728
            },
            "Bias": {
                "Type": "Half",
                "Count": 192
            },
            "HasBias": 1,
            "HasReLU": 0,
            "HasSparseWeights": 0,
            "HasDynamicFilter": 0,
            "HasDynamicBias": 0,
            "HasResidual": 0,
            "ConvXAsActInputIdx": -1,
            "BiasAsActInputIdx": -1,
            "ResAsActInputIdx": -1,
            "Activation": "NONE",
            "TacticName": "sm50_xmma_convolution_depthwiseHMMA_FP16NHWCx8_TR3_TS3_STRIDEH2_STRIDEW2",
            "TacticValue": "0x4a741be05296db88",
            "StreamId": 0,
            "Metadata": ""
        },
        {
            "Name": "__myl_MaxMinCas_myl43_0",
            "LayerType": "kgen",
            "Inputs": [
                {
                    "Name": "(Unnamed Layer* 172) [Scale]_output",
                    "Dimensions": [
                        1,
                        192,
                        14,
                        14
                    ],
                    "Format/Datatype": "Half"
                }
            ],
            "Outputs": [
                {
                    "Name": "(Unnamed Layer* 182) [Identity]_output",
                    "Dimensions": [
                        1,
                        192,
                        14,
                        14
                    ],
                    "Format/Datatype": "Half"
                }
            ],
            "TacticName": "__myl_MaxMinCas_0xb1283d00e4422665dad57964731d9dd7",
            "StreamId": 0,
            "Metadata": ""
        },
        {
            "Name": "[CONVOLUTION]-[aten_ops.convolution.default]-[/features/7/conv/2/convolution_20] + [SCALE]-[aten_ops._native_batch_norm_legit_no_training.default]-[/features/7/conv/3/_native_batch_norm_legit_no_training_20]",
            "LayerType": "CaskGemmConvolution",
            "Inputs": [
                {
                    "Name": "(Unnamed Layer* 182) [Identity]_output",
                    "Location": "Device",
                    "Dimensions": [
                        1,
                        192,
                        14,
                        14
                    ],
                    "Format/Datatype": "Channel major FP16 format where channel % 8 == 0"
                }
            ],
            "Outputs": [
                {
                    "Name": "(Unnamed Layer* 184) [Scale]_output",
                    "Location": "Device",
                    "Dimensions": [
                        1,
                        64,
                        14,
                        14
                    ],
                    "Format/Datatype": "Channel major FP16 format where channel % 8 == 0"
                }
            ],
            "ParameterType": "Convolution",
            "Kernel": [
                1,
                1
            ],
            "PaddingMode": "kEXPLICIT_ROUND_DOWN",
            "PrePadding": [
                0,
                0
            ],
            "PostPadding": [
                0,
                0
            ],
            "Stride": [
                1,
                1
            ],
            "Dilation": [
                1,
                1
            ],
            "OutMaps": 64,
            "Groups": 1,
            "Weights": {
                "Type": "Half",
                "Count": 12288
            },
            "Bias": {
                "Type": "Half",
                "Count": 64
            },
            "HasBias": 1,
            "HasReLU": 0,
            "HasSparseWeights": 0,
            "HasDynamicFilter": 0,
            "HasDynamicBias": 0,
            "HasResidual": 0,
            "ConvXAsActInputIdx": -1,
            "BiasAsActInputIdx": -1,
            "ResAsActInputIdx": -1,
            "Activation": "NONE",
            "TacticName": "sm80_xmma_gemm_f16f16_f16f16_f16_nn_n_tilesize32x32x64_stage6_warpsize2x2x1_tensor16x8x16",
            "TacticValue": "0x00000000000204c1",
            "StreamId": 0,
            "Metadata": ""
        },
        {
            "Name": "[CONVOLUTION]-[aten_ops.convolution.default]-[/features/8/conv_0/0/convolution_21] + [SCALE]-[aten_ops._native_batch_norm_legit_no_training.default]-[/features/8/conv_0/1/_native_batch_norm_legit_no_training_21]",
            "LayerType": "CaskConvolution",
            "Inputs": [
                {
                    "Name": "(Unnamed Layer* 184) [Scale]_output",
                    "Location": "Device",
                    "Dimensions": [
                        1,
                        64,
                        14,
                        14
                    ],
                    "Format/Datatype": "Channel major FP16 format where channel % 8 == 0"
                }
            ],
            "Outputs": [
                {
                    "Name": "(Unnamed Layer* 186) [Scale]_output",
                    "Location": "Device",
                    "Dimensions": [
                        1,
                        384,
                        14,
                        14
                    ],
                    "Format/Datatype": "Channel major FP16 format where channel % 8 == 0"
                }
            ],
            "ParameterType": "Convolution",
            "Kernel": [
                1,
                1
            ],
            "PaddingMode": "kEXPLICIT_ROUND_DOWN",
            "PrePadding": [
                0,
                0
            ],
            "PostPadding": [
                0,
                0
            ],
            "Stride": [
                1,
                1
            ],
            "Dilation": [
                1,
                1
            ],
            "OutMaps": 384,
            "Groups": 1,
            "Weights": {
                "Type": "Half",
                "Count": 24576
            },
            "Bias": {
                "Type": "Half",
                "Count": 384
            },
            "HasBias": 1,
            "HasReLU": 0,
            "HasSparseWeights": 0,
            "HasDynamicFilter": 0,
            "HasDynamicBias": 0,
            "HasResidual": 0,
            "ConvXAsActInputIdx": -1,
            "BiasAsActInputIdx": -1,
            "ResAsActInputIdx": -1,
            "Activation": "NONE",
            "TacticName": "sm80_xmma_fprop_implicit_gemm_indexed_f16f16_f16f16_f16_nhwckrsc_nhwc_tilesize64x64x64_stage4_warpsize2x2x1_g1_tensor16x8x16",
            "TacticValue": "0x4a81ea1e51436a30",
            "StreamId": 0,
            "Metadata": ""
        },
        {
            "Name": "__myl_MaxMinCas_myl46_0",
            "LayerType": "kgen",
            "Inputs": [
                {
                    "Name": "(Unnamed Layer* 186) [Scale]_output",
                    "Dimensions": [
                        1,
                        384,
                        14,
                        14
                    ],
                    "Format/Datatype": "Half"
                }
            ],
            "Outputs": [
                {
                    "Name": "(Unnamed Layer* 196) [Identity]_output",
                    "Dimensions": [
                        1,
                        384,
                        14,
                        14
                    ],
                    "Format/Datatype": "Half"
                }
            ],
            "TacticName": "__myl_MaxMinCas_0x39832a6783b2f2589e929f83d6f52fd9",
            "StreamId": 0,
            "Metadata": ""
        },
        {
            "Name": "[CONVOLUTION]-[aten_ops.convolution.default]-[/features/8/conv_1/0/convolution_22] + [SCALE]-[aten_ops._native_batch_norm_legit_no_training.default]-[/features/8/conv_1/1/_native_batch_norm_legit_no_training_22]",
            "LayerType": "CaskConvolution",
            "Inputs": [
                {
                    "Name": "(Unnamed Layer* 196) [Identity]_output",
                    "Location": "Device",
                    "Dimensions": [
                        1,
                        384,
                        14,
                        14
                    ],
                    "Format/Datatype": "Channel major FP16 format where channel % 8 == 0"
                }
            ],
            "Outputs": [
                {
                    "Name": "(Unnamed Layer* 198) [Scale]_output",
                    "Location": "Device",
                    "Dimensions": [
                        1,
                        384,
                        14,
                        14
                    ],
                    "Format/Datatype": "Channel major FP16 format where channel % 8 == 0"
                }
            ],
            "ParameterType": "Convolution",
            "Kernel": [
                3,
                3
            ],
            "PaddingMode": "kEXPLICIT_ROUND_DOWN",
            "PrePadding": [
                1,
                1
            ],
            "PostPadding": [
                1,
                1
            ],
            "Stride": [
                1,
                1
            ],
            "Dilation": [
                1,
                1
            ],
            "OutMaps": 384,
            "Groups": 384,
            "Weights": {
                "Type": "Half",
                "Count": 3456
            },
            "Bias": {
                "Type": "Half",
                "Count": 384
            },
            "HasBias": 1,
            "HasReLU": 0,
            "HasSparseWeights": 0,
            "HasDynamicFilter": 0,
            "HasDynamicBias": 0,
            "HasResidual": 0,
            "ConvXAsActInputIdx": -1,
            "BiasAsActInputIdx": -1,
            "ResAsActInputIdx": -1,
            "Activation": "NONE",
            "TacticName": "sm50_xmma_convolution_depthwiseHMMA_FP16NHWCx8_TR3_TS3_STRIDEH1_STRIDEW1",
            "TacticValue": "0xf9f6e2e1b0fd88e6",
            "StreamId": 0,
            "Metadata": ""
        },
        {
            "Name": "__myl_MaxMinCas_myl48_0",
            "LayerType": "kgen",
            "Inputs": [
                {
                    "Name": "(Unnamed Layer* 198) [Scale]_output",
                    "Dimensions": [
                        1,
                        384,
                        14,
                        14
                    ],
                    "Format/Datatype": "Half"
                }
            ],
            "Outputs": [
                {
                    "Name": "(Unnamed Layer* 208) [Identity]_output",
                    "Dimensions": [
                        1,
                        384,
                        14,
                        14
                    ],
                    "Format/Datatype": "Half"
                }
            ],
            "TacticName": "__myl_MaxMinCas_0x39832a6783b2f2589e929f83d6f52fd9",
            "StreamId": 0,
            "Metadata": ""
        },
        {
            "Name": "[CONVOLUTION]-[aten_ops.convolution.default]-[/features/8/conv/2/convolution_23] + [SCALE]-[aten_ops._native_batch_norm_legit_no_training.default]-[/features/8/conv/3/_native_batch_norm_legit_no_training_23]",
            "LayerType": "CaskGemmConvolution",
            "Inputs": [
                {
                    "Name": "(Unnamed Layer* 208) [Identity]_output",
                    "Location": "Device",
                    "Dimensions": [
                        1,
                        384,
                        14,
                        14
                    ],
                    "Format/Datatype": "Channel major FP16 format where channel % 8 == 0"
                }
            ],
            "Outputs": [
                {
                    "Name": "(Unnamed Layer* 210) [Scale]_output",
                    "Location": "Device",
                    "Dimensions": [
                        1,
                        64,
                        14,
                        14
                    ],
                    "Format/Datatype": "Channel major FP16 format where channel % 8 == 0"
                }
            ],
            "ParameterType": "Convolution",
            "Kernel": [
                1,
                1
            ],
            "PaddingMode": "kEXPLICIT_ROUND_DOWN",
            "PrePadding": [
                0,
                0
            ],
            "PostPadding": [
                0,
                0
            ],
            "Stride": [
                1,
                1
            ],
            "Dilation": [
                1,
                1
            ],
            "OutMaps": 64,
            "Groups": 1,
            "Weights": {
                "Type": "Half",
                "Count": 24576
            },
            "Bias": {
                "Type": "Half",
                "Count": 64
            },
            "HasBias": 1,
            "HasReLU": 0,
            "HasSparseWeights": 0,
            "HasDynamicFilter": 0,
            "HasDynamicBias": 0,
            "HasResidual": 0,
            "ConvXAsActInputIdx": -1,
            "BiasAsActInputIdx": -1,
            "ResAsActInputIdx": -1,
            "Activation": "NONE",
            "TacticName": "sm80_xmma_gemm_f16f16_f16f16_f16_tn_n_tilesize32x32x64_stage6_warpsize2x2x1_tensor16x8x16",
            "TacticValue": "0x00000000000208d9",
            "StreamId": 0,
            "Metadata": ""
        },
        {
            "Name": "Reformatting CopyNode for Input Tensor 0 to {ForeignNode[[ELEMENTWISE]-[aten_ops.add.Tensor]-[/features/8/add_3]]}",
            "LayerType": "NoOp",
            "Inputs": [
                {
                    "Name": "(Unnamed Layer* 184) [Scale]_output",
                    "Location": "Device",
                    "Dimensions": [
                        1,
                        64,
                        14,
                        14
                    ],
                    "Format/Datatype": "Channel major FP16 format where channel % 8 == 0"
                }
            ],
            "Outputs": [
                {
                    "Name": "Reformatted Input Tensor 0 to {ForeignNode[[ELEMENTWISE]-[aten_ops.add.Tensor]-[/features/8/add_3]]}",
                    "Location": "Device",
                    "Dimensions": [
                        1,
                        64,
                        14,
                        14
                    ],
                    "Format/Datatype": "Channel major FP16 format where channel % 2 == 0"
                }
            ],
            "TacticValue": "0x0000000000000000",
            "StreamId": 0,
            "Metadata": ""
        },
        {
            "Name": "Reformatting CopyNode for Input Tensor 1 to {ForeignNode[[ELEMENTWISE]-[aten_ops.add.Tensor]-[/features/8/add_3]]}",
            "LayerType": "NoOp",
            "Inputs": [
                {
                    "Name": "(Unnamed Layer* 210) [Scale]_output",
                    "Location": "Device",
                    "Dimensions": [
                        1,
                        64,
                        14,
                        14
                    ],
                    "Format/Datatype": "Channel major FP16 format where channel % 8 == 0"
                }
            ],
            "Outputs": [
                {
                    "Name": "Reformatted Input Tensor 1 to {ForeignNode[[ELEMENTWISE]-[aten_ops.add.Tensor]-[/features/8/add_3]]}",
                    "Location": "Device",
                    "Dimensions": [
                        1,
                        64,
                        14,
                        14
                    ],
                    "Format/Datatype": "Channel major FP16 format where channel % 2 == 0"
                }
            ],
            "TacticValue": "0x0000000000000000",
            "StreamId": 0,
            "Metadata": ""
        },
        {
            "Name": "__myl_Add_myl52_0",
            "LayerType": "kgen",
            "Inputs": [
                {
                    "Name": "Reformatted Input Tensor 0 to {ForeignNode[[ELEMENTWISE]-[aten_ops.add.Tensor]-[/features/8/add_3]]}",
                    "Dimensions": [
                        1,
                        64,
                        14,
                        14
                    ],
                    "Format/Datatype": "Half"
                },
                {
                    "Name": "Reformatted Input Tensor 1 to {ForeignNode[[ELEMENTWISE]-[aten_ops.add.Tensor]-[/features/8/add_3]]}",
                    "Dimensions": [
                        1,
                        64,
                        14,
                        14
                    ],
                    "Format/Datatype": "Half"
                }
            ],
            "Outputs": [
                {
                    "Name": "[ELEMENTWISE]-[aten_ops.add.Tensor]-[/features/8/add_3]_output_add.Tensor",
                    "Dimensions": [
                        1,
                        64,
                        14,
                        14
                    ],
                    "Format/Datatype": "Half"
                }
            ],
            "TacticName": "__myl_Add_0xc27d4d63807dfd3ab040084dce8f5c3f",
            "StreamId": 0,
            "Metadata": ""
        },
        {
            "Name": "Reformatting CopyNode for Input Tensor 0 to [CONVOLUTION]-[aten_ops.convolution.default]-[/features/9/conv_0/0/convolution_24] + [SCALE]-[aten_ops._native_batch_norm_legit_no_training.default]-[/features/9/conv_0/1/_native_batch_norm_legit_no_training_24]",
            "LayerType": "NoOp",
            "Inputs": [
                {
                    "Name": "[ELEMENTWISE]-[aten_ops.add.Tensor]-[/features/8/add_3]_output_add.Tensor",
                    "Location": "Device",
                    "Dimensions": [
                        1,
                        64,
                        14,
                        14
                    ],
                    "Format/Datatype": "Channel major FP16 format where channel % 2 == 0"
                }
            ],
            "Outputs": [
                {
                    "Name": "Reformatted Input Tensor 0 to [CONVOLUTION]-[aten_ops.convolution.default]-[/features/9/conv_0/0/convolution_24] + [SCALE]-[aten_ops._native_batch_norm_legit_no_training.default]-[/features/9/conv_0/1/_native_batch_norm_legit_no_training_24]",
                    "Location": "Device",
                    "Dimensions": [
                        1,
                        64,
                        14,
                        14
                    ],
                    "Format/Datatype": "Channel major FP16 format where channel % 8 == 0"
                }
            ],
            "TacticValue": "0x0000000000000000",
            "StreamId": 0,
            "Metadata": ""
        },
        {
            "Name": "[CONVOLUTION]-[aten_ops.convolution.default]-[/features/9/conv_0/0/convolution_24] + [SCALE]-[aten_ops._native_batch_norm_legit_no_training.default]-[/features/9/conv_0/1/_native_batch_norm_legit_no_training_24]",
            "LayerType": "CaskConvolution",
            "Inputs": [
                {
                    "Name": "Reformatted Input Tensor 0 to [CONVOLUTION]-[aten_ops.convolution.default]-[/features/9/conv_0/0/convolution_24] + [SCALE]-[aten_ops._native_batch_norm_legit_no_training.default]-[/features/9/conv_0/1/_native_batch_norm_legit_no_training_24]",
                    "Location": "Device",
                    "Dimensions": [
                        1,
                        64,
                        14,
                        14
                    ],
                    "Format/Datatype": "Channel major FP16 format where channel % 8 == 0"
                }
            ],
            "Outputs": [
                {
                    "Name": "(Unnamed Layer* 213) [Scale]_output",
                    "Location": "Device",
                    "Dimensions": [
                        1,
                        384,
                        14,
                        14
                    ],
                    "Format/Datatype": "Channel major FP16 format where channel % 8 == 0"
                }
            ],
            "ParameterType": "Convolution",
            "Kernel": [
                1,
                1
            ],
            "PaddingMode": "kEXPLICIT_ROUND_DOWN",
            "PrePadding": [
                0,
                0
            ],
            "PostPadding": [
                0,
                0
            ],
            "Stride": [
                1,
                1
            ],
            "Dilation": [
                1,
                1
            ],
            "OutMaps": 384,
            "Groups": 1,
            "Weights": {
                "Type": "Half",
                "Count": 24576
            },
            "Bias": {
                "Type": "Half",
                "Count": 384
            },
            "HasBias": 1,
            "HasReLU": 0,
            "HasSparseWeights": 0,
            "HasDynamicFilter": 0,
            "HasDynamicBias": 0,
            "HasResidual": 0,
            "ConvXAsActInputIdx": -1,
            "BiasAsActInputIdx": -1,
            "ResAsActInputIdx": -1,
            "Activation": "NONE",
            "TacticName": "sm80_xmma_fprop_implicit_gemm_indexed_f16f16_f16f16_f16_nhwckrsc_nhwc_tilesize64x64x64_stage4_warpsize2x2x1_g1_tensor16x8x16",
            "TacticValue": "0x4a81ea1e51436a30",
            "StreamId": 0,
            "Metadata": ""
        },
        {
            "Name": "__myl_MaxMinCas_myl55_0",
            "LayerType": "kgen",
            "Inputs": [
                {
                    "Name": "(Unnamed Layer* 213) [Scale]_output",
                    "Dimensions": [
                        1,
                        384,
                        14,
                        14
                    ],
                    "Format/Datatype": "Half"
                }
            ],
            "Outputs": [
                {
                    "Name": "(Unnamed Layer* 223) [Identity]_output",
                    "Dimensions": [
                        1,
                        384,
                        14,
                        14
                    ],
                    "Format/Datatype": "Half"
                }
            ],
            "TacticName": "__myl_MaxMinCas_0x39832a6783b2f2589e929f83d6f52fd9",
            "StreamId": 0,
            "Metadata": ""
        },
        {
            "Name": "[CONVOLUTION]-[aten_ops.convolution.default]-[/features/9/conv_1/0/convolution_25] + [SCALE]-[aten_ops._native_batch_norm_legit_no_training.default]-[/features/9/conv_1/1/_native_batch_norm_legit_no_training_25]",
            "LayerType": "CaskConvolution",
            "Inputs": [
                {
                    "Name": "(Unnamed Layer* 223) [Identity]_output",
                    "Location": "Device",
                    "Dimensions": [
                        1,
                        384,
                        14,
                        14
                    ],
                    "Format/Datatype": "Channel major FP16 format where channel % 8 == 0"
                }
            ],
            "Outputs": [
                {
                    "Name": "(Unnamed Layer* 225) [Scale]_output",
                    "Location": "Device",
                    "Dimensions": [
                        1,
                        384,
                        14,
                        14
                    ],
                    "Format/Datatype": "Channel major FP16 format where channel % 8 == 0"
                }
            ],
            "ParameterType": "Convolution",
            "Kernel": [
                3,
                3
            ],
            "PaddingMode": "kEXPLICIT_ROUND_DOWN",
            "PrePadding": [
                1,
                1
            ],
            "PostPadding": [
                1,
                1
            ],
            "Stride": [
                1,
                1
            ],
            "Dilation": [
                1,
                1
            ],
            "OutMaps": 384,
            "Groups": 384,
            "Weights": {
                "Type": "Half",
                "Count": 3456
            },
            "Bias": {
                "Type": "Half",
                "Count": 384
            },
            "HasBias": 1,
            "HasReLU": 0,
            "HasSparseWeights": 0,
            "HasDynamicFilter": 0,
            "HasDynamicBias": 0,
            "HasResidual": 0,
            "ConvXAsActInputIdx": -1,
            "BiasAsActInputIdx": -1,
            "ResAsActInputIdx": -1,
            "Activation": "NONE",
            "TacticName": "sm50_xmma_convolution_depthwiseHMMA_FP16NHWCx8_TR3_TS3_STRIDEH1_STRIDEW1",
            "TacticValue": "0xf9f6e2e1b0fd88e6",
            "StreamId": 0,
            "Metadata": ""
        },
        {
            "Name": "__myl_MaxMinCas_myl57_0",
            "LayerType": "kgen",
            "Inputs": [
                {
                    "Name": "(Unnamed Layer* 225) [Scale]_output",
                    "Dimensions": [
                        1,
                        384,
                        14,
                        14
                    ],
                    "Format/Datatype": "Half"
                }
            ],
            "Outputs": [
                {
                    "Name": "(Unnamed Layer* 235) [Identity]_output",
                    "Dimensions": [
                        1,
                        384,
                        14,
                        14
                    ],
                    "Format/Datatype": "Half"
                }
            ],
            "TacticName": "__myl_MaxMinCas_0x39832a6783b2f2589e929f83d6f52fd9",
            "StreamId": 0,
            "Metadata": ""
        },
        {
            "Name": "[CONVOLUTION]-[aten_ops.convolution.default]-[/features/9/conv/2/convolution_26] + [SCALE]-[aten_ops._native_batch_norm_legit_no_training.default]-[/features/9/conv/3/_native_batch_norm_legit_no_training_26]",
            "LayerType": "CaskGemmConvolution",
            "Inputs": [
                {
                    "Name": "(Unnamed Layer* 235) [Identity]_output",
                    "Location": "Device",
                    "Dimensions": [
                        1,
                        384,
                        14,
                        14
                    ],
                    "Format/Datatype": "Channel major FP16 format where channel % 8 == 0"
                }
            ],
            "Outputs": [
                {
                    "Name": "(Unnamed Layer* 237) [Scale]_output",
                    "Location": "Device",
                    "Dimensions": [
                        1,
                        64,
                        14,
                        14
                    ],
                    "Format/Datatype": "Channel major FP16 format where channel % 8 == 0"
                }
            ],
            "ParameterType": "Convolution",
            "Kernel": [
                1,
                1
            ],
            "PaddingMode": "kEXPLICIT_ROUND_DOWN",
            "PrePadding": [
                0,
                0
            ],
            "PostPadding": [
                0,
                0
            ],
            "Stride": [
                1,
                1
            ],
            "Dilation": [
                1,
                1
            ],
            "OutMaps": 64,
            "Groups": 1,
            "Weights": {
                "Type": "Half",
                "Count": 24576
            },
            "Bias": {
                "Type": "Half",
                "Count": 64
            },
            "HasBias": 1,
            "HasReLU": 0,
            "HasSparseWeights": 0,
            "HasDynamicFilter": 0,
            "HasDynamicBias": 0,
            "HasResidual": 0,
            "ConvXAsActInputIdx": -1,
            "BiasAsActInputIdx": -1,
            "ResAsActInputIdx": -1,
            "Activation": "NONE",
            "TacticName": "sm80_xmma_gemm_f16f16_f16f16_f16_tn_n_tilesize32x32x64_stage6_warpsize2x2x1_tensor16x8x16",
            "TacticValue": "0x00000000000208d9",
            "StreamId": 0,
            "Metadata": ""
        },
        {
            "Name": "Reformatting CopyNode for Input Tensor 1 to {ForeignNode[[ELEMENTWISE]-[aten_ops.add.Tensor]-[/features/9/add_4]]}",
            "LayerType": "NoOp",
            "Inputs": [
                {
                    "Name": "(Unnamed Layer* 237) [Scale]_output",
                    "Location": "Device",
                    "Dimensions": [
                        1,
                        64,
                        14,
                        14
                    ],
                    "Format/Datatype": "Channel major FP16 format where channel % 8 == 0"
                }
            ],
            "Outputs": [
                {
                    "Name": "Reformatted Input Tensor 1 to {ForeignNode[[ELEMENTWISE]-[aten_ops.add.Tensor]-[/features/9/add_4]]}",
                    "Location": "Device",
                    "Dimensions": [
                        1,
                        64,
                        14,
                        14
                    ],
                    "Format/Datatype": "Channel major FP16 format where channel % 2 == 0"
                }
            ],
            "TacticValue": "0x0000000000000000",
            "StreamId": 0,
            "Metadata": ""
        },
        {
            "Name": "__myl_Add_myl60_0",
            "LayerType": "kgen",
            "Inputs": [
                {
                    "Name": "[ELEMENTWISE]-[aten_ops.add.Tensor]-[/features/8/add_3]_output_add.Tensor",
                    "Dimensions": [
                        1,
                        64,
                        14,
                        14
                    ],
                    "Format/Datatype": "Half"
                },
                {
                    "Name": "Reformatted Input Tensor 1 to {ForeignNode[[ELEMENTWISE]-[aten_ops.add.Tensor]-[/features/9/add_4]]}",
                    "Dimensions": [
                        1,
                        64,
                        14,
                        14
                    ],
                    "Format/Datatype": "Half"
                }
            ],
            "Outputs": [
                {
                    "Name": "[ELEMENTWISE]-[aten_ops.add.Tensor]-[/features/9/add_4]_output_add.Tensor",
                    "Dimensions": [
                        1,
                        64,
                        14,
                        14
                    ],
                    "Format/Datatype": "Half"
                }
            ],
            "TacticName": "__myl_Add_0xc27d4d63807dfd3ab040084dce8f5c3f",
            "StreamId": 0,
            "Metadata": ""
        },
        {
            "Name": "Reformatting CopyNode for Input Tensor 0 to [CONVOLUTION]-[aten_ops.convolution.default]-[/features/10/conv_0/0/convolution_27] + [SCALE]-[aten_ops._native_batch_norm_legit_no_training.default]-[/features/10/conv_0/1/_native_batch_norm_legit_no_training_27]",
            "LayerType": "NoOp",
            "Inputs": [
                {
                    "Name": "[ELEMENTWISE]-[aten_ops.add.Tensor]-[/features/9/add_4]_output_add.Tensor",
                    "Location": "Device",
                    "Dimensions": [
                        1,
                        64,
                        14,
                        14
                    ],
                    "Format/Datatype": "Channel major FP16 format where channel % 2 == 0"
                }
            ],
            "Outputs": [
                {
                    "Name": "Reformatted Input Tensor 0 to [CONVOLUTION]-[aten_ops.convolution.default]-[/features/10/conv_0/0/convolution_27] + [SCALE]-[aten_ops._native_batch_norm_legit_no_training.default]-[/features/10/conv_0/1/_native_batch_norm_legit_no_training_27]",
                    "Location": "Device",
                    "Dimensions": [
                        1,
                        64,
                        14,
                        14
                    ],
                    "Format/Datatype": "Channel major FP16 format where channel % 8 == 0"
                }
            ],
            "TacticValue": "0x0000000000000000",
            "StreamId": 0,
            "Metadata": ""
        },
        {
            "Name": "[CONVOLUTION]-[aten_ops.convolution.default]-[/features/10/conv_0/0/convolution_27] + [SCALE]-[aten_ops._native_batch_norm_legit_no_training.default]-[/features/10/conv_0/1/_native_batch_norm_legit_no_training_27]",
            "LayerType": "CaskConvolution",
            "Inputs": [
                {
                    "Name": "Reformatted Input Tensor 0 to [CONVOLUTION]-[aten_ops.convolution.default]-[/features/10/conv_0/0/convolution_27] + [SCALE]-[aten_ops._native_batch_norm_legit_no_training.default]-[/features/10/conv_0/1/_native_batch_norm_legit_no_training_27]",
                    "Location": "Device",
                    "Dimensions": [
                        1,
                        64,
                        14,
                        14
                    ],
                    "Format/Datatype": "Channel major FP16 format where channel % 8 == 0"
                }
            ],
            "Outputs": [
                {
                    "Name": "(Unnamed Layer* 240) [Scale]_output",
                    "Location": "Device",
                    "Dimensions": [
                        1,
                        384,
                        14,
                        14
                    ],
                    "Format/Datatype": "Channel major FP16 format where channel % 8 == 0"
                }
            ],
            "ParameterType": "Convolution",
            "Kernel": [
                1,
                1
            ],
            "PaddingMode": "kEXPLICIT_ROUND_DOWN",
            "PrePadding": [
                0,
                0
            ],
            "PostPadding": [
                0,
                0
            ],
            "Stride": [
                1,
                1
            ],
            "Dilation": [
                1,
                1
            ],
            "OutMaps": 384,
            "Groups": 1,
            "Weights": {
                "Type": "Half",
                "Count": 24576
            },
            "Bias": {
                "Type": "Half",
                "Count": 384
            },
            "HasBias": 1,
            "HasReLU": 0,
            "HasSparseWeights": 0,
            "HasDynamicFilter": 0,
            "HasDynamicBias": 0,
            "HasResidual": 0,
            "ConvXAsActInputIdx": -1,
            "BiasAsActInputIdx": -1,
            "ResAsActInputIdx": -1,
            "Activation": "NONE",
            "TacticName": "sm80_xmma_fprop_implicit_gemm_indexed_f16f16_f16f16_f16_nhwckrsc_nhwc_tilesize64x64x64_stage4_warpsize2x2x1_g1_tensor16x8x16",
            "TacticValue": "0x4a81ea1e51436a30",
            "StreamId": 0,
            "Metadata": ""
        },
        {
            "Name": "__myl_MaxMinCas_myl63_0",
            "LayerType": "kgen",
            "Inputs": [
                {
                    "Name": "(Unnamed Layer* 240) [Scale]_output",
                    "Dimensions": [
                        1,
                        384,
                        14,
                        14
                    ],
                    "Format/Datatype": "Half"
                }
            ],
            "Outputs": [
                {
                    "Name": "(Unnamed Layer* 250) [Identity]_output",
                    "Dimensions": [
                        1,
                        384,
                        14,
                        14
                    ],
                    "Format/Datatype": "Half"
                }
            ],
            "TacticName": "__myl_MaxMinCas_0x39832a6783b2f2589e929f83d6f52fd9",
            "StreamId": 0,
            "Metadata": ""
        },
        {
            "Name": "[CONVOLUTION]-[aten_ops.convolution.default]-[/features/10/conv_1/0/convolution_28] + [SCALE]-[aten_ops._native_batch_norm_legit_no_training.default]-[/features/10/conv_1/1/_native_batch_norm_legit_no_training_28]",
            "LayerType": "CaskConvolution",
            "Inputs": [
                {
                    "Name": "(Unnamed Layer* 250) [Identity]_output",
                    "Location": "Device",
                    "Dimensions": [
                        1,
                        384,
                        14,
                        14
                    ],
                    "Format/Datatype": "Channel major FP16 format where channel % 8 == 0"
                }
            ],
            "Outputs": [
                {
                    "Name": "(Unnamed Layer* 252) [Scale]_output",
                    "Location": "Device",
                    "Dimensions": [
                        1,
                        384,
                        14,
                        14
                    ],
                    "Format/Datatype": "Channel major FP16 format where channel % 8 == 0"
                }
            ],
            "ParameterType": "Convolution",
            "Kernel": [
                3,
                3
            ],
            "PaddingMode": "kEXPLICIT_ROUND_DOWN",
            "PrePadding": [
                1,
                1
            ],
            "PostPadding": [
                1,
                1
            ],
            "Stride": [
                1,
                1
            ],
            "Dilation": [
                1,
                1
            ],
            "OutMaps": 384,
            "Groups": 384,
            "Weights": {
                "Type": "Half",
                "Count": 3456
            },
            "Bias": {
                "Type": "Half",
                "Count": 384
            },
            "HasBias": 1,
            "HasReLU": 0,
            "HasSparseWeights": 0,
            "HasDynamicFilter": 0,
            "HasDynamicBias": 0,
            "HasResidual": 0,
            "ConvXAsActInputIdx": -1,
            "BiasAsActInputIdx": -1,
            "ResAsActInputIdx": -1,
            "Activation": "NONE",
            "TacticName": "sm50_xmma_convolution_depthwiseHMMA_FP16NHWCx8_TR3_TS3_STRIDEH1_STRIDEW1",
            "TacticValue": "0xf9f6e2e1b0fd88e6",
            "StreamId": 0,
            "Metadata": ""
        },
        {
            "Name": "__myl_MaxMinCas_myl65_0",
            "LayerType": "kgen",
            "Inputs": [
                {
                    "Name": "(Unnamed Layer* 252) [Scale]_output",
                    "Dimensions": [
                        1,
                        384,
                        14,
                        14
                    ],
                    "Format/Datatype": "Half"
                }
            ],
            "Outputs": [
                {
                    "Name": "(Unnamed Layer* 262) [Identity]_output",
                    "Dimensions": [
                        1,
                        384,
                        14,
                        14
                    ],
                    "Format/Datatype": "Half"
                }
            ],
            "TacticName": "__myl_MaxMinCas_0x39832a6783b2f2589e929f83d6f52fd9",
            "StreamId": 0,
            "Metadata": ""
        },
        {
            "Name": "[CONVOLUTION]-[aten_ops.convolution.default]-[/features/10/conv/2/convolution_29] + [SCALE]-[aten_ops._native_batch_norm_legit_no_training.default]-[/features/10/conv/3/_native_batch_norm_legit_no_training_29]",
            "LayerType": "CaskGemmConvolution",
            "Inputs": [
                {
                    "Name": "(Unnamed Layer* 262) [Identity]_output",
                    "Location": "Device",
                    "Dimensions": [
                        1,
                        384,
                        14,
                        14
                    ],
                    "Format/Datatype": "Channel major FP16 format where channel % 8 == 0"
                }
            ],
            "Outputs": [
                {
                    "Name": "(Unnamed Layer* 264) [Scale]_output",
                    "Location": "Device",
                    "Dimensions": [
                        1,
                        64,
                        14,
                        14
                    ],
                    "Format/Datatype": "Channel major FP16 format where channel % 8 == 0"
                }
            ],
            "ParameterType": "Convolution",
            "Kernel": [
                1,
                1
            ],
            "PaddingMode": "kEXPLICIT_ROUND_DOWN",
            "PrePadding": [
                0,
                0
            ],
            "PostPadding": [
                0,
                0
            ],
            "Stride": [
                1,
                1
            ],
            "Dilation": [
                1,
                1
            ],
            "OutMaps": 64,
            "Groups": 1,
            "Weights": {
                "Type": "Half",
                "Count": 24576
            },
            "Bias": {
                "Type": "Half",
                "Count": 64
            },
            "HasBias": 1,
            "HasReLU": 0,
            "HasSparseWeights": 0,
            "HasDynamicFilter": 0,
            "HasDynamicBias": 0,
            "HasResidual": 0,
            "ConvXAsActInputIdx": -1,
            "BiasAsActInputIdx": -1,
            "ResAsActInputIdx": -1,
            "Activation": "NONE",
            "TacticName": "sm80_xmma_gemm_f16f16_f16f16_f16_tn_n_tilesize32x32x64_stage6_warpsize2x2x1_tensor16x8x16",
            "TacticValue": "0x00000000000208d9",
            "StreamId": 0,
            "Metadata": ""
        },
        {
            "Name": "Reformatting CopyNode for Input Tensor 0 to {ForeignNode[[ELEMENTWISE]-[aten_ops.add.Tensor]-[/features/10/add_5]]}",
            "LayerType": "NoOp",
            "Inputs": [
                {
                    "Name": "[ELEMENTWISE]-[aten_ops.add.Tensor]-[/features/9/add_4]_output_add.Tensor",
                    "Location": "Device",
                    "Dimensions": [
                        1,
                        64,
                        14,
                        14
                    ],
                    "Format/Datatype": "Channel major FP16 format where channel % 2 == 0"
                }
            ],
            "Outputs": [
                {
                    "Name": "Reformatted Input Tensor 0 to {ForeignNode[[ELEMENTWISE]-[aten_ops.add.Tensor]-[/features/10/add_5]]}",
                    "Location": "Device",
                    "Dimensions": [
                        1,
                        64,
                        14,
                        14
                    ],
                    "Format/Datatype": "Channel major FP16 format where channel % 4 == 0"
                }
            ],
            "TacticValue": "0x0000000000000000",
            "StreamId": 0,
            "Metadata": ""
        },
        {
            "Name": "Reformatting CopyNode for Input Tensor 1 to {ForeignNode[[ELEMENTWISE]-[aten_ops.add.Tensor]-[/features/10/add_5]]}",
            "LayerType": "NoOp",
            "Inputs": [
                {
                    "Name": "(Unnamed Layer* 264) [Scale]_output",
                    "Location": "Device",
                    "Dimensions": [
                        1,
                        64,
                        14,
                        14
                    ],
                    "Format/Datatype": "Channel major FP16 format where channel % 8 == 0"
                }
            ],
            "Outputs": [
                {
                    "Name": "Reformatted Input Tensor 1 to {ForeignNode[[ELEMENTWISE]-[aten_ops.add.Tensor]-[/features/10/add_5]]}",
                    "Location": "Device",
                    "Dimensions": [
                        1,
                        64,
                        14,
                        14
                    ],
                    "Format/Datatype": "Channel major FP16 format where channel % 4 == 0"
                }
            ],
            "TacticValue": "0x0000000000000000",
            "StreamId": 0,
            "Metadata": ""
        },
        {
            "Name": "__myl_Add_myl69_0",
            "LayerType": "kgen",
            "Inputs": [
                {
                    "Name": "Reformatted Input Tensor 0 to {ForeignNode[[ELEMENTWISE]-[aten_ops.add.Tensor]-[/features/10/add_5]]}",
                    "Dimensions": [
                        1,
                        64,
                        14,
                        14
                    ],
                    "Format/Datatype": "Half"
                },
                {
                    "Name": "Reformatted Input Tensor 1 to {ForeignNode[[ELEMENTWISE]-[aten_ops.add.Tensor]-[/features/10/add_5]]}",
                    "Dimensions": [
                        1,
                        64,
                        14,
                        14
                    ],
                    "Format/Datatype": "Half"
                }
            ],
            "Outputs": [
                {
                    "Name": "[ELEMENTWISE]-[aten_ops.add.Tensor]-[/features/10/add_5]_output_add.Tensor",
                    "Dimensions": [
                        1,
                        64,
                        14,
                        14
                    ],
                    "Format/Datatype": "Half"
                }
            ],
            "TacticName": "__myl_Add_0xc27d4d63807dfd3ab040084dce8f5c3f",
            "StreamId": 0,
            "Metadata": ""
        },
        {
            "Name": "Reformatting CopyNode for Input Tensor 0 to [CONVOLUTION]-[aten_ops.convolution.default]-[/features/11/conv_0/0/convolution_30] + [SCALE]-[aten_ops._native_batch_norm_legit_no_training.default]-[/features/11/conv_0/1/_native_batch_norm_legit_no_training_30]",
            "LayerType": "NoOp",
            "Inputs": [
                {
                    "Name": "[ELEMENTWISE]-[aten_ops.add.Tensor]-[/features/10/add_5]_output_add.Tensor",
                    "Location": "Device",
                    "Dimensions": [
                        1,
                        64,
                        14,
                        14
                    ],
                    "Format/Datatype": "Channel major FP16 format where channel % 4 == 0"
                }
            ],
            "Outputs": [
                {
                    "Name": "Reformatted Input Tensor 0 to [CONVOLUTION]-[aten_ops.convolution.default]-[/features/11/conv_0/0/convolution_30] + [SCALE]-[aten_ops._native_batch_norm_legit_no_training.default]-[/features/11/conv_0/1/_native_batch_norm_legit_no_training_30]",
                    "Location": "Device",
                    "Dimensions": [
                        1,
                        64,
                        14,
                        14
                    ],
                    "Format/Datatype": "Channel major FP16 format where channel % 8 == 0"
                }
            ],
            "TacticValue": "0x0000000000000000",
            "StreamId": 0,
            "Metadata": ""
        },
        {
            "Name": "[CONVOLUTION]-[aten_ops.convolution.default]-[/features/11/conv_0/0/convolution_30] + [SCALE]-[aten_ops._native_batch_norm_legit_no_training.default]-[/features/11/conv_0/1/_native_batch_norm_legit_no_training_30]",
            "LayerType": "CaskConvolution",
            "Inputs": [
                {
                    "Name": "Reformatted Input Tensor 0 to [CONVOLUTION]-[aten_ops.convolution.default]-[/features/11/conv_0/0/convolution_30] + [SCALE]-[aten_ops._native_batch_norm_legit_no_training.default]-[/features/11/conv_0/1/_native_batch_norm_legit_no_training_30]",
                    "Location": "Device",
                    "Dimensions": [
                        1,
                        64,
                        14,
                        14
                    ],
                    "Format/Datatype": "Channel major FP16 format where channel % 8 == 0"
                }
            ],
            "Outputs": [
                {
                    "Name": "(Unnamed Layer* 267) [Scale]_output",
                    "Location": "Device",
                    "Dimensions": [
                        1,
                        384,
                        14,
                        14
                    ],
                    "Format/Datatype": "Channel major FP16 format where channel % 8 == 0"
                }
            ],
            "ParameterType": "Convolution",
            "Kernel": [
                1,
                1
            ],
            "PaddingMode": "kEXPLICIT_ROUND_DOWN",
            "PrePadding": [
                0,
                0
            ],
            "PostPadding": [
                0,
                0
            ],
            "Stride": [
                1,
                1
            ],
            "Dilation": [
                1,
                1
            ],
            "OutMaps": 384,
            "Groups": 1,
            "Weights": {
                "Type": "Half",
                "Count": 24576
            },
            "Bias": {
                "Type": "Half",
                "Count": 384
            },
            "HasBias": 1,
            "HasReLU": 0,
            "HasSparseWeights": 0,
            "HasDynamicFilter": 0,
            "HasDynamicBias": 0,
            "HasResidual": 0,
            "ConvXAsActInputIdx": -1,
            "BiasAsActInputIdx": -1,
            "ResAsActInputIdx": -1,
            "Activation": "NONE",
            "TacticName": "sm80_xmma_fprop_implicit_gemm_indexed_f16f16_f16f16_f16_nhwckrsc_nhwc_tilesize64x64x64_stage4_warpsize2x2x1_g1_tensor16x8x16",
            "TacticValue": "0x4a81ea1e51436a30",
            "StreamId": 0,
            "Metadata": ""
        },
        {
            "Name": "__myl_MaxMinCas_myl72_0",
            "LayerType": "kgen",
            "Inputs": [
                {
                    "Name": "(Unnamed Layer* 267) [Scale]_output",
                    "Dimensions": [
                        1,
                        384,
                        14,
                        14
                    ],
                    "Format/Datatype": "Half"
                }
            ],
            "Outputs": [
                {
                    "Name": "(Unnamed Layer* 277) [Identity]_output",
                    "Dimensions": [
                        1,
                        384,
                        14,
                        14
                    ],
                    "Format/Datatype": "Half"
                }
            ],
            "TacticName": "__myl_MaxMinCas_0x39832a6783b2f2589e929f83d6f52fd9",
            "StreamId": 0,
            "Metadata": ""
        },
        {
            "Name": "[CONVOLUTION]-[aten_ops.convolution.default]-[/features/11/conv_1/0/convolution_31] + [SCALE]-[aten_ops._native_batch_norm_legit_no_training.default]-[/features/11/conv_1/1/_native_batch_norm_legit_no_training_31]",
            "LayerType": "CaskConvolution",
            "Inputs": [
                {
                    "Name": "(Unnamed Layer* 277) [Identity]_output",
                    "Location": "Device",
                    "Dimensions": [
                        1,
                        384,
                        14,
                        14
                    ],
                    "Format/Datatype": "Channel major FP16 format where channel % 8 == 0"
                }
            ],
            "Outputs": [
                {
                    "Name": "(Unnamed Layer* 279) [Scale]_output",
                    "Location": "Device",
                    "Dimensions": [
                        1,
                        384,
                        14,
                        14
                    ],
                    "Format/Datatype": "Channel major FP16 format where channel % 8 == 0"
                }
            ],
            "ParameterType": "Convolution",
            "Kernel": [
                3,
                3
            ],
            "PaddingMode": "kEXPLICIT_ROUND_DOWN",
            "PrePadding": [
                1,
                1
            ],
            "PostPadding": [
                1,
                1
            ],
            "Stride": [
                1,
                1
            ],
            "Dilation": [
                1,
                1
            ],
            "OutMaps": 384,
            "Groups": 384,
            "Weights": {
                "Type": "Half",
                "Count": 3456
            },
            "Bias": {
                "Type": "Half",
                "Count": 384
            },
            "HasBias": 1,
            "HasReLU": 0,
            "HasSparseWeights": 0,
            "HasDynamicFilter": 0,
            "HasDynamicBias": 0,
            "HasResidual": 0,
            "ConvXAsActInputIdx": -1,
            "BiasAsActInputIdx": -1,
            "ResAsActInputIdx": -1,
            "Activation": "NONE",
            "TacticName": "sm50_xmma_convolution_depthwiseHMMA_FP16NHWCx8_TR3_TS3_STRIDEH1_STRIDEW1",
            "TacticValue": "0xf9f6e2e1b0fd88e6",
            "StreamId": 0,
            "Metadata": ""
        },
        {
            "Name": "__myl_MaxMinCas_myl74_0",
            "LayerType": "kgen",
            "Inputs": [
                {
                    "Name": "(Unnamed Layer* 279) [Scale]_output",
                    "Dimensions": [
                        1,
                        384,
                        14,
                        14
                    ],
                    "Format/Datatype": "Half"
                }
            ],
            "Outputs": [
                {
                    "Name": "(Unnamed Layer* 289) [Identity]_output",
                    "Dimensions": [
                        1,
                        384,
                        14,
                        14
                    ],
                    "Format/Datatype": "Half"
                }
            ],
            "TacticName": "__myl_MaxMinCas_0x39832a6783b2f2589e929f83d6f52fd9",
            "StreamId": 0,
            "Metadata": ""
        },
        {
            "Name": "[CONVOLUTION]-[aten_ops.convolution.default]-[/features/11/conv/2/convolution_32] + [SCALE]-[aten_ops._native_batch_norm_legit_no_training.default]-[/features/11/conv/3/_native_batch_norm_legit_no_training_32]",
            "LayerType": "CaskGemmConvolution",
            "Inputs": [
                {
                    "Name": "(Unnamed Layer* 289) [Identity]_output",
                    "Location": "Device",
                    "Dimensions": [
                        1,
                        384,
                        14,
                        14
                    ],
                    "Format/Datatype": "Channel major FP16 format where channel % 8 == 0"
                }
            ],
            "Outputs": [
                {
                    "Name": "(Unnamed Layer* 291) [Scale]_output",
                    "Location": "Device",
                    "Dimensions": [
                        1,
                        96,
                        14,
                        14
                    ],
                    "Format/Datatype": "Channel major FP16 format where channel % 8 == 0"
                }
            ],
            "ParameterType": "Convolution",
            "Kernel": [
                1,
                1
            ],
            "PaddingMode": "kEXPLICIT_ROUND_DOWN",
            "PrePadding": [
                0,
                0
            ],
            "PostPadding": [
                0,
                0
            ],
            "Stride": [
                1,
                1
            ],
            "Dilation": [
                1,
                1
            ],
            "OutMaps": 96,
            "Groups": 1,
            "Weights": {
                "Type": "Half",
                "Count": 36864
            },
            "Bias": {
                "Type": "Half",
                "Count": 96
            },
            "HasBias": 1,
            "HasReLU": 0,
            "HasSparseWeights": 0,
            "HasDynamicFilter": 0,
            "HasDynamicBias": 0,
            "HasResidual": 0,
            "ConvXAsActInputIdx": -1,
            "BiasAsActInputIdx": -1,
            "ResAsActInputIdx": -1,
            "Activation": "NONE",
            "TacticName": "sm80_xmma_gemm_f16f16_f16f16_f16_tn_n_tilesize32x32x64_stage6_warpsize2x2x1_tensor16x8x16",
            "TacticValue": "0x00000000000208d9",
            "StreamId": 0,
            "Metadata": ""
        },
        {
            "Name": "[CONVOLUTION]-[aten_ops.convolution.default]-[/features/12/conv_0/0/convolution_33] + [SCALE]-[aten_ops._native_batch_norm_legit_no_training.default]-[/features/12/conv_0/1/_native_batch_norm_legit_no_training_33]",
            "LayerType": "CaskGemmConvolution",
            "Inputs": [
                {
                    "Name": "(Unnamed Layer* 291) [Scale]_output",
                    "Location": "Device",
                    "Dimensions": [
                        1,
                        96,
                        14,
                        14
                    ],
                    "Format/Datatype": "Channel major FP16 format where channel % 8 == 0"
                }
            ],
            "Outputs": [
                {
                    "Name": "(Unnamed Layer* 293) [Scale]_output",
                    "Location": "Device",
                    "Dimensions": [
                        1,
                        576,
                        14,
                        14
                    ],
                    "Format/Datatype": "Channel major FP16 format where channel % 8 == 0"
                }
            ],
            "ParameterType": "Convolution",
            "Kernel": [
                1,
                1
            ],
            "PaddingMode": "kEXPLICIT_ROUND_DOWN",
            "PrePadding": [
                0,
                0
            ],
            "PostPadding": [
                0,
                0
            ],
            "Stride": [
                1,
                1
            ],
            "Dilation": [
                1,
                1
            ],
            "OutMaps": 576,
            "Groups": 1,
            "Weights": {
                "Type": "Half",
                "Count": 55296
            },
            "Bias": {
                "Type": "Half",
                "Count": 576
            },
            "HasBias": 1,
            "HasReLU": 0,
            "HasSparseWeights": 0,
            "HasDynamicFilter": 0,
            "HasDynamicBias": 0,
            "HasResidual": 0,
            "ConvXAsActInputIdx": -1,
            "BiasAsActInputIdx": -1,
            "ResAsActInputIdx": -1,
            "Activation": "NONE",
            "TacticName": "sm80_xmma_gemm_f16f16_f16f16_f16_tn_n_tilesize64x128x32_stage5_warpsize2x2x1_tensor16x8x16",
            "TacticValue": "0x0000000000020808",
            "StreamId": 0,
            "Metadata": ""
        },
        {
            "Name": "__myl_MaxMinCas_myl77_0",
            "LayerType": "kgen",
            "Inputs": [
                {
                    "Name": "(Unnamed Layer* 293) [Scale]_output",
                    "Dimensions": [
                        1,
                        576,
                        14,
                        14
                    ],
                    "Format/Datatype": "Half"
                }
            ],
            "Outputs": [
                {
                    "Name": "(Unnamed Layer* 303) [Identity]_output",
                    "Dimensions": [
                        1,
                        576,
                        14,
                        14
                    ],
                    "Format/Datatype": "Half"
                }
            ],
            "TacticName": "__myl_MaxMinCas_0x204d9a96fdc43daddef05ee532585163",
            "StreamId": 0,
            "Metadata": ""
        },
        {
            "Name": "[CONVOLUTION]-[aten_ops.convolution.default]-[/features/12/conv_1/0/convolution_34] + [SCALE]-[aten_ops._native_batch_norm_legit_no_training.default]-[/features/12/conv_1/1/_native_batch_norm_legit_no_training_34]",
            "LayerType": "CaskConvolution",
            "Inputs": [
                {
                    "Name": "(Unnamed Layer* 303) [Identity]_output",
                    "Location": "Device",
                    "Dimensions": [
                        1,
                        576,
                        14,
                        14
                    ],
                    "Format/Datatype": "Channel major FP16 format where channel % 8 == 0"
                }
            ],
            "Outputs": [
                {
                    "Name": "(Unnamed Layer* 305) [Scale]_output",
                    "Location": "Device",
                    "Dimensions": [
                        1,
                        576,
                        14,
                        14
                    ],
                    "Format/Datatype": "Channel major FP16 format where channel % 8 == 0"
                }
            ],
            "ParameterType": "Convolution",
            "Kernel": [
                3,
                3
            ],
            "PaddingMode": "kEXPLICIT_ROUND_DOWN",
            "PrePadding": [
                1,
                1
            ],
            "PostPadding": [
                1,
                1
            ],
            "Stride": [
                1,
                1
            ],
            "Dilation": [
                1,
                1
            ],
            "OutMaps": 576,
            "Groups": 576,
            "Weights": {
                "Type": "Half",
                "Count": 5184
            },
            "Bias": {
                "Type": "Half",
                "Count": 576
            },
            "HasBias": 1,
            "HasReLU": 0,
            "HasSparseWeights": 0,
            "HasDynamicFilter": 0,
            "HasDynamicBias": 0,
            "HasResidual": 0,
            "ConvXAsActInputIdx": -1,
            "BiasAsActInputIdx": -1,
            "ResAsActInputIdx": -1,
            "Activation": "NONE",
            "TacticName": "sm50_xmma_convolution_depthwiseHMMA_FP16NHWCx8_TR3_TS3_STRIDEH1_STRIDEW1",
            "TacticValue": "0xf9f6e2e1b0fd88e6",
            "StreamId": 0,
            "Metadata": ""
        },
        {
            "Name": "__myl_MaxMinCas_myl79_0",
            "LayerType": "kgen",
            "Inputs": [
                {
                    "Name": "(Unnamed Layer* 305) [Scale]_output",
                    "Dimensions": [
                        1,
                        576,
                        14,
                        14
                    ],
                    "Format/Datatype": "Half"
                }
            ],
            "Outputs": [
                {
                    "Name": "(Unnamed Layer* 315) [Identity]_output",
                    "Dimensions": [
                        1,
                        576,
                        14,
                        14
                    ],
                    "Format/Datatype": "Half"
                }
            ],
            "TacticName": "__myl_MaxMinCas_0x204d9a96fdc43daddef05ee532585163",
            "StreamId": 0,
            "Metadata": ""
        },
        {
            "Name": "[CONVOLUTION]-[aten_ops.convolution.default]-[/features/12/conv/2/convolution_35] + [SCALE]-[aten_ops._native_batch_norm_legit_no_training.default]-[/features/12/conv/3/_native_batch_norm_legit_no_training_35]",
            "LayerType": "CaskGemmConvolution",
            "Inputs": [
                {
                    "Name": "(Unnamed Layer* 315) [Identity]_output",
                    "Location": "Device",
                    "Dimensions": [
                        1,
                        576,
                        14,
                        14
                    ],
                    "Format/Datatype": "Channel major FP16 format where channel % 8 == 0"
                }
            ],
            "Outputs": [
                {
                    "Name": "(Unnamed Layer* 317) [Scale]_output",
                    "Location": "Device",
                    "Dimensions": [
                        1,
                        96,
                        14,
                        14
                    ],
                    "Format/Datatype": "Channel major FP16 format where channel % 8 == 0"
                }
            ],
            "ParameterType": "Convolution",
            "Kernel": [
                1,
                1
            ],
            "PaddingMode": "kEXPLICIT_ROUND_DOWN",
            "PrePadding": [
                0,
                0
            ],
            "PostPadding": [
                0,
                0
            ],
            "Stride": [
                1,
                1
            ],
            "Dilation": [
                1,
                1
            ],
            "OutMaps": 96,
            "Groups": 1,
            "Weights": {
                "Type": "Half",
                "Count": 55296
            },
            "Bias": {
                "Type": "Half",
                "Count": 96
            },
            "HasBias": 1,
            "HasReLU": 0,
            "HasSparseWeights": 0,
            "HasDynamicFilter": 0,
            "HasDynamicBias": 0,
            "HasResidual": 0,
            "ConvXAsActInputIdx": -1,
            "BiasAsActInputIdx": -1,
            "ResAsActInputIdx": -1,
            "Activation": "NONE",
            "TacticName": "sm80_xmma_gemm_f16f16_f16f16_f16_tn_n_tilesize32x32x64_stage6_warpsize2x2x1_tensor16x8x16",
            "TacticValue": "0x00000000000208d9",
            "StreamId": 0,
            "Metadata": ""
        },
        {
            "Name": "Reformatting CopyNode for Input Tensor 0 to {ForeignNode[[ELEMENTWISE]-[aten_ops.add.Tensor]-[/features/12/add_6]]}",
            "LayerType": "NoOp",
            "Inputs": [
                {
                    "Name": "(Unnamed Layer* 291) [Scale]_output",
                    "Location": "Device",
                    "Dimensions": [
                        1,
                        96,
                        14,
                        14
                    ],
                    "Format/Datatype": "Channel major FP16 format where channel % 8 == 0"
                }
            ],
            "Outputs": [
                {
                    "Name": "Reformatted Input Tensor 0 to {ForeignNode[[ELEMENTWISE]-[aten_ops.add.Tensor]-[/features/12/add_6]]}",
                    "Location": "Device",
                    "Dimensions": [
                        1,
                        96,
                        14,
                        14
                    ],
                    "Format/Datatype": "Channel major FP16 format where channel % 4 == 0"
                }
            ],
            "TacticValue": "0x0000000000000000",
            "StreamId": 0,
            "Metadata": ""
        },
        {
            "Name": "Reformatting CopyNode for Input Tensor 1 to {ForeignNode[[ELEMENTWISE]-[aten_ops.add.Tensor]-[/features/12/add_6]]}",
            "LayerType": "NoOp",
            "Inputs": [
                {
                    "Name": "(Unnamed Layer* 317) [Scale]_output",
                    "Location": "Device",
                    "Dimensions": [
                        1,
                        96,
                        14,
                        14
                    ],
                    "Format/Datatype": "Channel major FP16 format where channel % 8 == 0"
                }
            ],
            "Outputs": [
                {
                    "Name": "Reformatted Input Tensor 1 to {ForeignNode[[ELEMENTWISE]-[aten_ops.add.Tensor]-[/features/12/add_6]]}",
                    "Location": "Device",
                    "Dimensions": [
                        1,
                        96,
                        14,
                        14
                    ],
                    "Format/Datatype": "Channel major FP16 format where channel % 4 == 0"
                }
            ],
            "TacticValue": "0x0000000000000000",
            "StreamId": 0,
            "Metadata": ""
        },
        {
            "Name": "__myl_Add_myl83_0",
            "LayerType": "kgen",
            "Inputs": [
                {
                    "Name": "Reformatted Input Tensor 0 to {ForeignNode[[ELEMENTWISE]-[aten_ops.add.Tensor]-[/features/12/add_6]]}",
                    "Dimensions": [
                        1,
                        96,
                        14,
                        14
                    ],
                    "Format/Datatype": "Half"
                },
                {
                    "Name": "Reformatted Input Tensor 1 to {ForeignNode[[ELEMENTWISE]-[aten_ops.add.Tensor]-[/features/12/add_6]]}",
                    "Dimensions": [
                        1,
                        96,
                        14,
                        14
                    ],
                    "Format/Datatype": "Half"
                }
            ],
            "Outputs": [
                {
                    "Name": "Reformatted Output Tensor 0 to {ForeignNode[[ELEMENTWISE]-[aten_ops.add.Tensor]-[/features/12/add_6]]}",
                    "Dimensions": [
                        1,
                        96,
                        14,
                        14
                    ],
                    "Format/Datatype": "Half"
                }
            ],
            "TacticName": "__myl_Add_0xc313697fc12e221861c543ffb2624e0f",
            "StreamId": 0,
            "Metadata": ""
        },
        {
            "Name": "Reformatting CopyNode for Output Tensor 0 to {ForeignNode[[ELEMENTWISE]-[aten_ops.add.Tensor]-[/features/12/add_6]]}",
            "LayerType": "NoOp",
            "Inputs": [
                {
                    "Name": "Reformatted Output Tensor 0 to {ForeignNode[[ELEMENTWISE]-[aten_ops.add.Tensor]-[/features/12/add_6]]}",
                    "Location": "Device",
                    "Dimensions": [
                        1,
                        96,
                        14,
                        14
                    ],
                    "Format/Datatype": "Channel major FP16 format where channel % 4 == 0"
                }
            ],
            "Outputs": [
                {
                    "Name": "[ELEMENTWISE]-[aten_ops.add.Tensor]-[/features/12/add_6]_output_add.Tensor",
                    "Location": "Device",
                    "Dimensions": [
                        1,
                        96,
                        14,
                        14
                    ],
                    "Format/Datatype": "Channel major FP16 format where channel % 8 == 0"
                }
            ],
            "TacticValue": "0x0000000000000000",
            "StreamId": 0,
            "Metadata": ""
        },
        {
            "Name": "[CONVOLUTION]-[aten_ops.convolution.default]-[/features/13/conv_0/0/convolution_36] + [SCALE]-[aten_ops._native_batch_norm_legit_no_training.default]-[/features/13/conv_0/1/_native_batch_norm_legit_no_training_36]",
            "LayerType": "CaskGemmConvolution",
            "Inputs": [
                {
                    "Name": "[ELEMENTWISE]-[aten_ops.add.Tensor]-[/features/12/add_6]_output_add.Tensor",
                    "Location": "Device",
                    "Dimensions": [
                        1,
                        96,
                        14,
                        14
                    ],
                    "Format/Datatype": "Channel major FP16 format where channel % 8 == 0"
                }
            ],
            "Outputs": [
                {
                    "Name": "(Unnamed Layer* 320) [Scale]_output",
                    "Location": "Device",
                    "Dimensions": [
                        1,
                        576,
                        14,
                        14
                    ],
                    "Format/Datatype": "Channel major FP16 format where channel % 8 == 0"
                }
            ],
            "ParameterType": "Convolution",
            "Kernel": [
                1,
                1
            ],
            "PaddingMode": "kEXPLICIT_ROUND_DOWN",
            "PrePadding": [
                0,
                0
            ],
            "PostPadding": [
                0,
                0
            ],
            "Stride": [
                1,
                1
            ],
            "Dilation": [
                1,
                1
            ],
            "OutMaps": 576,
            "Groups": 1,
            "Weights": {
                "Type": "Half",
                "Count": 55296
            },
            "Bias": {
…
            "TacticValue": "0x4a741be05296db88",
            "StreamId": 0,
            "Metadata": ""
        },
        {
            "Name": "__myl_MaxMinCas_myl94_0",
            "LayerType": "kgen",
            "Inputs": [
                {
                    "Name": "(Unnamed Layer* 359) [Scale]_output",
                    "Dimensions": [
                        1,
                        576,
                        7,
                        7
                    ],
                    "Format/Datatype": "Half"
                }
            ],
            "Outputs": [
                {
                    "Name": "(Unnamed Layer* 369) [Identity]_output",
                    "Dimensions": [
                        1,
                        576,
                        7,
                        7
                    ],
                    "Format/Datatype": "Half"
                }
            ],
            "TacticName": "__myl_MaxMinCas_0x4900080eccba271ff60bb52ca7585488",
            "StreamId": 0,
            "Metadata": ""
        },
        {
            "Name": "[CONVOLUTION]-[aten_ops.convolution.default]-[/features/14/conv/2/convolution_41] + [SCALE]-[aten_ops._native_batch_norm_legit_no_training.default]-[/features/14/conv/3/_native_batch_norm_legit_no_training_41]",
            "LayerType": "CaskGemmConvolution",
            "Inputs": [
                {
                    "Name": "(Unnamed Layer* 369) [Identity]_output",
                    "Location": "Device",
                    "Dimensions": [
                        1,
                        576,
                        7,
                        7
                    ],
                    "Format/Datatype": "Channel major FP16 format where channel % 8 == 0"
                }
            ],
            "Outputs": [
                {
                    "Name": "(Unnamed Layer* 371) [Scale]_output",
                    "Location": "Device",
                    "Dimensions": [
                        1,
                        160,
                        7,
                        7
                    ],
                    "Format/Datatype": "Channel major FP16 format where channel % 8 == 0"
                }
            ],
            "ParameterType": "Convolution",
            "Kernel": [
                1,
                1
            ],
            "PaddingMode": "kEXPLICIT_ROUND_DOWN",
            "PrePadding": [
                0,
                0
            ],
            "PostPadding": [
                0,
                0
            ],
            "Stride": [
                1,
                1
            ],
            "Dilation": [
                1,
                1
            ],
            "OutMaps": 160,
            "Groups": 1,
            "Weights": {
                "Type": "Half",
                "Count": 92160
            },
            "Bias": {
                "Type": "Half",
                "Count": 160
            },
            "HasBias": 1,
            "HasReLU": 0,
            "HasSparseWeights": 0,
            "HasDynamicFilter": 0,
            "HasDynamicBias": 0,
            "HasResidual": 0,
            "ConvXAsActInputIdx": -1,
            "BiasAsActInputIdx": -1,
            "ResAsActInputIdx": -1,
            "Activation": "NONE",
            "TacticName": "sm80_xmma_gemm_f16f16_f16f16_f16_tn_n_tilesize32x32x64_stage6_warpsize2x2x1_tensor16x8x16",
            "TacticValue": "0x00000000000208d9",
            "StreamId": 0,
            "Metadata": ""
        },
        {
            "Name": "[CONVOLUTION]-[aten_ops.convolution.default]-[/features/15/conv_0/0/convolution_42] + [SCALE]-[aten_ops._native_batch_norm_legit_no_training.default]-[/features/15/conv_0/1/_native_batch_norm_legit_no_training_42]",
            "LayerType": "CaskGemmConvolution",
            "Inputs": [
                {
                    "Name": "(Unnamed Layer* 371) [Scale]_output",
                    "Location": "Device",
                    "Dimensions": [
                        1,
                        160,
                        7,
                        7
                    ],
                    "Format/Datatype": "Channel major FP16 format where channel % 8 == 0"
                }
            ],
            "Outputs": [
                {
                    "Name": "(Unnamed Layer* 373) [Scale]_output",
                    "Location": "Device",
                    "Dimensions": [
                        1,
                        960,
                        7,
                        7
                    ],
                    "Format/Datatype": "Channel major FP16 format where channel % 8 == 0"
                }
            ],
            "ParameterType": "Convolution",
            "Kernel": [
                1,
                1
            ],
            "PaddingMode": "kEXPLICIT_ROUND_DOWN",
            "PrePadding": [
                0,
                0
            ],
            "PostPadding": [
                0,
                0
            ],
            "Stride": [
                1,
                1
            ],
            "Dilation": [
                1,
                1
            ],
            "OutMaps": 960,
            "Groups": 1,
            "Weights": {
                "Type": "Half",
                "Count": 153600
            },
            "Bias": {
                "Type": "Half",
                "Count": 960
            },
            "HasBias": 1,
            "HasReLU": 0,
            "HasSparseWeights": 0,
            "HasDynamicFilter": 0,
            "HasDynamicBias": 0,
            "HasResidual": 0,
            "ConvXAsActInputIdx": -1,
            "BiasAsActInputIdx": -1,
            "ResAsActInputIdx": -1,
            "Activation": "NONE",
            "TacticName": "sm80_xmma_gemm_f16f16_f16f16_f16_nn_n_tilesize64x32x64_stage5_warpsize2x2x1_tensor16x8x16",
            "TacticValue": "0x000000000002080f",
            "StreamId": 0,
            "Metadata": ""
        },
        {
            "Name": "__myl_MaxMinCas_myl97_0",
            "LayerType": "kgen",
            "Inputs": [
                {
                    "Name": "(Unnamed Layer* 373) [Scale]_output",
                    "Dimensions": [
                        1,
                        960,
                        7,
                        7
                    ],
                    "Format/Datatype": "Half"
                }
            ],
            "Outputs": [
                {
                    "Name": "(Unnamed Layer* 383) [Identity]_output",
                    "Dimensions": [
                        1,
                        960,
                        7,
                        7
                    ],
                    "Format/Datatype": "Half"
                }
            ],
            "TacticName": "__myl_MaxMinCas_0x04e72d81267e49f2fb43c5e7a6a463bf",
            "StreamId": 0,
            "Metadata": ""
        },
        {
            "Name": "[CONVOLUTION]-[aten_ops.convolution.default]-[/features/15/conv_1/0/convolution_43] + [SCALE]-[aten_ops._native_batch_norm_legit_no_training.default]-[/features/15/conv_1/1/_native_batch_norm_legit_no_training_43]",
            "LayerType": "CaskConvolution",
            "Inputs": [
                {
                    "Name": "(Unnamed Layer* 383) [Identity]_output",
                    "Location": "Device",
                    "Dimensions": [
                        1,
                        960,
                        7,
                        7
                    ],
                    "Format/Datatype": "Channel major FP16 format where channel % 8 == 0"
                }
            ],
            "Outputs": [
                {
                    "Name": "(Unnamed Layer* 385) [Scale]_output",
                    "Location": "Device",
                    "Dimensions": [
                        1,
                        960,
                        7,
                        7
                    ],
                    "Format/Datatype": "Channel major FP16 format where channel % 8 == 0"
                }
            ],
            "ParameterType": "Convolution",
            "Kernel": [
                3,
                3
            ],
            "PaddingMode": "kEXPLICIT_ROUND_DOWN",
            "PrePadding": [
                1,
                1
            ],
            "PostPadding": [
                1,
                1
            ],
            "Stride": [
                1,
                1
            ],
            "Dilation": [
                1,
                1
            ],
            "OutMaps": 960,
            "Groups": 960,
            "Weights": {
                "Type": "Half",
                "Count": 8640
            },
            "Bias": {
                "Type": "Half",
                "Count": 960
            },
            "HasBias": 1,
            "HasReLU": 0,
            "HasSparseWeights": 0,
            "HasDynamicFilter": 0,
            "HasDynamicBias": 0,
            "HasResidual": 0,
            "ConvXAsActInputIdx": -1,
            "BiasAsActInputIdx": -1,
            "ResAsActInputIdx": -1,
            "Activation": "NONE",
            "TacticName": "sm50_xmma_convolution_depthwiseHMMA_FP16NHWCx8_TR3_TS3_STRIDEH1_STRIDEW1",
            "TacticValue": "0xf9f6e2e1b0fd88e6",
            "StreamId": 0,
            "Metadata": ""
        },
        {
            "Name": "__myl_MaxMinCas_myl99_0",
            "LayerType": "kgen",
            "Inputs": [
                {
                    "Name": "(Unnamed Layer* 385) [Scale]_output",
                    "Dimensions": [
                        1,
                        960,
                        7,
                        7
                    ],
                    "Format/Datatype": "Half"
                }
            ],
            "Outputs": [
                {
                    "Name": "(Unnamed Layer* 395) [Identity]_output",
                    "Dimensions": [
                        1,
                        960,
                        7,
                        7
                    ],
                    "Format/Datatype": "Half"
                }
            ],
            "TacticName": "__myl_MaxMinCas_0x04e72d81267e49f2fb43c5e7a6a463bf",
            "StreamId": 0,
            "Metadata": ""
        },
        {
            "Name": "[CONVOLUTION]-[aten_ops.convolution.default]-[/features/15/conv/2/convolution_44] + [SCALE]-[aten_ops._native_batch_norm_legit_no_training.default]-[/features/15/conv/3/_native_batch_norm_legit_no_training_44]",
            "LayerType": "CaskGemmConvolution",
            "Inputs": [
                {
                    "Name": "(Unnamed Layer* 395) [Identity]_output",
                    "Location": "Device",
                    "Dimensions": [
                        1,
                        960,
                        7,
                        7
                    ],
                    "Format/Datatype": "Channel major FP16 format where channel % 8 == 0"
                }
            ],
            "Outputs": [
                {
                    "Name": "(Unnamed Layer* 397) [Scale]_output",
                    "Location": "Device",
                    "Dimensions": [
                        1,
                        160,
                        7,
                        7
                    ],
                    "Format/Datatype": "Channel major FP16 format where channel % 8 == 0"
                }
            ],
            "ParameterType": "Convolution",
            "Kernel": [
                1,
                1
            ],
            "PaddingMode": "kEXPLICIT_ROUND_DOWN",
            "PrePadding": [
                0,
                0
            ],
            "PostPadding": [
                0,
                0
            ],
            "Stride": [
                1,
                1
            ],
            "Dilation": [
                1,
                1
            ],
            "OutMaps": 160,
            "Groups": 1,
            "Weights": {
                "Type": "Half",
                "Count": 153600
            },
            "Bias": {
                "Type": "Half",
                "Count": 160
            },
            "HasBias": 1,
            "HasReLU": 0,
            "HasSparseWeights": 0,
            "HasDynamicFilter": 0,
            "HasDynamicBias": 0,
            "HasResidual": 0,
            "ConvXAsActInputIdx": -1,
            "BiasAsActInputIdx": -1,
            "ResAsActInputIdx": -1,
            "Activation": "NONE",
            "TacticName": "sm80_xmma_gemm_f16f16_f16f16_f16_tn_n_tilesize32x32x64_stage6_warpsize2x2x1_tensor16x8x16",
            "TacticValue": "0x00000000000208d9",
            "StreamId": 0,
            "Metadata": ""
        },
        {
            "Name": "Reformatting CopyNode for Input Tensor 0 to {ForeignNode[[ELEMENTWISE]-[aten_ops.add.Tensor]-[/features/15/add_8]]}",
            "LayerType": "NoOp",
            "Inputs": [
                {
                    "Name": "(Unnamed Layer* 371) [Scale]_output",
                    "Location": "Device",
                    "Dimensions": [
                        1,
                        160,
                        7,
                        7
                    ],
                    "Format/Datatype": "Channel major FP16 format where channel % 8 == 0"
                }
            ],
            "Outputs": [
                {
                    "Name": "Reformatted Input Tensor 0 to {ForeignNode[[ELEMENTWISE]-[aten_ops.add.Tensor]-[/features/15/add_8]]}",
                    "Location": "Device",
                    "Dimensions": [
                        1,
                        160,
                        7,
                        7
                    ],
                    "Format/Datatype": "Channel major FP16 format where channel % 4 == 0"
                }
            ],
            "TacticValue": "0x0000000000000000",
            "StreamId": 0,
            "Metadata": ""
        },
        {
            "Name": "Reformatting CopyNode for Input Tensor 1 to {ForeignNode[[ELEMENTWISE]-[aten_ops.add.Tensor]-[/features/15/add_8]]}",
            "LayerType": "NoOp",
            "Inputs": [
                {
                    "Name": "(Unnamed Layer* 397) [Scale]_output",
                    "Location": "Device",
                    "Dimensions": [
                        1,
                        160,
                        7,
                        7
                    ],
                    "Format/Datatype": "Channel major FP16 format where channel % 8 == 0"
                }
            ],
            "Outputs": [
                {
                    "Name": "Reformatted Input Tensor 1 to {ForeignNode[[ELEMENTWISE]-[aten_ops.add.Tensor]-[/features/15/add_8]]}",
                    "Location": "Device",
                    "Dimensions": [
                        1,
                        160,
                        7,
                        7
                    ],
                    "Format/Datatype": "Channel major FP16 format where channel % 4 == 0"
                }
            ],
            "TacticValue": "0x0000000000000000",
            "StreamId": 0,
            "Metadata": ""
        },
        {
            "Name": "__myl_Add_myl103_0",
            "LayerType": "kgen",
            "Inputs": [
                {
                    "Name": "Reformatted Input Tensor 0 to {ForeignNode[[ELEMENTWISE]-[aten_ops.add.Tensor]-[/features/15/add_8]]}",
                    "Dimensions": [
                        1,
                        160,
                        7,
                        7
                    ],
                    "Format/Datatype": "Half"
                },
                {
                    "Name": "Reformatted Input Tensor 1 to {ForeignNode[[ELEMENTWISE]-[aten_ops.add.Tensor]-[/features/15/add_8]]}",
                    "Dimensions": [
                        1,
                        160,
                        7,
                        7
                    ],
                    "Format/Datatype": "Half"
                }
            ],
            "Outputs": [
                {
                    "Name": "Reformatted Output Tensor 0 to {ForeignNode[[ELEMENTWISE]-[aten_ops.add.Tensor]-[/features/15/add_8]]}",
                    "Dimensions": [
                        1,
                        160,
                        7,
                        7
                    ],
                    "Format/Datatype": "Half"
                }
            ],
            "TacticName": "__myl_Add_0x40caea46f4cd889d3a647596f153eb1e",
            "StreamId": 0,
            "Metadata": ""
        },
        {
            "Name": "Reformatting CopyNode for Output Tensor 0 to {ForeignNode[[ELEMENTWISE]-[aten_ops.add.Tensor]-[/features/15/add_8]]}",
            "LayerType": "NoOp",
            "Inputs": [
                {
                    "Name": "Reformatted Output Tensor 0 to {ForeignNode[[ELEMENTWISE]-[aten_ops.add.Tensor]-[/features/15/add_8]]}",
                    "Location": "Device",
                    "Dimensions": [
                        1,
                        160,
                        7,
                        7
                    ],
                    "Format/Datatype": "Channel major FP16 format where channel % 4 == 0"
                }
            ],
            "Outputs": [
                {
                    "Name": "[ELEMENTWISE]-[aten_ops.add.Tensor]-[/features/15/add_8]_output_add.Tensor",
                    "Location": "Device",
                    "Dimensions": [
                        1,
                        160,
                        7,
                        7
                    ],
                    "Format/Datatype": "Channel major FP16 format where channel % 2 == 0"
                }
            ],
            "TacticValue": "0x0000000000000000",
            "StreamId": 0,
            "Metadata": ""
        },
        {
            "Name": "Reformatting CopyNode for Input Tensor 0 to [CONVOLUTION]-[aten_ops.convolution.default]-[/features/16/conv_0/0/convolution_45] + [SCALE]-[aten_ops._native_batch_norm_legit_no_training.default]-[/features/16/conv_0/1/_native_batch_norm_legit_no_training_45]",
            "LayerType": "NoOp",
            "Inputs": [
                {
                    "Name": "[ELEMENTWISE]-[aten_ops.add.Tensor]-[/features/15/add_8]_output_add.Tensor",
                    "Location": "Device",
                    "Dimensions": [
                        1,
                        160,
                        7,
                        7
                    ],
                    "Format/Datatype": "Channel major FP16 format where channel % 2 == 0"
                }
            ],
            "Outputs": [
                {
                    "Name": "Reformatted Input Tensor 0 to [CONVOLUTION]-[aten_ops.convolution.default]-[/features/16/conv_0/0/convolution_45] + [SCALE]-[aten_ops._native_batch_norm_legit_no_training.default]-[/features/16/conv_0/1/_native_batch_norm_legit_no_training_45]",
                    "Location": "Device",
                    "Dimensions": [
                        1,
                        160,
                        7,
                        7
                    ],
                    "Format/Datatype": "Channel major FP16 format where channel % 8 == 0"
                }
            ],
            "TacticValue": "0x0000000000000000",
            "StreamId": 0,
            "Metadata": ""
        },
        {
            "Name": "[CONVOLUTION]-[aten_ops.convolution.default]-[/features/16/conv_0/0/convolution_45] + [SCALE]-[aten_ops._native_batch_norm_legit_no_training.default]-[/features/16/conv_0/1/_native_batch_norm_legit_no_training_45]",
            "LayerType": "CaskGemmConvolution",
            "Inputs": [
                {
                    "Name": "Reformatted Input Tensor 0 to [CONVOLUTION]-[aten_ops.convolution.default]-[/features/16/conv_0/0/convolution_45] + [SCALE]-[aten_ops._native_batch_norm_legit_no_training.default]-[/features/16/conv_0/1/_native_batch_norm_legit_no_training_45]",
                    "Location": "Device",
                    "Dimensions": [
                        1,
                        160,
                        7,
                        7
                    ],
                    "Format/Datatype": "Channel major FP16 format where channel % 8 == 0"
                }
            ],
            "Outputs": [
                {
                    "Name": "(Unnamed Layer* 400) [Scale]_output",
                    "Location": "Device",
                    "Dimensions": [
                        1,
                        960,
                        7,
                        7
                    ],
                    "Format/Datatype": "Channel major FP16 format where channel % 8 == 0"
                }
            ],
            "ParameterType": "Convolution",
            "Kernel": [
                1,
                1
            ],
            "PaddingMode": "kEXPLICIT_ROUND_DOWN",
            "PrePadding": [
                0,
                0
            ],
            "PostPadding": [
                0,
                0
            ],
            "Stride": [
                1,
                1
            ],
            "Dilation": [
                1,
                1
            ],
            "OutMaps": 960,
            "Groups": 1,
            "Weights": {
                "Type": "Half",
                "Count": 153600
            },
            "Bias": {
                "Type": "Half",
                "Count": 960
            },
            "HasBias": 1,
            "HasReLU": 0,
            "HasSparseWeights": 0,
            "HasDynamicFilter": 0,
            "HasDynamicBias": 0,
            "HasResidual": 0,
            "ConvXAsActInputIdx": -1,
            "BiasAsActInputIdx": -1,
            "ResAsActInputIdx": -1,
            "Activation": "NONE",
            "TacticName": "sm80_xmma_gemm_f16f16_f16f16_f16_nn_n_tilesize64x32x64_stage5_warpsize2x2x1_tensor16x8x16",
            "TacticValue": "0x000000000002080f",
            "StreamId": 0,
            "Metadata": ""
        },
        {
            "Name": "__myl_MaxMinCas_myl107_0",
            "LayerType": "kgen",
            "Inputs": [
                {
                    "Name": "(Unnamed Layer* 400) [Scale]_output",
                    "Dimensions": [
                        1,
                        960,
                        7,
                        7
                    ],
                    "Format/Datatype": "Half"
                }
            ],
            "Outputs": [
                {
                    "Name": "(Unnamed Layer* 410) [Identity]_output",
                    "Dimensions": [
                        1,
                        960,
                        7,
                        7
                    ],
                    "Format/Datatype": "Half"
                }
            ],
            "TacticName": "__myl_MaxMinCas_0x04e72d81267e49f2fb43c5e7a6a463bf",
            "StreamId": 0,
            "Metadata": ""
        },
        {
            "Name": "[CONVOLUTION]-[aten_ops.convolution.default]-[/features/16/conv_1/0/convolution_46] + [SCALE]-[aten_ops._native_batch_norm_legit_no_training.default]-[/features/16/conv_1/1/_native_batch_norm_legit_no_training_46]",
            "LayerType": "CaskConvolution",
            "Inputs": [
                {
                    "Name": "(Unnamed Layer* 410) [Identity]_output",
                    "Location": "Device",
                    "Dimensions": [
                        1,
                        960,
                        7,
                        7
                    ],
                    "Format/Datatype": "Channel major FP16 format where channel % 8 == 0"
                }
            ],
            "Outputs": [
                {
                    "Name": "(Unnamed Layer* 412) [Scale]_output",
                    "Location": "Device",
                    "Dimensions": [
                        1,
                        960,
                        7,
                        7
                    ],
                    "Format/Datatype": "Channel major FP16 format where channel % 8 == 0"
                }
            ],
            "ParameterType": "Convolution",
            "Kernel": [
                3,
                3
            ],
            "PaddingMode": "kEXPLICIT_ROUND_DOWN",
            "PrePadding": [
                1,
                1
            ],
            "PostPadding": [
                1,
                1
            ],
            "Stride": [
                1,
                1
            ],
            "Dilation": [
                1,
                1
            ],
            "OutMaps": 960,
            "Groups": 960,
            "Weights": {
                "Type": "Half",
                "Count": 8640
            },
            "Bias": {
                "Type": "Half",
                "Count": 960
            },
            "HasBias": 1,
            "HasReLU": 0,
            "HasSparseWeights": 0,
            "HasDynamicFilter": 0,
            "HasDynamicBias": 0,
            "HasResidual": 0,
            "ConvXAsActInputIdx": -1,
            "BiasAsActInputIdx": -1,
            "ResAsActInputIdx": -1,
            "Activation": "NONE",
            "TacticName": "sm50_xmma_convolution_depthwiseHMMA_FP16NHWCx8_TR3_TS3_STRIDEH1_STRIDEW1",
            "TacticValue": "0xf9f6e2e1b0fd88e6",
            "StreamId": 0,
            "Metadata": ""
        },
        {
            "Name": "__myl_MaxMinCas_myl109_0",
            "LayerType": "kgen",
            "Inputs": [
                {
                    "Name": "(Unnamed Layer* 412) [Scale]_output",
                    "Dimensions": [
                        1,
                        960,
                        7,
                        7
                    ],
                    "Format/Datatype": "Half"
                }
            ],
            "Outputs": [
                {
                    "Name": "(Unnamed Layer* 422) [Identity]_output",
                    "Dimensions": [
                        1,
                        960,
                        7,
                        7
                    ],
                    "Format/Datatype": "Half"
                }
            ],
            "TacticName": "__myl_MaxMinCas_0x04e72d81267e49f2fb43c5e7a6a463bf",
            "StreamId": 0,
            "Metadata": ""
        },
        {
            "Name": "[CONVOLUTION]-[aten_ops.convolution.default]-[/features/16/conv/2/convolution_47] + [SCALE]-[aten_ops._native_batch_norm_legit_no_training.default]-[/features/16/conv/3/_native_batch_norm_legit_no_training_47]",
            "LayerType": "CaskGemmConvolution",
            "Inputs": [
                {
                    "Name": "(Unnamed Layer* 422) [Identity]_output",
                    "Location": "Device",
                    "Dimensions": [
                        1,
                        960,
                        7,
                        7
                    ],
                    "Format/Datatype": "Channel major FP16 format where channel % 8 == 0"
                }
            ],
            "Outputs": [
                {
                    "Name": "(Unnamed Layer* 424) [Scale]_output",
                    "Location": "Device",
                    "Dimensions": [
                        1,
                        160,
                        7,
                        7
                    ],
                    "Format/Datatype": "Channel major FP16 format where channel % 8 == 0"
                }
            ],
            "ParameterType": "Convolution",
            "Kernel": [
                1,
                1
            ],
            "PaddingMode": "kEXPLICIT_ROUND_DOWN",
            "PrePadding": [
                0,
                0
            ],
            "PostPadding": [
                0,
                0
            ],
            "Stride": [
                1,
                1
            ],
            "Dilation": [
                1,
                1
            ],
            "OutMaps": 160,
            "Groups": 1,
            "Weights": {
                "Type": "Half",
                "Count": 153600
            },
            "Bias": {
                "Type": "Half",
                "Count": 160
            },
            "HasBias": 1,
            "HasReLU": 0,
            "HasSparseWeights": 0,
            "HasDynamicFilter": 0,
            "HasDynamicBias": 0,
            "HasResidual": 0,
            "ConvXAsActInputIdx": -1,
            "BiasAsActInputIdx": -1,
            "ResAsActInputIdx": -1,
            "Activation": "NONE",
            "TacticName": "sm80_xmma_gemm_f16f16_f16f16_f16_tn_n_tilesize32x32x64_stage6_warpsize2x2x1_tensor16x8x16",
            "TacticValue": "0x00000000000208d9",
            "StreamId": 0,
            "Metadata": ""
        },
        {
            "Name": "Reformatting CopyNode for Input Tensor 1 to {ForeignNode[[ELEMENTWISE]-[aten_ops.add.Tensor]-[/features/16/add_9]]}",
            "LayerType": "NoOp",
            "Inputs": [
                {
                    "Name": "(Unnamed Layer* 424) [Scale]_output",
                    "Location": "Device",
                    "Dimensions": [
                        1,
                        160,
                        7,
                        7
                    ],
                    "Format/Datatype": "Channel major FP16 format where channel % 8 == 0"
                }
            ],
            "Outputs": [
                {
                    "Name": "Reformatted Input Tensor 1 to {ForeignNode[[ELEMENTWISE]-[aten_ops.add.Tensor]-[/features/16/add_9]]}",
                    "Location": "Device",
                    "Dimensions": [
                        1,
                        160,
                        7,
                        7
                    ],
                    "Format/Datatype": "Channel major FP16 format where channel % 2 == 0"
                }
            ],
            "TacticValue": "0x0000000000000000",
            "StreamId": 0,
            "Metadata": ""
        },
        {
            "Name": "__myl_Add_myl112_0",
            "LayerType": "kgen",
            "Inputs": [
                {
                    "Name": "[ELEMENTWISE]-[aten_ops.add.Tensor]-[/features/15/add_8]_output_add.Tensor",
                    "Dimensions": [
                        1,
                        160,
                        7,
                        7
                    ],
                    "Format/Datatype": "Half"
                },
                {
                    "Name": "Reformatted Input Tensor 1 to {ForeignNode[[ELEMENTWISE]-[aten_ops.add.Tensor]-[/features/16/add_9]]}",
                    "Dimensions": [
                        1,
                        160,
                        7,
                        7
                    ],
                    "Format/Datatype": "Half"
                }
            ],
            "Outputs": [
                {
                    "Name": "[ELEMENTWISE]-[aten_ops.add.Tensor]-[/features/16/add_9]_output_add.Tensor",
                    "Dimensions": [
                        1,
                        160,
                        7,
                        7
                    ],
                    "Format/Datatype": "Half"
                }
            ],
            "TacticName": "__myl_Add_0x40caea46f4cd889d3a647596f153eb1e",
            "StreamId": 0,
            "Metadata": ""
        },
        {
            "Name": "Reformatting CopyNode for Input Tensor 0 to [CONVOLUTION]-[aten_ops.convolution.default]-[/features/17/conv_0/0/convolution_48] + [SCALE]-[aten_ops._native_batch_norm_legit_no_training.default]-[/features/17/conv_0/1/_native_batch_norm_legit_no_training_48]",
            "LayerType": "NoOp",
            "Inputs": [
                {
                    "Name": "[ELEMENTWISE]-[aten_ops.add.Tensor]-[/features/16/add_9]_output_add.Tensor",
                    "Location": "Device",
                    "Dimensions": [
                        1,
                        160,
                        7,
                        7
                    ],
                    "Format/Datatype": "Channel major FP16 format where channel % 2 == 0"
                }
            ],
            "Outputs": [
                {
                    "Name": "Reformatted Input Tensor 0 to [CONVOLUTION]-[aten_ops.convolution.default]-[/features/17/conv_0/0/convolution_48] + [SCALE]-[aten_ops._native_batch_norm_legit_no_training.default]-[/features/17/conv_0/1/_native_batch_norm_legit_no_training_48]",
                    "Location": "Device",
                    "Dimensions": [
                        1,
                        160,
                        7,
                        7
                    ],
                    "Format/Datatype": "Channel major FP16 format where channel % 8 == 0"
                }
            ],
            "TacticValue": "0x0000000000000000",
            "StreamId": 0,
            "Metadata": ""
        },
        {
            "Name": "[CONVOLUTION]-[aten_ops.convolution.default]-[/features/17/conv_0/0/convolution_48] + [SCALE]-[aten_ops._native_batch_norm_legit_no_training.default]-[/features/17/conv_0/1/_native_batch_norm_legit_no_training_48]",
            "LayerType": "CaskGemmConvolution",
            "Inputs": [
                {
                    "Name": "Reformatted Input Tensor 0 to [CONVOLUTION]-[aten_ops.convolution.default]-[/features/17/conv_0/0/convolution_48] + [SCALE]-[aten_ops._native_batch_norm_legit_no_training.default]-[/features/17/conv_0/1/_native_batch_norm_legit_no_training_48]",
                    "Location": "Device",
                    "Dimensions": [
                        1,
                        160,
                        7,
                        7
                    ],
                    "Format/Datatype": "Channel major FP16 format where channel % 8 == 0"
                }
            ],
            "Outputs": [
                {
                    "Name": "(Unnamed Layer* 427) [Scale]_output",
                    "Location": "Device",
                    "Dimensions": [
                        1,
                        960,
                        7,
                        7
                    ],
                    "Format/Datatype": "Channel major FP16 format where channel % 8 == 0"
                }
            ],
            "ParameterType": "Convolution",
            "Kernel": [
                1,
                1
            ],
            "PaddingMode": "kEXPLICIT_ROUND_DOWN",
            "PrePadding": [
                0,
                0
            ],
            "PostPadding": [
                0,
                0
            ],
            "Stride": [
                1,
                1
            ],
            "Dilation": [
                1,
                1
            ],
            "OutMaps": 960,
            "Groups": 1,
            "Weights": {
                "Type": "Half",
                "Count": 153600
            },
            "Bias": {
                "Type": "Half",
                "Count": 960
            },
            "HasBias": 1,
            "HasReLU": 0,
            "HasSparseWeights": 0,
            "HasDynamicFilter": 0,
            "HasDynamicBias": 0,
            "HasResidual": 0,
            "ConvXAsActInputIdx": -1,
            "BiasAsActInputIdx": -1,
            "ResAsActInputIdx": -1,
            "Activation": "NONE",
            "TacticName": "sm80_xmma_gemm_f16f16_f16f16_f16_nn_n_tilesize64x32x64_stage5_warpsize2x2x1_tensor16x8x16",
            "TacticValue": "0x000000000002080f",
            "StreamId": 0,
            "Metadata": ""
        },
        {
            "Name": "__myl_MaxMinCas_myl115_0",
            "LayerType": "kgen",
            "Inputs": [
                {
                    "Name": "(Unnamed Layer* 427) [Scale]_output",
                    "Dimensions": [
                        1,
                        960,
                        7,
                        7
                    ],
                    "Format/Datatype": "Half"
                }
            ],
            "Outputs": [
                {
                    "Name": "(Unnamed Layer* 437) [Identity]_output",
                    "Dimensions": [
                        1,
                        960,
                        7,
                        7
                    ],
                    "Format/Datatype": "Half"
                }
            ],
            "TacticName": "__myl_MaxMinCas_0x04e72d81267e49f2fb43c5e7a6a463bf",
            "StreamId": 0,
            "Metadata": ""
        },
        {
            "Name": "[CONVOLUTION]-[aten_ops.convolution.default]-[/features/17/conv_1/0/convolution_49] + [SCALE]-[aten_ops._native_batch_norm_legit_no_training.default]-[/features/17/conv_1/1/_native_batch_norm_legit_no_training_49]",
            "LayerType": "CaskConvolution",
            "Inputs": [
                {
                    "Name": "(Unnamed Layer* 437) [Identity]_output",
                    "Location": "Device",
                    "Dimensions": [
                        1,
                        960,
                        7,
                        7
                    ],
                    "Format/Datatype": "Channel major FP16 format where channel % 8 == 0"
                }
            ],
            "Outputs": [
                {
                    "Name": "(Unnamed Layer* 439) [Scale]_output",
                    "Location": "Device",
                    "Dimensions": [
                        1,
                        960,
                        7,
                        7
                    ],
                    "Format/Datatype": "Channel major FP16 format where channel % 8 == 0"
                }
            ],
            "ParameterType": "Convolution",
            "Kernel": [
                3,
                3
            ],
            "PaddingMode": "kEXPLICIT_ROUND_DOWN",
            "PrePadding": [
                1,
                1
            ],
            "PostPadding": [
                1,
                1
            ],
            "Stride": [
                1,
                1
            ],
            "Dilation": [
                1,
                1
            ],
            "OutMaps": 960,
            "Groups": 960,
            "Weights": {
                "Type": "Half",
                "Count": 8640
            },
            "Bias": {
                "Type": "Half",
                "Count": 960
            },
            "HasBias": 1,
            "HasReLU": 0,
            "HasSparseWeights": 0,
            "HasDynamicFilter": 0,
            "HasDynamicBias": 0,
            "HasResidual": 0,
            "ConvXAsActInputIdx": -1,
            "BiasAsActInputIdx": -1,
            "ResAsActInputIdx": -1,
            "Activation": "NONE",
            "TacticName": "sm50_xmma_convolution_depthwiseHMMA_FP16NHWCx8_TR3_TS3_STRIDEH1_STRIDEW1",
            "TacticValue": "0xf9f6e2e1b0fd88e6",
            "StreamId": 0,
            "Metadata": ""
        },
        {
            "Name": "__myl_MaxMinCas_myl117_0",
            "LayerType": "kgen",
            "Inputs": [
                {
                    "Name": "(Unnamed Layer* 439) [Scale]_output",
                    "Dimensions": [
                        1,
                        960,
                        7,
                        7
                    ],
                    "Format/Datatype": "Half"
                }
            ],
            "Outputs": [
                {
                    "Name": "(Unnamed Layer* 449) [Identity]_output",
                    "Dimensions": [
                        1,
                        960,
                        7,
                        7
                    ],
                    "Format/Datatype": "Half"
                }
            ],
            "TacticName": "__myl_MaxMinCas_0x04e72d81267e49f2fb43c5e7a6a463bf",
            "StreamId": 0,
            "Metadata": ""
        },
        {
            "Name": "[CONVOLUTION]-[aten_ops.convolution.default]-[/features/17/conv/2/convolution_50] + [SCALE]-[aten_ops._native_batch_norm_legit_no_training.default]-[/features/17/conv/3/_native_batch_norm_legit_no_training_50]",
            "LayerType": "CaskGemmConvolution",
            "Inputs": [
                {
                    "Name": "(Unnamed Layer* 449) [Identity]_output",
                    "Location": "Device",
                    "Dimensions": [
                        1,
                        960,
                        7,
                        7
                    ],
                    "Format/Datatype": "Channel major FP16 format where channel % 8 == 0"
                }
            ],
            "Outputs": [
                {
                    "Name": "(Unnamed Layer* 451) [Scale]_output",
                    "Location": "Device",
                    "Dimensions": [
                        1,
                        320,
                        7,
                        7
                    ],
                    "Format/Datatype": "Channel major FP16 format where channel % 8 == 0"
                }
            ],
            "ParameterType": "Convolution",
            "Kernel": [
                1,
                1
            ],
            "PaddingMode": "kEXPLICIT_ROUND_DOWN",
            "PrePadding": [
                0,
                0
            ],
            "PostPadding": [
                0,
                0
            ],
            "Stride": [
                1,
                1
            ],
            "Dilation": [
                1,
                1
            ],
            "OutMaps": 320,
            "Groups": 1,
            "Weights": {
                "Type": "Half",
                "Count": 307200
            },
            "Bias": {
                "Type": "Half",
                "Count": 320
            },
            "HasBias": 1,
            "HasReLU": 0,
            "HasSparseWeights": 0,
            "HasDynamicFilter": 0,
            "HasDynamicBias": 0,
            "HasResidual": 0,
            "ConvXAsActInputIdx": -1,
            "BiasAsActInputIdx": -1,
            "ResAsActInputIdx": -1,
            "Activation": "NONE",
            "TacticName": "sm80_xmma_gemm_f16f16_f16f16_f16_tn_n_tilesize32x32x64_stage6_warpsize2x2x1_tensor16x8x16",
            "TacticValue": "0x00000000000208d9",
            "StreamId": 0,
            "Metadata": ""
        },
        {
            "Name": "[CONVOLUTION]-[aten_ops.convolution.default]-[/features_18/0/convolution_51] + [SCALE]-[aten_ops._native_batch_norm_legit_no_training.default]-[/features_18/1/_native_batch_norm_legit_no_training_51]",
            "LayerType": "CaskGemmConvolution",
            "Inputs": [
                {
                    "Name": "(Unnamed Layer* 451) [Scale]_output",
                    "Location": "Device",
                    "Dimensions": [
                        1,
                        320,
                        7,
                        7
                    ],
                    "Format/Datatype": "Channel major FP16 format where channel % 8 == 0"
                }
            ],
            "Outputs": [
                {
                    "Name": "(Unnamed Layer* 453) [Scale]_output",
                    "Location": "Device",
                    "Dimensions": [
                        1,
                        1280,
                        7,
                        7
                    ],
                    "Format/Datatype": "Channel major FP16 format where channel % 8 == 0"
                }
            ],
            "ParameterType": "Convolution",
            "Kernel": [
                1,
                1
            ],
            "PaddingMode": "kEXPLICIT_ROUND_DOWN",
            "PrePadding": [
                0,
                0
            ],
            "PostPadding": [
                0,
                0
            ],
            "Stride": [
                1,
                1
            ],
            "Dilation": [
                1,
                1
            ],
            "OutMaps": 1280,
            "Groups": 1,
            "Weights": {
                "Type": "Half",
                "Count": 409600
            },
            "Bias": {
                "Type": "Half",
                "Count": 1280
            },
            "HasBias": 1,
            "HasReLU": 0,
            "HasSparseWeights": 0,
            "HasDynamicFilter": 0,
            "HasDynamicBias": 0,
            "HasResidual": 0,
            "ConvXAsActInputIdx": -1,
            "BiasAsActInputIdx": -1,
            "ResAsActInputIdx": -1,
            "Activation": "NONE",
            "TacticName": "ampere_h16816gemm_64x64_ldg8_relu_stages_64x5_tn_v1",
            "TacticValue": "0x000000000002001f",
            "StreamId": 0,
            "Metadata": ""
        },
        {
            "Name": "Reformatting CopyNode for Input Tensor 0 to {ForeignNode[/classifier/1/addmm_mm_other...[ELEMENTWISE]-[aten_ops.addmm.default]-[/classifier/1/addmm_add]]}",
            "LayerType": "Reformat",
            "Inputs": [
                {
                    "Name": "(Unnamed Layer* 453) [Scale]_output",
                    "Location": "Device",
                    "Dimensions": [
                        1,
                        1280,
                        7,
                        7
                    ],
                    "Format/Datatype": "Channel major FP16 format where channel % 8 == 0"
                }
            ],
            "Outputs": [
                {
                    "Name": "Reformatted Input Tensor 0 to {ForeignNode[/classifier/1/addmm_mm_other...[ELEMENTWISE]-[aten_ops.addmm.default]-[/classifier/1/addmm_add]]}",
                    "Location": "Device",
                    "Dimensions": [
                        1,
                        1280,
                        7,
                        7
                    ],
                    "Format/Datatype": "Row major linear FP16 format"
                }
            ],
            "ParameterType": "Reformat",
            "Origin": "REFORMAT",
            "TacticValue": "0x0000000000000000",
            "StreamId": 0,
            "Metadata": ""
        },
        {
            "Name": "__myl_MaxMinMea_myl121_0",
            "LayerType": "kgen",
            "Inputs": [
                {
                    "Name": "Reformatted Input Tensor 0 to {ForeignNode[/classifier/1/addmm_mm_other...[ELEMENTWISE]-[aten_ops.addmm.default]-[/classifier/1/addmm_add]]}",
                    "Dimensions": [
                        1,
                        1280,
                        7,
                        7
                    ],
                    "Format/Datatype": "Half"
                }
            ],
            "Outputs": [
                {
                    "Name": "[REDUCE]_[aten_ops_mean_dim]_[__/mean]_output'.1",
                    "Dimensions": [
                        1,
                        1280,
                        1,
                        1
                    ],
                    "Format/Datatype": "Half"
                }
            ],
            "TacticName": "__myl_MaxMinMea_0x72a26e0cf458c95277d120e95b644551",
            "StreamId": 0,
            "Metadata": ""
        },
        {
            "Name": "[MATRIX_MULTIPLY]_[aten_ops_addmm_default]_[/classifier/1/addmm_mm]_myl121_1",
            "LayerType": "gemm",
            "Inputs": [
                {
                    "Name": "[REDUCE]_[aten_ops_mean_dim]_[__/mean]_output'.1",
                    "Dimensions": [
                        1,
                        1280
                    ],
                    "Format/Datatype": "Half"
                },
                {
                    "Name": "__mye2722dconst",
                    "Dimensions": [
                        1280,
                        1000
                    ],
                    "Format/Datatype": "Half"
                },
                {
                    "Name": "__mye2698[MATRIX_MULTIPLY]_[aten_ops_addmm_default]_[/classifier/1/addmm_mm]_alpha",
                    "Dimensions": [
                        1
                    ],
                    "Format/Datatype": "Float"
                },
                {
                    "Name": "__mye2699[MATRIX_MULTIPLY]_[aten_ops_addmm_default]_[/classifier/1/addmm_mm]_beta",
                    "Dimensions": [
                        1
                    ],
                    "Format/Datatype": "Float"
                },
                {
                    "Name": "/classifier/1/addmm_constant_0 _ /classifier/1/addmm_add_broadcast_to_same_shape_lhs_broadcast_constantHalf",
                    "Dimensions": [
                        1,
                        1000
                    ],
                    "Format/Datatype": "Half"
                }
            ],
            "Outputs": [
                {
                    "Name": "output0",
                    "Dimensions": [
                        1,
                        1000
                    ],
                    "Format/Datatype": "Half"
                }
            ],
            "TacticName": "sm50_xmma_cublas_gemvx_f16f16_f32_f32_tn_n_int32_unit_n_launch_param8x32x32_strided_copyx_unit_stride",
            "StreamId": 0,
            "Metadata": ""
        }
    ],
    "Bindings": [
        "x",
        "output0"
    ]
}