{"Layers": [{
  "Name": "Reformatting CopyNode for Input Tensor 0 to /features/features.0/Conv + /features/features.1/Relu",
  "LayerType": "Reformat",
  "Inputs": [
  {
    "Name": "input",
    "Location": "Device",
    "Dimensions": [1,3,224,224],
    "Format/Datatype": "Row major linear FP16 format"
  }],
  "Outputs": [
  {
    "Name": "Reformatted Input Tensor 0 to /features/features.0/Conv + /features/features.1/Relu",
    "Location": "Device",
    "Dimensions": [1,3,224,224],
    "Format/Datatype": "Channel major FP16 format where channel % 4 == 0"
  }],
  "ParameterType": "Reformat",
  "Origin": "REFORMAT",
  "TacticValue": "0x00000000000003e8",
  "StreamId": 0,
  "Metadata": ""
},{
  "Name": "/features/features.0/Conv + /features/features.1/Relu",
  "LayerType": "CaskConvolution",
  "Inputs": [
  {
    "Name": "Reformatted Input Tensor 0 to /features/features.0/Conv + /features/features.1/Relu",
    "Location": "Device",
    "Dimensions": [1,3,224,224],
    "Format/Datatype": "Channel major FP16 format where channel % 4 == 0"
  }],
  "Outputs": [
  {
    "Name": "/features/features.1/Relu_output_0",
    "Location": "Device",
    "Dimensions": [1,64,55,55],
    "Format/Datatype": "Channel major FP16 format where channel % 8 == 0"
  }],
  "ParameterType": "Convolution",
  "Kernel": [11,11],
  "PaddingMode": "kEXPLICIT_ROUND_DOWN",
  "PrePadding": [2,2],
  "PostPadding": [2,2],
  "Stride": [4,4],
  "Dilation": [1,1],
  "OutMaps": 64,
  "Groups": 1,
  "Weights": {"Type": "Half", "Count": 23232},
  "Bias": {"Type": "Half", "Count": 64},
  "HasBias": 1,
  "HasReLU": 1,
  "HasSparseWeights": 0,
  "HasDynamicFilter": 0,
  "HasDynamicBias": 0,
  "HasResidual": 0,
  "ConvXAsActInputIdx": -1,
  "BiasAsActInputIdx": -1,
  "ResAsActInputIdx": -1,
  "Activation": "RELU",
  "TacticName": "sm80_xmma_fprop_implicit_gemm_indexed_wo_smem_f16f16_f16f16_f16_nhwckrsc_nhwc_tilesize128x32x64_stage1_warpsize4x1x1_g1_tensor16x8x16_aligna8_alignc8",
  "TacticValue": "0x280b0ad3c23d8442",
  "StreamId": 0,
  "Metadata": "[ONNX Layer: /features/features.0/Conv]\u001e[ONNX Layer: /features/features.1/Relu]"
},{
  "Name": "/features/features.2/MaxPool",
  "LayerType": "CaskPooling",
  "Inputs": [
  {
    "Name": "/features/features.1/Relu_output_0",
    "Location": "Device",
    "Dimensions": [1,64,55,55],
    "Format/Datatype": "Channel major FP16 format where channel % 8 == 0"
  }],
  "Outputs": [
  {
    "Name": "/features/features.2/MaxPool_output_0",
    "Location": "Device",
    "Dimensions": [1,64,27,27],
    "Format/Datatype": "Channel major FP16 format where channel % 8 == 0"
  }],
  "ParameterType": "Pooling",
  "PoolingType": "MAX",
  "WindowSize": [3,3],
  "PaddingMode": "kEXPLICIT_ROUND_DOWN",
  "PrePadding": [0,0],
  "PostPadding": [0,0],
  "Stride": [2,2],
  "BlendFactor": 0,
  "AverageCountExcludesPadding": 1,
  "TacticName": "sm50_xmma_pooling_max_nhwc_FP16FP32_WINDOWSIZE_3_NOT_PROPAGATE_NAN_2D",
  "TacticValue": "0xee73a603ebea4565",
  "StreamId": 0,
  "Metadata": "[ONNX Layer: /features/features.2/MaxPool]"
},{
  "Name": "/features/features.3/Conv + /features/features.4/Relu",
  "LayerType": "CaskConvolution",
  "Inputs": [
  {
    "Name": "/features/features.2/MaxPool_output_0",
    "Location": "Device",
    "Dimensions": [1,64,27,27],
    "Format/Datatype": "Channel major FP16 format where channel % 8 == 0"
  }],
  "Outputs": [
  {
    "Name": "/features/features.4/Relu_output_0",
    "Location": "Device",
    "Dimensions": [1,192,27,27],
    "Format/Datatype": "Channel major FP16 format where channel % 8 == 0"
  }],
  "ParameterType": "Convolution",
  "Kernel": [5,5],
  "PaddingMode": "kEXPLICIT_ROUND_DOWN",
  "PrePadding": [2,2],
  "PostPadding": [2,2],
  "Stride": [1,1],
  "Dilation": [1,1],
  "OutMaps": 192,
  "Groups": 1,
  "Weights": {"Type": "Half", "Count": 307200},
  "Bias": {"Type": "Half", "Count": 192},
  "HasBias": 1,
  "HasReLU": 1,
  "HasSparseWeights": 0,
  "HasDynamicFilter": 0,
  "HasDynamicBias": 0,
  "HasResidual": 0,
  "ConvXAsActInputIdx": -1,
  "BiasAsActInputIdx": -1,
  "ResAsActInputIdx": -1,
  "Activation": "RELU",
  "TacticName": "sm80_xmma_fprop_implicit_gemm_f16f16_f16f16_f16_nhwckrsc_nhwc_tilesize128x64x32_stage5_warpsize2x2x1_g1_tensor16x8x16_t1r5s5",
  "TacticValue": "0xb9d272ea28cc4e2e",
  "StreamId": 0,
  "Metadata": "[ONNX Layer: /features/features.3/Conv]\u001e[ONNX Layer: /features/features.4/Relu]"
},{
  "Name": "/features/features.5/MaxPool",
  "LayerType": "CaskPooling",
  "Inputs": [
  {
    "Name": "/features/features.4/Relu_output_0",
    "Location": "Device",
    "Dimensions": [1,192,27,27],
    "Format/Datatype": "Channel major FP16 format where channel % 8 == 0"
  }],
  "Outputs": [
  {
    "Name": "/features/features.5/MaxPool_output_0",
    "Location": "Device",
    "Dimensions": [1,192,13,13],
    "Format/Datatype": "Channel major FP16 format where channel % 8 == 0"
  }],
  "ParameterType": "Pooling",
  "PoolingType": "MAX",
  "WindowSize": [3,3],
  "PaddingMode": "kEXPLICIT_ROUND_DOWN",
  "PrePadding": [0,0],
  "PostPadding": [0,0],
  "Stride": [2,2],
  "BlendFactor": 0,
  "AverageCountExcludesPadding": 1,
  "TacticName": "sm50_xmma_pooling_coalescedC_NHWC_kMAX_3_False",
  "TacticValue": "0xdb415cba6b0e9137",
  "StreamId": 0,
  "Metadata": "[ONNX Layer: /features/features.5/MaxPool]"
},{
  "Name": "/features/features.6/Conv + /features/features.7/Relu",
  "LayerType": "CaskConvolution",
  "Inputs": [
  {
    "Name": "/features/features.5/MaxPool_output_0",
    "Location": "Device",
    "Dimensions": [1,192,13,13],
    "Format/Datatype": "Channel major FP16 format where channel % 8 == 0"
  }],
  "Outputs": [
  {
    "Name": "/features/features.7/Relu_output_0",
    "Location": "Device",
    "Dimensions": [1,384,13,13],
    "Format/Datatype": "Channel major FP16 format where channel % 8 == 0"
  }],
  "ParameterType": "Convolution",
  "Kernel": [3,3],
  "PaddingMode": "kEXPLICIT_ROUND_DOWN",
  "PrePadding": [1,1],
  "PostPadding": [1,1],
  "Stride": [1,1],
  "Dilation": [1,1],
  "OutMaps": 384,
  "Groups": 1,
  "Weights": {"Type": "Half", "Count": 663552},
  "Bias": {"Type": "Half", "Count": 384},
  "HasBias": 1,
  "HasReLU": 1,
  "HasSparseWeights": 0,
  "HasDynamicFilter": 0,
  "HasDynamicBias": 0,
  "HasResidual": 0,
  "ConvXAsActInputIdx": -1,
  "BiasAsActInputIdx": -1,
  "ResAsActInputIdx": -1,
  "Activation": "RELU",
  "TacticName": "sm80_xmma_fprop_implicit_gemm_f16f16_f16f16_f16_nhwckrsc_nhwc_tilesize64x64x64_stage4_warpsize2x1x2_g1_tensor16x8x16_aACCESS",
  "TacticValue": "0x841c601dec2a75bc",
  "StreamId": 0,
  "Metadata": "[ONNX Layer: /features/features.6/Conv]\u001e[ONNX Layer: /features/features.7/Relu]"
},{
  "Name": "/features/features.8/Conv + /features/features.9/Relu",
  "LayerType": "CaskConvolution",
  "Inputs": [
  {
    "Name": "/features/features.7/Relu_output_0",
    "Location": "Device",
    "Dimensions": [1,384,13,13],
    "Format/Datatype": "Channel major FP16 format where channel % 8 == 0"
  }],
  "Outputs": [
  {
    "Name": "/features/features.9/Relu_output_0",
    "Location": "Device",
    "Dimensions": [1,256,13,13],
    "Format/Datatype": "Channel major FP16 format where channel % 8 == 0"
  }],
  "ParameterType": "Convolution",
  "Kernel": [3,3],
  "PaddingMode": "kEXPLICIT_ROUND_DOWN",
  "PrePadding": [1,1],
  "PostPadding": [1,1],
  "Stride": [1,1],
  "Dilation": [1,1],
  "OutMaps": 256,
  "Groups": 1,
  "Weights": {"Type": "Half", "Count": 884736},
  "Bias": {"Type": "Half", "Count": 256},
  "HasBias": 1,
  "HasReLU": 1,
  "HasSparseWeights": 0,
  "HasDynamicFilter": 0,
  "HasDynamicBias": 0,
  "HasResidual": 0,
  "ConvXAsActInputIdx": -1,
  "BiasAsActInputIdx": -1,
  "ResAsActInputIdx": -1,
  "Activation": "RELU",
  "TacticName": "sm80_xmma_fprop_implicit_gemm_f16f16_f16f16_f16_nhwckrsc_nhwc_tilesize64x64x64_stage4_warpsize2x1x2_g1_tensor16x8x16_aACCESS",
  "TacticValue": "0x841c601dec2a75bc",
  "StreamId": 0,
  "Metadata": "[ONNX Layer: /features/features.8/Conv]\u001e[ONNX Layer: /features/features.9/Relu]"
},{
  "Name": "/features/features.10/Conv + /features/features.11/Relu",
  "LayerType": "CaskConvolution",
  "Inputs": [
  {
    "Name": "/features/features.9/Relu_output_0",
    "Location": "Device",
    "Dimensions": [1,256,13,13],
    "Format/Datatype": "Channel major FP16 format where channel % 8 == 0"
  }],
  "Outputs": [
  {
    "Name": "/features/features.11/Relu_output_0",
    "Location": "Device",
    "Dimensions": [1,256,13,13],
    "Format/Datatype": "Channel major FP16 format where channel % 8 == 0"
  }],
  "ParameterType": "Convolution",
  "Kernel": [3,3],
  "PaddingMode": "kEXPLICIT_ROUND_DOWN",
  "PrePadding": [1,1],
  "PostPadding": [1,1],
  "Stride": [1,1],
  "Dilation": [1,1],
  "OutMaps": 256,
  "Groups": 1,
  "Weights": {"Type": "Half", "Count": 589824},
  "Bias": {"Type": "Half", "Count": 256},
  "HasBias": 1,
  "HasReLU": 1,
  "HasSparseWeights": 0,
  "HasDynamicFilter": 0,
  "HasDynamicBias": 0,
  "HasResidual": 0,
  "ConvXAsActInputIdx": -1,
  "BiasAsActInputIdx": -1,
  "ResAsActInputIdx": -1,
  "Activation": "RELU",
  "TacticName": "sm80_xmma_fprop_implicit_gemm_f16f16_f16f16_f16_nhwckrsc_nhwc_tilesize64x64x64_stage4_warpsize2x1x2_g1_tensor16x8x16_aACCESS",
  "TacticValue": "0x841c601dec2a75bc",
  "StreamId": 0,
  "Metadata": "[ONNX Layer: /features/features.10/Conv]\u001e[ONNX Layer: /features/features.11/Relu]"
},{
  "Name": "/features/features.12/MaxPool",
  "LayerType": "CaskPooling",
  "Inputs": [
  {
    "Name": "/features/features.11/Relu_output_0",
    "Location": "Device",
    "Dimensions": [1,256,13,13],
    "Format/Datatype": "Channel major FP16 format where channel % 8 == 0"
  }],
  "Outputs": [
  {
    "Name": "/features/features.12/MaxPool_output_0",
    "Location": "Device",
    "Dimensions": [1,256,6,6],
    "Format/Datatype": "Channel major FP16 format where channel % 8 == 0"
  }],
  "ParameterType": "Pooling",
  "PoolingType": "MAX",
  "WindowSize": [3,3],
  "PaddingMode": "kEXPLICIT_ROUND_DOWN",
  "PrePadding": [0,0],
  "PostPadding": [0,0],
  "Stride": [2,2],
  "BlendFactor": 0,
  "AverageCountExcludesPadding": 1,
  "TacticName": "sm50_xmma_pooling_coalescedC_NHWC_kMAX_3_False",
  "TacticValue": "0xdb415cba6b0e9137",
  "StreamId": 0,
  "Metadata": "[ONNX Layer: /features/features.12/MaxPool]"
},{
  "Name": "dummy_shape_call__mye622_0_myl9_0",
  "LayerType": "shape_call",
  "Inputs": [],
  "Outputs": [],
  "TacticName": "",
  "StreamId": 0,
  "Metadata": ""
},{
  "Name": "__myl_Res_myl9_1",
  "LayerType": "kgen",
  "Inputs": [
  {
    "Name": "/features/features.12/MaxPool_output_0",
    "Dimensions": [1,256,6,6],
    "Format/Datatype": "Half"
  }],
  "Outputs": [
  {
    "Name": "/classifier/classifier_2/Relu_output_0'.1_2",
    "Dimensions": [1,9216],
    "Format/Datatype": "Half"
  }],
  "TacticName": "__myl_Res_0x63adb2bae59ff89a94fc133e2755c132",
  "StreamId": 0,
  "Metadata": "[ONNX Layer: /Flatten]"
},{
  "Name": "/classifier/classifier_1/Gemm_myl9_2",
  "LayerType": "gemm",
  "Inputs": [
  {
    "Name": "/classifier/classifier_2/Relu_output_0'.1_2",
    "Dimensions": [1,9216],
    "Format/Datatype": "Half"
  },
  {
    "Name": "__mye583_dconst",
    "Dimensions": [9216,4096],
    "Format/Datatype": "Half"
  },
  {
    "Name": "__mye546/classifier/classifier_1/Gemm_alpha",
    "Dimensions": [1],
    "Format/Datatype": "Float"
  },
  {
    "Name": "__mye547/classifier/classifier_1/Gemm_beta",
    "Dimensions": [1],
    "Format/Datatype": "Float"
  },
  {
    "Name": "classifier_1_bias _ ONNXTRT_Broadcast_constantHalf",
    "Dimensions": [1,4096],
    "Format/Datatype": "Half"
  }],
  "Outputs": [
  {
    "Name": "/classifier/classifier_5/Relu_output_0'.1_3",
    "Dimensions": [1,4096],
    "Format/Datatype": "Half"
  }],
  "TacticName": "sm50_xmma_cublas_gemvx_f16f16_f32_f32_tn_n_int32_unit_n_launch_param4x32x32_strided_unit_stride",
  "StreamId": 0,
  "Metadata": "[ONNX Layer: /classifier/classifier.1/Gemm]\u001f[ONNX Layer: /classifier/classifier.2/Relu]"
},{
  "Name": "/classifier/classifier_4/Gemm_myl9_3",
  "LayerType": "gemm",
  "Inputs": [
  {
    "Name": "/classifier/classifier_5/Relu_output_0'.1_3",
    "Dimensions": [1,4096],
    "Format/Datatype": "Half"
  },
  {
    "Name": "__mye589_dconst",
    "Dimensions": [4096,4096],
    "Format/Datatype": "Half"
  },
  {
    "Name": "__mye560/classifier/classifier_4/Gemm_alpha",
    "Dimensions": [1],
    "Format/Datatype": "Float"
  },
  {
    "Name": "__mye561/classifier/classifier_4/Gemm_beta",
    "Dimensions": [1],
    "Format/Datatype": "Float"
  },
  {
    "Name": "classifier_4_bias _ ONNXTRT_Broadcast_4_constantHalf",
    "Dimensions": [1,4096],
    "Format/Datatype": "Half"
  }],
  "Outputs": [
  {
    "Name": "output'.1_4",
    "Dimensions": [1,4096],
    "Format/Datatype": "Half"
  }],
  "TacticName": "sm50_xmma_cublas_gemvx_f16f16_f32_f32_tn_n_int32_unit_n_launch_param4x32x32_strided_unit_stride",
  "StreamId": 0,
  "Metadata": "[ONNX Layer: /classifier/classifier.4/Gemm]\u001f[ONNX Layer: /classifier/classifier.5/Relu]"
},{
  "Name": "/classifier/classifier_6/Gemm_myl9_4",
  "LayerType": "gemm",
  "Inputs": [
  {
    "Name": "output'.1_4",
    "Dimensions": [1,4096],
    "Format/Datatype": "Half"
  },
  {
    "Name": "__mye595_dconst",
    "Dimensions": [4096,1000],
    "Format/Datatype": "Half"
  },
  {
    "Name": "__mye574/classifier/classifier_6/Gemm_alpha",
    "Dimensions": [1],
    "Format/Datatype": "Float"
  },
  {
    "Name": "__mye575/classifier/classifier_6/Gemm_beta",
    "Dimensions": [1],
    "Format/Datatype": "Float"
  },
  {
    "Name": "classifier_6_bias _ ONNXTRT_Broadcast_6_constantHalf",
    "Dimensions": [1,1000],
    "Format/Datatype": "Half"
  }],
  "Outputs": [
  {
    "Name": "output",
    "Dimensions": [1,1000],
    "Format/Datatype": "Half"
  }],
  "TacticName": "sm50_xmma_cublas_gemvx_f16f16_f32_f32_tn_n_int32_unit_n_launch_param4x32x32_strided_unit_stride",
  "StreamId": 0,
  "Metadata": "[ONNX Layer: /classifier/classifier.6/Gemm]"
}],
"Bindings": ["input"
,"output"
]}
