{
    "Layers": [
        {
            "Name": "Reformatting CopyNode for Input Tensor 0 to [CONVOLUTION]-[aten_ops.convolution.default]-[/features_0/0/convolution] + [SCALE]-[aten_ops._native_batch_norm_legit_no_training.default]-[/features_0/1/_native_batch_norm_legit_no_training]",
            "LayerType": "Reformat",
            "Inputs": [
                {
                    "Name": "x",
                    "Location": "Device",
                    "Dimensions": [
                        1,
                        3,
                        224,
                        224
                    ],
                    "Format/Datatype": "Row major linear FP16 format"
                }
            ],
            "Outputs": [
                {
                    "Name": "Reformatted Input Tensor 0 to [CONVOLUTION]-[aten_ops.convolution.default]-[/features_0/0/convolution] + [SCALE]-[aten_ops._native_batch_norm_legit_no_training.default]-[/features_0/1/_native_batch_norm_legit_no_training]",
                    "Location": "Device",
                    "Dimensions": [
                        1,
                        3,
                        224,
                        224
                    ],
                    "Format/Datatype": "Channel major FP16 format where channel % 4 == 0"
                }
            ],
            "ParameterType": "Reformat",
            "Origin": "REFORMAT",
            "TacticValue": "0x00000000000003ea",
            "StreamId": 0,
            "Metadata": ""
        },
        {
            "Name": "[CONVOLUTION]-[aten_ops.convolution.default]-[/features_0/0/convolution] + [SCALE]-[aten_ops._native_batch_norm_legit_no_training.default]-[/features_0/1/_native_batch_norm_legit_no_training]",
            "LayerType": "CaskConvolution",
            "Inputs": [
                {
                    "Name": "Reformatted Input Tensor 0 to [CONVOLUTION]-[aten_ops.convolution.default]-[/features_0/0/convolution] + [SCALE]-[aten_ops._native_batch_norm_legit_no_training.default]-[/features_0/1/_native_batch_norm_legit_no_training]",
                    "Location": "Device",
                    "Dimensions": [
                        1,
                        3,
                        224,
                        224
                    ],
                    "Format/Datatype": "Channel major FP16 format where channel % 4 == 0"
                }
            ],
            "Outputs": [
                {
                    "Name": "(Unnamed Layer* 1) [Scale]_output",
                    "Location": "Device",
                    "Dimensions": [
                        1,
                        32,
                        112,
                        112
                    ],
                    "Format/Datatype": "Channel major FP16 format where channel % 8 == 0"
                }
            ],
            "ParameterType": "Convolution",
            "Kernel": [
                3,
                3
            ],
            "PaddingMode": "kEXPLICIT_ROUND_DOWN",
            "PrePadding": [
                1,
                1
            ],
            "PostPadding": [
                1,
                1
            ],
            "Stride": [
                2,
                2
            ],
            "Dilation": [
                1,
                1
            ],
            "OutMaps": 32,
            "Groups": 1,
            "Weights": {
                "Type": "Half",
                "Count": 864
            },
            "Bias": {
                "Type": "Half",
                "Count": 32
            },
            "HasSparseWeights": 0,
            "HasDynamicFilter": 0,
            "HasDynamicBias": 0,
            "HasResidual": 0,
            "ConvXAsActInputIdx": -1,
            "BiasAsActInputIdx": -1,
            "ResAsActInputIdx": -1,
            "Activation": "NONE",
            "HasBias": 1,
            "HasReLU": 0,
            "TacticName": "sm80_xmma_fprop_implicit_gemm_indexed_wo_smem_f16f16_f16f16_f16_nhwckrsc_nhwc_tilesize128x32x64_stage1_warpsize4x1x1_g1_tensor16x8x16_aligna8_alignc8",
            "TacticValue": "0x280b0ad3c23d8442",
            "StreamId": 0,
            "Metadata": ""
        },
        {
            "Name": "Forced Cast ITensor (Unnamed Layer* 1) [Scale]_output from DataType.FLOAT to DataType.FLOAT - [aten_ops.torch.ops.aten._to_copy.default]-[/features_0/2/_to_copy]",
            "LayerType": "NoOp",
            "Inputs": [
                {
                    "Name": "(Unnamed Layer* 1) [Scale]_output",
                    "Location": "Device",
                    "Dimensions": [
                        1,
                        32,
                        112,
                        112
                    ],
                    "Format/Datatype": "Channel major FP16 format where channel % 8 == 0"
                }
            ],
            "Outputs": [
                {
                    "Name": "(Unnamed Layer* 2) [Identity]_output",
                    "Location": "Device",
                    "Dimensions": [
                        1,
                        32,
                        112,
                        112
                    ],
                    "Format/Datatype": "Channel major FP16 format where channel % 8 == 0"
                }
            ],
            "TacticValue": "0x0000000000000000",
            "StreamId": 0,
            "Metadata": ""
        },
        {
            "Name": "PWN(/features_0/2/clamp_min_rhs + /features_0/2/clamp_min_rhs_broadcast, PWN(PWN(/features_0/2/clamp_max_rhs + /features_0/2/clamp_max_rhs_broadcast, [ELEMENTWISE]-[aten_ops.clamp.default]-[/features_0/2/clamp_max]), [ELEMENTWISE]-[aten_ops.clamp.default]-[/features_0/2/clamp_min]))",
            "LayerType": "PointWiseV2",
            "Inputs": [
                {
                    "Name": "(Unnamed Layer* 2) [Identity]_output",
                    "Location": "Device",
                    "Dimensions": [
                        1,
                        32,
                        112,
                        112
                    ],
                    "Format/Datatype": "Channel major FP16 format where channel % 8 == 0"
                }
            ],
            "Outputs": [
                {
                    "Name": "(Unnamed Layer* 8) [ElementWise]_output_clamp.default",
                    "Location": "Device",
                    "Dimensions": [
                        1,
                        32,
                        112,
                        112
                    ],
                    "Format/Datatype": "Channel major FP16 format where channel % 8 == 0"
                }
            ],
            "ParameterType": "PointWise",
            "ParameterSubType": "PointWiseExpression",
            "NbInputArgs": 1,
            "InputArgs": [
                "arg0"
            ],
            "NbOutputVars": 1,
            "OutputVars": [
                "var1"
            ],
            "NbParams": 0,
            "Params": [],
            "NbLiterals": 2,
            "Literals": [
                "6.000000e+00f",
                "0.000000e+00f"
            ],
            "NbOperations": 2,
            "Operations": [
                "auto const var0 = pwgen::iMax(arg0, literal1);",
                "auto const var1 = pwgen::iMin(var0, literal0);"
            ],
            "TacticValue": "0x000000000000001c",
            "StreamId": 0,
            "Metadata": ""
        },
        {
            "Name": "Forced Cast ITensor (Unnamed Layer* 8) [ElementWise]_output_clamp.default from DataType.FLOAT to DataType.HALF - [aten_ops.torch.ops.aten._to_copy.default]-[/features_0/2/_to_copy_1]",
            "LayerType": "NoOp",
            "Inputs": [
                {
                    "Name": "(Unnamed Layer* 8) [ElementWise]_output_clamp.default",
                    "Location": "Device",
                    "Dimensions": [
                        1,
                        32,
                        112,
                        112
                    ],
                    "Format/Datatype": "Channel major FP16 format where channel % 8 == 0"
                }
            ],
            "Outputs": [
                {
                    "Name": "(Unnamed Layer* 9) [Identity]_output",
                    "Location": "Device",
                    "Dimensions": [
                        1,
                        32,
                        112,
                        112
                    ],
                    "Format/Datatype": "Channel major FP16 format where channel % 8 == 0"
                }
            ],
            "TacticValue": "0x0000000000000000",
            "StreamId": 0,
            "Metadata": ""
        },
        {
            "Name": "[CONVOLUTION]-[aten_ops.convolution.default]-[/features/1/conv_0/0/convolution_1] + [SCALE]-[aten_ops._native_batch_norm_legit_no_training.default]-[/features/1/conv_0/1/_native_batch_norm_legit_no_training_1]",
            "LayerType": "CaskConvolution",
            "Inputs": [
                {
                    "Name": "(Unnamed Layer* 9) [Identity]_output",
                    "Location": "Device",
                    "Dimensions": [
                        1,
                        32,
                        112,
                        112
                    ],
                    "Format/Datatype": "Channel major FP16 format where channel % 8 == 0"
                }
            ],
            "Outputs": [
                {
                    "Name": "(Unnamed Layer* 11) [Scale]_output",
                    "Location": "Device",
                    "Dimensions": [
                        1,
                        32,
                        112,
                        112
                    ],
                    "Format/Datatype": "Channel major FP16 format where channel % 8 == 0"
                }
            ],
            "ParameterType": "Convolution",
            "Kernel": [
                3,
                3
            ],
            "PaddingMode": "kEXPLICIT_ROUND_DOWN",
            "PrePadding": [
                1,
                1
            ],
            "PostPadding": [
                1,
                1
            ],
            "Stride": [
                1,
                1
            ],
            "Dilation": [
                1,
                1
            ],
            "OutMaps": 32,
            "Groups": 32,
            "Weights": {
                "Type": "Half",
                "Count": 288
            },
            "Bias": {
                "Type": "Half",
                "Count": 32
            },
            "HasSparseWeights": 0,
            "HasDynamicFilter": 0,
            "HasDynamicBias": 0,
            "HasResidual": 0,
            "ConvXAsActInputIdx": -1,
            "BiasAsActInputIdx": -1,
            "ResAsActInputIdx": -1,
            "Activation": "NONE",
            "HasBias": 1,
            "HasReLU": 0,
            "TacticName": "sm50_xmma_convolution_depthwiseHMMA_FP16NHWCx8_TR3_TS3_STRIDEH1_STRIDEW1",
            "TacticValue": "0xf9f6e2e1b0fd88e6",
            "StreamId": 0,
            "Metadata": ""
        },
        {
            "Name": "Forced Cast ITensor (Unnamed Layer* 11) [Scale]_output from DataType.FLOAT to DataType.FLOAT - [aten_ops.torch.ops.aten._to_copy.default]-[/features/1/conv_0/2/_to_copy_2]",
            "LayerType": "NoOp",
            "Inputs": [
                {
                    "Name": "(Unnamed Layer* 11) [Scale]_output",
                    "Location": "Device",
                    "Dimensions": [
                        1,
                        32,
                        112,
                        112
                    ],
                    "Format/Datatype": "Channel major FP16 format where channel % 8 == 0"
                }
            ],
            "Outputs": [
                {
                    "Name": "(Unnamed Layer* 12) [Identity]_output",
                    "Location": "Device",
                    "Dimensions": [
                        1,
                        32,
                        112,
                        112
                    ],
                    "Format/Datatype": "Channel major FP16 format where channel % 8 == 0"
                }
            ],
            "TacticValue": "0x0000000000000000",
            "StreamId": 0,
            "Metadata": ""
        },
        {
            "Name": "PWN(/features/1/conv_0/2/clamp_1_min_rhs + /features/1/conv_0/2/clamp_1_min_rhs_broadcast, PWN(PWN(/features/1/conv_0/2/clamp_1_max_rhs + /features/1/conv_0/2/clamp_1_max_rhs_broadcast, [ELEMENTWISE]-[aten_ops.clamp.default]-[/features/1/conv_0/2/clamp_1_max]), [ELEMENTWISE]-[aten_ops.clamp.default]-[/features/1/conv_0/2/clamp_1_min]))",
            "LayerType": "PointWiseV2",
            "Inputs": [
                {
                    "Name": "(Unnamed Layer* 12) [Identity]_output",
                    "Location": "Device",
                    "Dimensions": [
                        1,
                        32,
                        112,
                        112
                    ],
                    "Format/Datatype": "Channel major FP16 format where channel % 8 == 0"
                }
            ],
            "Outputs": [
                {
                    "Name": "(Unnamed Layer* 18) [ElementWise]_output_clamp.default",
                    "Location": "Device",
                    "Dimensions": [
                        1,
                        32,
                        112,
                        112
                    ],
                    "Format/Datatype": "Channel major FP16 format where channel % 8 == 0"
                }
            ],
            "ParameterType": "PointWise",
            "ParameterSubType": "PointWiseExpression",
            "NbInputArgs": 1,
            "InputArgs": [
                "arg0"
            ],
            "NbOutputVars": 1,
            "OutputVars": [
                "var1"
            ],
            "NbParams": 0,
            "Params": [],
            "NbLiterals": 2,
            "Literals": [
                "6.000000e+00f",
                "0.000000e+00f"
            ],
            "NbOperations": 2,
            "Operations": [
                "auto const var0 = pwgen::iMax(arg0, literal1);",
                "auto const var1 = pwgen::iMin(var0, literal0);"
            ],
            "TacticValue": "0x000000000000001c",
            "StreamId": 0,
            "Metadata": ""
        },
        {
            "Name": "Forced Cast ITensor (Unnamed Layer* 18) [ElementWise]_output_clamp.default from DataType.FLOAT to DataType.HALF - [aten_ops.torch.ops.aten._to_copy.default]-[/features/1/conv_0/2/_to_copy_3]",
            "LayerType": "NoOp",
            "Inputs": [
                {
                    "Name": "(Unnamed Layer* 18) [ElementWise]_output_clamp.default",
                    "Location": "Device",
                    "Dimensions": [
                        1,
                        32,
                        112,
                        112
                    ],
                    "Format/Datatype": "Channel major FP16 format where channel % 8 == 0"
                }
            ],
            "Outputs": [
                {
                    "Name": "(Unnamed Layer* 19) [Identity]_output",
                    "Location": "Device",
                    "Dimensions": [
                        1,
                        32,
                        112,
                        112
                    ],
                    "Format/Datatype": "Channel major FP16 format where channel % 8 == 0"
                }
            ],
            "TacticValue": "0x0000000000000000",
            "StreamId": 0,
            "Metadata": ""
        },
        {
            "Name": "[CONVOLUTION]-[aten_ops.convolution.default]-[/features/1/conv/1/convolution_2] + [SCALE]-[aten_ops._native_batch_norm_legit_no_training.default]-[/features/1/conv/2/_native_batch_norm_legit_no_training_2]",
            "LayerType": "CaskConvolution",
            "Inputs": [
                {
                    "Name": "(Unnamed Layer* 19) [Identity]_output",
                    "Location": "Device",
                    "Dimensions": [
                        1,
                        32,
                        112,
                        112
                    ],
                    "Format/Datatype": "Channel major FP16 format where channel % 8 == 0"
                }
            ],
            "Outputs": [
                {
                    "Name": "(Unnamed Layer* 21) [Scale]_output",
                    "Location": "Device",
                    "Dimensions": [
                        1,
                        16,
                        112,
                        112
                    ],
                    "Format/Datatype": "Channel major FP16 format where channel % 8 == 0"
                }
            ],
            "ParameterType": "Convolution",
            "Kernel": [
                1,
                1
            ],
            "PaddingMode": "kEXPLICIT_ROUND_DOWN",
            "PrePadding": [
                0,
                0
            ],
            "PostPadding": [
                0,
                0
            ],
            "Stride": [
                1,
                1
            ],
            "Dilation": [
                1,
                1
            ],
            "OutMaps": 16,
            "Groups": 1,
            "Weights": {
                "Type": "Half",
                "Count": 512
            },
            "Bias": {
                "Type": "Half",
                "Count": 16
            },
            "HasSparseWeights": 0,
            "HasDynamicFilter": 0,
            "HasDynamicBias": 0,
            "HasResidual": 0,
            "ConvXAsActInputIdx": -1,
            "BiasAsActInputIdx": -1,
            "ResAsActInputIdx": -1,
            "Activation": "NONE",
            "HasBias": 1,
            "HasReLU": 0,
            "TacticName": "sm80_xmma_fprop_implicit_gemm_indexed_wo_smem_f16f16_f16f16_f16_nhwckrsc_nhwc_tilesize128x16x32_stage1_warpsize4x1x1_g1_tensor16x8x16_alignc8",
            "TacticValue": "0xfbf5ea2d8a6293cd",
            "StreamId": 0,
            "Metadata": ""
        },
        {
            "Name": "[CONVOLUTION]-[aten_ops.convolution.default]-[/features/2/conv_0/0/convolution_3] + [SCALE]-[aten_ops._native_batch_norm_legit_no_training.default]-[/features/2/conv_0/1/_native_batch_norm_legit_no_training_3]",
            "LayerType": "CaskConvolution",
            "Inputs": [
                {
                    "Name": "(Unnamed Layer* 21) [Scale]_output",
                    "Location": "Device",
                    "Dimensions": [
                        1,
                        16,
                        112,
                        112
                    ],
                    "Format/Datatype": "Channel major FP16 format where channel % 8 == 0"
                }
            ],
            "Outputs": [
                {
                    "Name": "(Unnamed Layer* 23) [Scale]_output",
                    "Location": "Device",
                    "Dimensions": [
                        1,
                        96,
                        112,
                        112
                    ],
                    "Format/Datatype": "Channel major FP16 format where channel % 8 == 0"
                }
            ],
            "ParameterType": "Convolution",
            "Kernel": [
                1,
                1
            ],
            "PaddingMode": "kEXPLICIT_ROUND_DOWN",
            "PrePadding": [
                0,
                0
            ],
            "PostPadding": [
                0,
                0
            ],
            "Stride": [
                1,
                1
            ],
            "Dilation": [
                1,
                1
            ],
            "OutMaps": 96,
            "Groups": 1,
            "Weights": {
                "Type": "Half",
                "Count": 1536
            },
            "Bias": {
                "Type": "Half",
                "Count": 96
            },
            "HasSparseWeights": 0,
            "HasDynamicFilter": 0,
            "HasDynamicBias": 0,
            "HasResidual": 0,
            "ConvXAsActInputIdx": -1,
            "BiasAsActInputIdx": -1,
            "ResAsActInputIdx": -1,
            "Activation": "NONE",
            "HasBias": 1,
            "HasReLU": 0,
            "TacticName": "sm80_xmma_fprop_implicit_gemm_indexed_wo_smem_f16f16_f16f16_f16_nhwckrsc_nhwc_tilesize128x32x16_stage1_warpsize4x1x1_g1_tensor16x8x16_aligna4_alignc8",
            "TacticValue": "0xfeb4e5d6176dd16f",
            "StreamId": 0,
            "Metadata": ""
        },
        {
            "Name": "Forced Cast ITensor (Unnamed Layer* 23) [Scale]_output from DataType.FLOAT to DataType.FLOAT - [aten_ops.torch.ops.aten._to_copy.default]-[/features/2/conv_0/2/_to_copy_4]",
            "LayerType": "NoOp",
            "Inputs": [
                {
                    "Name": "(Unnamed Layer* 23) [Scale]_output",
                    "Location": "Device",
                    "Dimensions": [
                        1,
                        96,
                        112,
                        112
                    ],
                    "Format/Datatype": "Channel major FP16 format where channel % 8 == 0"
                }
            ],
            "Outputs": [
                {
                    "Name": "(Unnamed Layer* 24) [Identity]_output",
                    "Location": "Device",
                    "Dimensions": [
                        1,
                        96,
                        112,
                        112
                    ],
                    "Format/Datatype": "Channel major FP16 format where channel % 8 == 0"
                }
            ],
            "TacticValue": "0x0000000000000000",
            "StreamId": 0,
            "Metadata": ""
        },
        {
            "Name": "PWN(/features/2/conv_0/2/clamp_2_min_rhs + /features/2/conv_0/2/clamp_2_min_rhs_broadcast, PWN(PWN(/features/2/conv_0/2/clamp_2_max_rhs + /features/2/conv_0/2/clamp_2_max_rhs_broadcast, [ELEMENTWISE]-[aten_ops.clamp.default]-[/features/2/conv_0/2/clamp_2_max]), [ELEMENTWISE]-[aten_ops.clamp.default]-[/features/2/conv_0/2/clamp_2_min]))",
            "LayerType": "PointWiseV2",
            "Inputs": [
                {
                    "Name": "(Unnamed Layer* 24) [Identity]_output",
                    "Location": "Device",
                    "Dimensions": [
                        1,
                        96,
                        112,
                        112
                    ],
                    "Format/Datatype": "Channel major FP16 format where channel % 8 == 0"
                }
            ],
            "Outputs": [
                {
                    "Name": "(Unnamed Layer* 30) [ElementWise]_output_clamp.default",
                    "Location": "Device",
                    "Dimensions": [
                        1,
                        96,
                        112,
                        112
                    ],
                    "Format/Datatype": "Channel major FP16 format where channel % 8 == 0"
                }
            ],
            "ParameterType": "PointWise",
            "ParameterSubType": "PointWiseExpression",
            "NbInputArgs": 1,
            "InputArgs": [
                "arg0"
            ],
            "NbOutputVars": 1,
            "OutputVars": [
                "var1"
            ],
            "NbParams": 0,
            "Params": [],
            "NbLiterals": 2,
            "Literals": [
                "6.000000e+00f",
                "0.000000e+00f"
            ],
            "NbOperations": 2,
            "Operations": [
                "auto const var0 = pwgen::iMax(arg0, literal1);",
                "auto const var1 = pwgen::iMin(var0, literal0);"
            ],
            "TacticValue": "0x000000000000001c",
            "StreamId": 0,
            "Metadata": ""
        },
        {
            "Name": "Forced Cast ITensor (Unnamed Layer* 30) [ElementWise]_output_clamp.default from DataType.FLOAT to DataType.HALF - [aten_ops.torch.ops.aten._to_copy.default]-[/features/2/conv_0/2/_to_copy_5]",
            "LayerType": "NoOp",
            "Inputs": [
                {
                    "Name": "(Unnamed Layer* 30) [ElementWise]_output_clamp.default",
                    "Location": "Device",
                    "Dimensions": [
                        1,
                        96,
                        112,
                        112
                    ],
                    "Format/Datatype": "Channel major FP16 format where channel % 8 == 0"
                }
            ],
            "Outputs": [
                {
                    "Name": "(Unnamed Layer* 31) [Identity]_output",
                    "Location": "Device",
                    "Dimensions": [
                        1,
                        96,
                        112,
                        112
                    ],
                    "Format/Datatype": "Channel major FP16 format where channel % 8 == 0"
                }
            ],
            "TacticValue": "0x0000000000000000",
            "StreamId": 0,
            "Metadata": ""
        },
        {
            "Name": "[CONVOLUTION]-[aten_ops.convolution.default]-[/features/2/conv_1/0/convolution_4] + [SCALE]-[aten_ops._native_batch_norm_legit_no_training.default]-[/features/2/conv_1/1/_native_batch_norm_legit_no_training_4]",
            "LayerType": "CaskConvolution",
            "Inputs": [
                {
                    "Name": "(Unnamed Layer* 31) [Identity]_output",
                    "Location": "Device",
                    "Dimensions": [
                        1,
                        96,
                        112,
                        112
                    ],
                    "Format/Datatype": "Channel major FP16 format where channel % 8 == 0"
                }
            ],
            "Outputs": [
                {
                    "Name": "(Unnamed Layer* 33) [Scale]_output",
                    "Location": "Device",
                    "Dimensions": [
                        1,
                        96,
                        56,
                        56
                    ],
                    "Format/Datatype": "Channel major FP16 format where channel % 8 == 0"
                }
            ],
            "ParameterType": "Convolution",
            "Kernel": [
                3,
                3
            ],
            "PaddingMode": "kEXPLICIT_ROUND_DOWN",
            "PrePadding": [
                1,
                1
            ],
            "PostPadding": [
                1,
                1
            ],
            "Stride": [
                2,
                2
            ],
            "Dilation": [
                1,
                1
            ],
            "OutMaps": 96,
            "Groups": 96,
            "Weights": {
                "Type": "Half",
                "Count": 864
            },
            "Bias": {
                "Type": "Half",
                "Count": 96
            },
            "HasSparseWeights": 0,
            "HasDynamicFilter": 0,
            "HasDynamicBias": 0,
            "HasResidual": 0,
            "ConvXAsActInputIdx": -1,
            "BiasAsActInputIdx": -1,
            "ResAsActInputIdx": -1,
            "Activation": "NONE",
            "HasBias": 1,
            "HasReLU": 0,
            "TacticName": "sm50_xmma_convolution_depthwiseHMMA_FP16NHWCx8_TR3_TS3_STRIDEH2_STRIDEW2",
            "TacticValue": "0x4a741be05296db88",
            "StreamId": 0,
            "Metadata": ""
        },
        {
            "Name": "Forced Cast ITensor (Unnamed Layer* 33) [Scale]_output from DataType.FLOAT to DataType.FLOAT - [aten_ops.torch.ops.aten._to_copy.default]-[/features/2/conv_1/2/_to_copy_6]",
            "LayerType": "NoOp",
            "Inputs": [
                {
                    "Name": "(Unnamed Layer* 33) [Scale]_output",
                    "Location": "Device",
                    "Dimensions": [
                        1,
                        96,
                        56,
                        56
                    ],
                    "Format/Datatype": "Channel major FP16 format where channel % 8 == 0"
                }
            ],
            "Outputs": [
                {
                    "Name": "(Unnamed Layer* 34) [Identity]_output",
                    "Location": "Device",
                    "Dimensions": [
                        1,
                        96,
                        56,
                        56
                    ],
                    "Format/Datatype": "Channel major FP16 format where channel % 8 == 0"
                }
            ],
            "TacticValue": "0x0000000000000000",
            "StreamId": 0,
            "Metadata": ""
        },
        {
            "Name": "PWN(/features/2/conv_1/2/clamp_3_min_rhs + /features/2/conv_1/2/clamp_3_min_rhs_broadcast, PWN(PWN(/features/2/conv_1/2/clamp_3_max_rhs + /features/2/conv_1/2/clamp_3_max_rhs_broadcast, [ELEMENTWISE]-[aten_ops.clamp.default]-[/features/2/conv_1/2/clamp_3_max]), [ELEMENTWISE]-[aten_ops.clamp.default]-[/features/2/conv_1/2/clamp_3_min]))",
            "LayerType": "PointWiseV2",
            "Inputs": [
                {
                    "Name": "(Unnamed Layer* 34) [Identity]_output",
                    "Location": "Device",
                    "Dimensions": [
                        1,
                        96,
                        56,
                        56
                    ],
                    "Format/Datatype": "Channel major FP16 format where channel % 8 == 0"
                }
            ],
            "Outputs": [
                {
                    "Name": "(Unnamed Layer* 40) [ElementWise]_output_clamp.default",
                    "Location": "Device",
                    "Dimensions": [
                        1,
                        96,
                        56,
                        56
                    ],
                    "Format/Datatype": "Channel major FP16 format where channel % 8 == 0"
                }
            ],
            "ParameterType": "PointWise",
            "ParameterSubType": "PointWiseExpression",
            "NbInputArgs": 1,
            "InputArgs": [
                "arg0"
            ],
            "NbOutputVars": 1,
            "OutputVars": [
                "var1"
            ],
            "NbParams": 0,
            "Params": [],
            "NbLiterals": 2,
            "Literals": [
                "6.000000e+00f",
                "0.000000e+00f"
            ],
            "NbOperations": 2,
            "Operations": [
                "auto const var0 = pwgen::iMax(arg0, literal1);",
                "auto const var1 = pwgen::iMin(var0, literal0);"
            ],
            "TacticValue": "0x0000000000000001",
            "StreamId": 0,
            "Metadata": ""
        },
        {
            "Name": "Forced Cast ITensor (Unnamed Layer* 40) [ElementWise]_output_clamp.default from DataType.FLOAT to DataType.HALF - [aten_ops.torch.ops.aten._to_copy.default]-[/features/2/conv_1/2/_to_copy_7]",
            "LayerType": "NoOp",
            "Inputs": [
                {
                    "Name": "(Unnamed Layer* 40) [ElementWise]_output_clamp.default",
                    "Location": "Device",
                    "Dimensions": [
                        1,
                        96,
                        56,
                        56
                    ],
                    "Format/Datatype": "Channel major FP16 format where channel % 8 == 0"
                }
            ],
            "Outputs": [
                {
                    "Name": "(Unnamed Layer* 41) [Identity]_output",
                    "Location": "Device",
                    "Dimensions": [
                        1,
                        96,
                        56,
                        56
                    ],
                    "Format/Datatype": "Channel major FP16 format where channel % 8 == 0"
                }
            ],
            "TacticValue": "0x0000000000000000",
            "StreamId": 0,
            "Metadata": ""
        },
        {
            "Name": "[CONVOLUTION]-[aten_ops.convolution.default]-[/features/2/conv/2/convolution_5] + [SCALE]-[aten_ops._native_batch_norm_legit_no_training.default]-[/features/2/conv/3/_native_batch_norm_legit_no_training_5]",
            "LayerType": "CaskConvolution",
            "Inputs": [
                {
                    "Name": "(Unnamed Layer* 41) [Identity]_output",
                    "Location": "Device",
                    "Dimensions": [
                        1,
                        96,
                        56,
                        56
                    ],
                    "Format/Datatype": "Channel major FP16 format where channel % 8 == 0"
                }
            ],
            "Outputs": [
                {
                    "Name": "(Unnamed Layer* 43) [Scale]_output",
                    "Location": "Device",
                    "Dimensions": [
                        1,
                        24,
                        56,
                        56
                    ],
                    "Format/Datatype": "Channel major FP16 format where channel % 8 == 0"
                }
            ],
            "ParameterType": "Convolution",
            "Kernel": [
                1,
                1
            ],
            "PaddingMode": "kEXPLICIT_ROUND_DOWN",
            "PrePadding": [
                0,
                0
            ],
            "PostPadding": [
                0,
                0
            ],
            "Stride": [
                1,
                1
            ],
            "Dilation": [
                1,
                1
            ],
            "OutMaps": 24,
            "Groups": 1,
            "Weights": {
                "Type": "Half",
                "Count": 2304
            },
            "Bias": {
                "Type": "Half",
                "Count": 24
            },
            "HasSparseWeights": 0,
            "HasDynamicFilter": 0,
            "HasDynamicBias": 0,
            "HasResidual": 0,
            "ConvXAsActInputIdx": -1,
            "BiasAsActInputIdx": -1,
            "ResAsActInputIdx": -1,
            "Activation": "NONE",
            "HasBias": 1,
            "HasReLU": 0,
            "TacticName": "sm80_xmma_fprop_implicit_gemm_f16f16_f16f16_f16_nhwckrsc_nhwc_tilesize256x32x32_stage4_warpsize4x1x1_g1_tensor16x8x16_simple_t1r1s1",
            "TacticValue": "0x3ca70d6b51bf2164",
            "StreamId": 0,
            "Metadata": ""
        },
        {
            "Name": "[CONVOLUTION]-[aten_ops.convolution.default]-[/features/3/conv_0/0/convolution_6] + [SCALE]-[aten_ops._native_batch_norm_legit_no_training.default]-[/features/3/conv_0/1/_native_batch_norm_legit_no_training_6]",
            "LayerType": "CaskConvolution",
            "Inputs": [
                {
                    "Name": "(Unnamed Layer* 43) [Scale]_output",
                    "Location": "Device",
                    "Dimensions": [
                        1,
                        24,
                        56,
                        56
                    ],
                    "Format/Datatype": "Channel major FP16 format where channel % 8 == 0"
                }
            ],
            "Outputs": [
                {
                    "Name": "(Unnamed Layer* 45) [Scale]_output",
                    "Location": "Device",
                    "Dimensions": [
                        1,
                        144,
                        56,
                        56
                    ],
                    "Format/Datatype": "Channel major FP16 format where channel % 8 == 0"
                }
            ],
            "ParameterType": "Convolution",
            "Kernel": [
                1,
                1
            ],
            "PaddingMode": "kEXPLICIT_ROUND_DOWN",
            "PrePadding": [
                0,
                0
            ],
            "PostPadding": [
                0,
                0
            ],
            "Stride": [
                1,
                1
            ],
            "Dilation": [
                1,
                1
            ],
            "OutMaps": 144,
            "Groups": 1,
            "Weights": {
                "Type": "Half",
                "Count": 3456
            },
            "Bias": {
                "Type": "Half",
                "Count": 144
            },
            "HasSparseWeights": 0,
            "HasDynamicFilter": 0,
            "HasDynamicBias": 0,
            "HasResidual": 0,
            "ConvXAsActInputIdx": -1,
            "BiasAsActInputIdx": -1,
            "ResAsActInputIdx": -1,
            "Activation": "NONE",
            "HasBias": 1,
            "HasReLU": 0,
            "TacticName": "sm80_xmma_fprop_implicit_gemm_indexed_wo_smem_f16f16_f16f16_f16_nhwckrsc_nhwc_tilesize128x32x16_stage1_warpsize4x1x1_g1_tensor16x8x16_aligna8_alignc8",
            "TacticValue": "0xfb0beb2dd64ff6e8",
            "StreamId": 0,
            "Metadata": ""
        },
        {
            "Name": "Forced Cast ITensor (Unnamed Layer* 45) [Scale]_output from DataType.FLOAT to DataType.FLOAT - [aten_ops.torch.ops.aten._to_copy.default]-[/features/3/conv_0/2/_to_copy_8]",
            "LayerType": "NoOp",
            "Inputs": [
                {
                    "Name": "(Unnamed Layer* 45) [Scale]_output",
                    "Location": "Device",
                    "Dimensions": [
                        1,
                        144,
                        56,
                        56
                    ],
                    "Format/Datatype": "Channel major FP16 format where channel % 8 == 0"
                }
            ],
            "Outputs": [
                {
                    "Name": "(Unnamed Layer* 46) [Identity]_output",
                    "Location": "Device",
                    "Dimensions": [
                        1,
                        144,
                        56,
                        56
                    ],
                    "Format/Datatype": "Channel major FP16 format where channel % 16 == 0"
                }
            ],
            "TacticValue": "0x0000000000000000",
            "StreamId": 0,
            "Metadata": ""
        },
        {
            "Name": "PWN(/features/3/conv_0/2/clamp_4_min_rhs + /features/3/conv_0/2/clamp_4_min_rhs_broadcast, PWN(PWN(/features/3/conv_0/2/clamp_4_max_rhs + /features/3/conv_0/2/clamp_4_max_rhs_broadcast, [ELEMENTWISE]-[aten_ops.clamp.default]-[/features/3/conv_0/2/clamp_4_max]), [ELEMENTWISE]-[aten_ops.clamp.default]-[/features/3/conv_0/2/clamp_4_min]))",
            "LayerType": "PointWiseV2",
            "Inputs": [
                {
                    "Name": "(Unnamed Layer* 46) [Identity]_output",
                    "Location": "Device",
                    "Dimensions": [
                        1,
                        144,
                        56,
                        56
                    ],
                    "Format/Datatype": "Channel major FP16 format where channel % 16 == 0"
                }
            ],
            "Outputs": [
                {
                    "Name": "(Unnamed Layer* 52) [ElementWise]_output_clamp.default",
                    "Location": "Device",
                    "Dimensions": [
                        1,
                        144,
                        56,
                        56
                    ],
                    "Format/Datatype": "Channel major FP16 format where channel % 16 == 0"
                }
            ],
            "ParameterType": "PointWise",
            "ParameterSubType": "PointWiseExpression",
            "NbInputArgs": 1,
            "InputArgs": [
                "arg0"
            ],
            "NbOutputVars": 1,
            "OutputVars": [
                "var1"
            ],
            "NbParams": 0,
            "Params": [],
            "NbLiterals": 2,
            "Literals": [
                "6.000000e+00f",
                "0.000000e+00f"
            ],
            "NbOperations": 2,
            "Operations": [
                "auto const var0 = pwgen::iMax(arg0, literal1);",
                "auto const var1 = pwgen::iMin(var0, literal0);"
            ],
            "TacticValue": "0x000000000000001d",
            "StreamId": 0,
            "Metadata": ""
        },
        {
            "Name": "Forced Cast ITensor (Unnamed Layer* 52) [ElementWise]_output_clamp.default from DataType.FLOAT to DataType.HALF - [aten_ops.torch.ops.aten._to_copy.default]-[/features/3/conv_0/2/_to_copy_9]",
            "LayerType": "NoOp",
            "Inputs": [
                {
                    "Name": "(Unnamed Layer* 52) [ElementWise]_output_clamp.default",
                    "Location": "Device",
                    "Dimensions": [
                        1,
                        144,
                        56,
                        56
                    ],
                    "Format/Datatype": "Channel major FP16 format where channel % 16 == 0"
                }
            ],
            "Outputs": [
                {
                    "Name": "(Unnamed Layer* 53) [Identity]_output",
                    "Location": "Device",
                    "Dimensions": [
                        1,
                        144,
                        56,
                        56
                    ],
                    "Format/Datatype": "Channel major FP16 format where channel % 8 == 0"
                }
            ],
            "TacticValue": "0x0000000000000000",
            "StreamId": 0,
            "Metadata": ""
        },
        {
            "Name": "[CONVOLUTION]-[aten_ops.convolution.default]-[/features/3/conv_1/0/convolution_7] + [SCALE]-[aten_ops._native_batch_norm_legit_no_training.default]-[/features/3/conv_1/1/_native_batch_norm_legit_no_training_7]",
            "LayerType": "CaskConvolution",
            "Inputs": [
                {
                    "Name": "(Unnamed Layer* 53) [Identity]_output",
                    "Location": "Device",
                    "Dimensions": [
                        1,
                        144,
                        56,
                        56
                    ],
                    "Format/Datatype": "Channel major FP16 format where channel % 8 == 0"
                }
            ],
            "Outputs": [
                {
                    "Name": "(Unnamed Layer* 55) [Scale]_output",
                    "Location": "Device",
                    "Dimensions": [
                        1,
                        144,
                        56,
                        56
                    ],
                    "Format/Datatype": "Channel major FP16 format where channel % 8 == 0"
                }
            ],
            "ParameterType": "Convolution",
            "Kernel": [
                3,
                3
            ],
            "PaddingMode": "kEXPLICIT_ROUND_DOWN",
            "PrePadding": [
                1,
                1
            ],
            "PostPadding": [
                1,
                1
            ],
            "Stride": [
                1,
                1
            ],
            "Dilation": [
                1,
                1
            ],
            "OutMaps": 144,
            "Groups": 144,
            "Weights": {
                "Type": "Half",
                "Count": 1296
            },
            "Bias": {
                "Type": "Half",
                "Count": 144
            },
            "HasSparseWeights": 0,
            "HasDynamicFilter": 0,
            "HasDynamicBias": 0,
            "HasResidual": 0,
            "ConvXAsActInputIdx": -1,
            "BiasAsActInputIdx": -1,
            "ResAsActInputIdx": -1,
            "Activation": "NONE",
            "HasBias": 1,
            "HasReLU": 0,
            "TacticName": "sm50_xmma_convolution_depthwiseHMMA_FP16NHWCx8_TR3_TS3_STRIDEH1_STRIDEW1",
            "TacticValue": "0xf9f6e2e1b0fd88e6",
            "StreamId": 0,
            "Metadata": ""
        },
        {
            "Name": "Forced Cast ITensor (Unnamed Layer* 55) [Scale]_output from DataType.FLOAT to DataType.FLOAT - [aten_ops.torch.ops.aten._to_copy.default]-[/features/3/conv_1/2/_to_copy_10]",
            "LayerType": "NoOp",
            "Inputs": [
                {
                    "Name": "(Unnamed Layer* 55) [Scale]_output",
                    "Location": "Device",
                    "Dimensions": [
                        1,
                        144,
                        56,
                        56
                    ],
                    "Format/Datatype": "Channel major FP16 format where channel % 8 == 0"
                }
            ],
            "Outputs": [
                {
                    "Name": "(Unnamed Layer* 56) [Identity]_output",
                    "Location": "Device",
                    "Dimensions": [
                        1,
                        144,
                        56,
                        56
                    ],
                    "Format/Datatype": "Channel major FP16 format where channel % 16 == 0"
                }
            ],
            "TacticValue": "0x0000000000000000",
            "StreamId": 0,
            "Metadata": ""
        },
        {
            "Name": "PWN(/features/3/conv_1/2/clamp_5_min_rhs + /features/3/conv_1/2/clamp_5_min_rhs_broadcast, PWN(PWN(/features/3/conv_1/2/clamp_5_max_rhs + /features/3/conv_1/2/clamp_5_max_rhs_broadcast, [ELEMENTWISE]-[aten_ops.clamp.default]-[/features/3/conv_1/2/clamp_5_max]), [ELEMENTWISE]-[aten_ops.clamp.default]-[/features/3/conv_1/2/clamp_5_min]))",
            "LayerType": "PointWiseV2",
            "Inputs": [
                {
                    "Name": "(Unnamed Layer* 56) [Identity]_output",
                    "Location": "Device",
                    "Dimensions": [
                        1,
                        144,
                        56,
                        56
                    ],
                    "Format/Datatype": "Channel major FP16 format where channel % 16 == 0"
                }
            ],
            "Outputs": [
                {
                    "Name": "(Unnamed Layer* 62) [ElementWise]_output_clamp.default",
                    "Location": "Device",
                    "Dimensions": [
                        1,
                        144,
                        56,
                        56
                    ],
                    "Format/Datatype": "Channel major FP16 format where channel % 16 == 0"
                }
            ],
            "ParameterType": "PointWise",
            "ParameterSubType": "PointWiseExpression",
            "NbInputArgs": 1,
            "InputArgs": [
                "arg0"
            ],
            "NbOutputVars": 1,
            "OutputVars": [
                "var1"
            ],
            "NbParams": 0,
            "Params": [],
            "NbLiterals": 2,
            "Literals": [
                "6.000000e+00f",
                "0.000000e+00f"
            ],
            "NbOperations": 2,
            "Operations": [
                "auto const var0 = pwgen::iMax(arg0, literal1);",
                "auto const var1 = pwgen::iMin(var0, literal0);"
            ],
            "TacticValue": "0x000000000000001d",
            "StreamId": 0,
            "Metadata": ""
        },
        {
            "Name": "Forced Cast ITensor (Unnamed Layer* 62) [ElementWise]_output_clamp.default from DataType.FLOAT to DataType.HALF - [aten_ops.torch.ops.aten._to_copy.default]-[/features/3/conv_1/2/_to_copy_11]",
            "LayerType": "NoOp",
            "Inputs": [
                {
                    "Name": "(Unnamed Layer* 62) [ElementWise]_output_clamp.default",
                    "Location": "Device",
                    "Dimensions": [
                        1,
                        144,
                        56,
                        56
                    ],
                    "Format/Datatype": "Channel major FP16 format where channel % 16 == 0"
                }
            ],
            "Outputs": [
                {
                    "Name": "(Unnamed Layer* 63) [Identity]_output",
                    "Location": "Device",
                    "Dimensions": [
                        1,
                        144,
                        56,
                        56
                    ],
                    "Format/Datatype": "Channel major FP16 format where channel % 8 == 0"
                }
            ],
            "TacticValue": "0x0000000000000000",
            "StreamId": 0,
            "Metadata": ""
        },
        {
            "Name": "[CONVOLUTION]-[aten_ops.convolution.default]-[/features/3/conv/2/convolution_8] + [SCALE]-[aten_ops._native_batch_norm_legit_no_training.default]-[/features/3/conv/3/_native_batch_norm_legit_no_training_8] + [ELEMENTWISE]-[aten_ops.add.Tensor]-[/features/3/add]",
            "LayerType": "CaskConvolution",
            "Inputs": [
                {
                    "Name": "(Unnamed Layer* 63) [Identity]_output",
                    "Location": "Device",
                    "Dimensions": [
                        1,
                        144,
                        56,
                        56
                    ],
                    "Format/Datatype": "Channel major FP16 format where channel % 8 == 0"
                },
                {
                    "Name": "(Unnamed Layer* 43) [Scale]_output",
                    "Location": "Device",
                    "Dimensions": [
                        1,
                        24,
                        56,
                        56
                    ],
                    "Format/Datatype": "Channel major FP16 format where channel % 8 == 0"
                }
            ],
            "Outputs": [
                {
                    "Name": "(Unnamed Layer* 66) [ElementWise]_output_add.Tensor",
                    "Location": "Device",
                    "Dimensions": [
                        1,
                        24,
                        56,
                        56
                    ],
                    "Format/Datatype": "Channel major FP16 format where channel % 8 == 0"
                }
            ],
            "ParameterType": "Convolution",
            "Kernel": [
                1,
                1
            ],
            "PaddingMode": "kEXPLICIT_ROUND_DOWN",
            "PrePadding": [
                0,
                0
            ],
            "PostPadding": [
                0,
                0
            ],
            "Stride": [
                1,
                1
            ],
            "Dilation": [
                1,
                1
            ],
            "OutMaps": 24,
            "Groups": 1,
            "Weights": {
                "Type": "Half",
                "Count": 3456
            },
            "Bias": {
                "Type": "Half",
                "Count": 24
            },
            "HasSparseWeights": 0,
            "HasDynamicFilter": 0,
            "HasDynamicBias": 0,
            "HasResidual": 1,
            "ConvXAsActInputIdx": -1,
            "BiasAsActInputIdx": -1,
            "ResAsActInputIdx": -1,
            "Activation": "NONE",
            "HasBias": 1,
            "HasReLU": 0,
            "TacticName": "sm80_xmma_fprop_implicit_gemm_f16f16_f16f16_f16_nhwckrsc_nhwc_tilesize256x32x32_stage4_warpsize4x1x1_g1_tensor16x8x16",
            "TacticValue": "0xa83b68f30462f971",
            "StreamId": 0,
            "Metadata": ""
        },
        {
            "Name": "[CONVOLUTION]-[aten_ops.convolution.default]-[/features/4/conv_0/0/convolution_9] + [SCALE]-[aten_ops._native_batch_norm_legit_no_training.default]-[/features/4/conv_0/1/_native_batch_norm_legit_no_training_9]",
            "LayerType": "CaskConvolution",
            "Inputs": [
                {
                    "Name": "(Unnamed Layer* 66) [ElementWise]_output_add.Tensor",
                    "Location": "Device",
                    "Dimensions": [
                        1,
                        24,
                        56,
                        56
                    ],
                    "Format/Datatype": "Channel major FP16 format where channel % 8 == 0"
                }
            ],
            "Outputs": [
                {
                    "Name": "(Unnamed Layer* 68) [Scale]_output",
                    "Location": "Device",
                    "Dimensions": [
                        1,
                        144,
                        56,
                        56
                    ],
                    "Format/Datatype": "Channel major FP16 format where channel % 8 == 0"
                }
            ],
            "ParameterType": "Convolution",
            "Kernel": [
                1,
                1
            ],
            "PaddingMode": "kEXPLICIT_ROUND_DOWN",
            "PrePadding": [
                0,
                0
            ],
            "PostPadding": [
                0,
                0
            ],
            "Stride": [
                1,
                1
            ],
            "Dilation": [
                1,
                1
            ],
            "OutMaps": 144,
            "Groups": 1,
            "Weights": {
                "Type": "Half",
                "Count": 3456
            },
            "Bias": {
                "Type": "Half",
                "Count": 144
            },
            "HasSparseWeights": 0,
            "HasDynamicFilter": 0,
            "HasDynamicBias": 0,
            "HasResidual": 0,
            "ConvXAsActInputIdx": -1,
            "BiasAsActInputIdx": -1,
            "ResAsActInputIdx": -1,
            "Activation": "NONE",
            "HasBias": 1,
            "HasReLU": 0,
            "TacticName": "sm80_xmma_fprop_implicit_gemm_indexed_wo_smem_f16f16_f16f16_f16_nhwckrsc_nhwc_tilesize128x32x16_stage1_warpsize4x1x1_g1_tensor16x8x16_aligna8_alignc8",
            "TacticValue": "0xfb0beb2dd64ff6e8",
            "StreamId": 0,
            "Metadata": ""
        },
        {
            "Name": "Forced Cast ITensor (Unnamed Layer* 68) [Scale]_output from DataType.FLOAT to DataType.FLOAT - [aten_ops.torch.ops.aten._to_copy.default]-[/features/4/conv_0/2/_to_copy_12]",
            "LayerType": "NoOp",
            "Inputs": [
                {
                    "Name": "(Unnamed Layer* 68) [Scale]_output",
                    "Location": "Device",
                    "Dimensions": [
                        1,
                        144,
                        56,
                        56
                    ],
                    "Format/Datatype": "Channel major FP16 format where channel % 8 == 0"
                }
            ],
            "Outputs": [
                {
                    "Name": "(Unnamed Layer* 69) [Identity]_output",
                    "Location": "Device",
                    "Dimensions": [
                        1,
                        144,
                        56,
                        56
                    ],
                    "Format/Datatype": "Channel major FP16 format where channel % 16 == 0"
                }
            ],
            "TacticValue": "0x0000000000000000",
            "StreamId": 0,
            "Metadata": ""
        },
        {
            "Name": "PWN(/features/4/conv_0/2/clamp_6_min_rhs + /features/4/conv_0/2/clamp_6_min_rhs_broadcast, PWN(PWN(/features/4/conv_0/2/clamp_6_max_rhs + /features/4/conv_0/2/clamp_6_max_rhs_broadcast, [ELEMENTWISE]-[aten_ops.clamp.default]-[/features/4/conv_0/2/clamp_6_max]), [ELEMENTWISE]-[aten_ops.clamp.default]-[/features/4/conv_0/2/clamp_6_min]))",
            "LayerType": "PointWiseV2",
            "Inputs": [
                {
                    "Name": "(Unnamed Layer* 69) [Identity]_output",
                    "Location": "Device",
                    "Dimensions": [
                        1,
                        144,
                        56,
                        56
                    ],
                    "Format/Datatype": "Channel major FP16 format where channel % 16 == 0"
                }
            ],
            "Outputs": [
                {
                    "Name": "(Unnamed Layer* 75) [ElementWise]_output_clamp.default",
                    "Location": "Device",
                    "Dimensions": [
                        1,
                        144,
                        56,
                        56
                    ],
                    "Format/Datatype": "Channel major FP16 format where channel % 16 == 0"
                }
            ],
            "ParameterType": "PointWise",
            "ParameterSubType": "PointWiseExpression",
            "NbInputArgs": 1,
            "InputArgs": [
                "arg0"
            ],
            "NbOutputVars": 1,
            "OutputVars": [
                "var1"
            ],
            "NbParams": 0,
            "Params": [],
            "NbLiterals": 2,
            "Literals": [
                "6.000000e+00f",
                "0.000000e+00f"
            ],
            "NbOperations": 2,
            "Operations": [
                "auto const var0 = pwgen::iMax(arg0, literal1);",
                "auto const var1 = pwgen::iMin(var0, literal0);"
            ],
            "TacticValue": "0x000000000000001d",
            "StreamId": 0,
            "Metadata": ""
        },
        {
            "Name": "Forced Cast ITensor (Unnamed Layer* 75) [ElementWise]_output_clamp.default from DataType.FLOAT to DataType.HALF - [aten_ops.torch.ops.aten._to_copy.default]-[/features/4/conv_0/2/_to_copy_13]",
            "LayerType": "NoOp",
            "Inputs": [
                {
                    "Name": "(Unnamed Layer* 75) [ElementWise]_output_clamp.default",
                    "Location": "Device",
                    "Dimensions": [
                        1,
                        144,
                        56,
                        56
                    ],
                    "Format/Datatype": "Channel major FP16 format where channel % 16 == 0"
                }
            ],
            "Outputs": [
                {
                    "Name": "(Unnamed Layer* 76) [Identity]_output",
                    "Location": "Device",
                    "Dimensions": [
                        1,
                        144,
                        56,
                        56
                    ],
                    "Format/Datatype": "Channel major FP16 format where channel % 8 == 0"
                }
            ],
            "TacticValue": "0x0000000000000000",
            "StreamId": 0,
            "Metadata": ""
        },
        {
            "Name": "[CONVOLUTION]-[aten_ops.convolution.default]-[/features/4/conv_1/0/convolution_10] + [SCALE]-[aten_ops._native_batch_norm_legit_no_training.default]-[/features/4/conv_1/1/_native_batch_norm_legit_no_training_10]",
            "LayerType": "CaskConvolution",
            "Inputs": [
                {
                    "Name": "(Unnamed Layer* 76) [Identity]_output",
                    "Location": "Device",
                    "Dimensions": [
                        1,
                        144,
                        56,
                        56
                    ],
                    "Format/Datatype": "Channel major FP16 format where channel % 8 == 0"
                }
            ],
            "Outputs": [
                {
                    "Name": "(Unnamed Layer* 78) [Scale]_output",
                    "Location": "Device",
                    "Dimensions": [
                        1,
                        144,
                        28,
                        28
                    ],
                    "Format/Datatype": "Channel major FP16 format where channel % 8 == 0"
                }
            ],
            "ParameterType": "Convolution",
            "Kernel": [
                3,
                3
            ],
            "PaddingMode": "kEXPLICIT_ROUND_DOWN",
            "PrePadding": [
                1,
                1
            ],
            "PostPadding": [
                1,
                1
            ],
            "Stride": [
                2,
                2
            ],
            "Dilation": [
                1,
                1
            ],
            "OutMaps": 144,
            "Groups": 144,
            "Weights": {
                "Type": "Half",
                "Count": 1296
            },
            "Bias": {
                "Type": "Half",
                "Count": 144
            },
            "HasSparseWeights": 0,
            "HasDynamicFilter": 0,
            "HasDynamicBias": 0,
            "HasResidual": 0,
            "ConvXAsActInputIdx": -1,
            "BiasAsActInputIdx": -1,
            "ResAsActInputIdx": -1,
            "Activation": "NONE",
            "HasBias": 1,
            "HasReLU": 0,
            "TacticName": "sm50_xmma_convolution_depthwiseHMMA_FP16NHWCx8_TR3_TS3_STRIDEH2_STRIDEW2",
            "TacticValue": "0x4a741be05296db88",
            "StreamId": 0,
            "Metadata": ""
        },
        {
            "Name": "Forced Cast ITensor (Unnamed Layer* 78) [Scale]_output from DataType.FLOAT to DataType.FLOAT - [aten_ops.torch.ops.aten._to_copy.default]-[/features/4/conv_1/2/_to_copy_14]",
            "LayerType": "NoOp",
            "Inputs": [
                {
                    "Name": "(Unnamed Layer* 78) [Scale]_output",
                    "Location": "Device",
                    "Dimensions": [
                        1,
                        144,
                        28,
                        28
                    ],
                    "Format/Datatype": "Channel major FP16 format where channel % 8 == 0"
                }
            ],
            "Outputs": [
                {
                    "Name": "(Unnamed Layer* 79) [Identity]_output",
                    "Location": "Device",
                    "Dimensions": [
                        1,
                        144,
                        28,
                        28
                    ],
                    "Format/Datatype": "Channel major FP16 format where channel % 8 == 0"
                }
            ],
            "TacticValue": "0x0000000000000000",
            "StreamId": 0,
            "Metadata": ""
        },
        {
            "Name": "PWN(/features/4/conv_1/2/clamp_7_min_rhs + /features/4/conv_1/2/clamp_7_min_rhs_broadcast, PWN(PWN(/features/4/conv_1/2/clamp_7_max_rhs + /features/4/conv_1/2/clamp_7_max_rhs_broadcast, [ELEMENTWISE]-[aten_ops.clamp.default]-[/features/4/conv_1/2/clamp_7_max]), [ELEMENTWISE]-[aten_ops.clamp.default]-[/features/4/conv_1/2/clamp_7_min]))",
            "LayerType": "PointWiseV2",
            "Inputs": [
                {
                    "Name": "(Unnamed Layer* 79) [Identity]_output",
                    "Location": "Device",
                    "Dimensions": [
                        1,
                        144,
                        28,
                        28
                    ],
                    "Format/Datatype": "Channel major FP16 format where channel % 8 == 0"
                }
            ],
            "Outputs": [
                {
                    "Name": "(Unnamed Layer* 85) [ElementWise]_output_clamp.default",
                    "Location": "Device",
                    "Dimensions": [
                        1,
                        144,
                        28,
                        28
                    ],
                    "Format/Datatype": "Channel major FP16 format where channel % 8 == 0"
                }
            ],
            "ParameterType": "PointWise",
            "ParameterSubType": "PointWiseExpression",
            "NbInputArgs": 1,
            "InputArgs": [
                "arg0"
            ],
            "NbOutputVars": 1,
            "OutputVars": [
                "var1"
            ],
            "NbParams": 0,
            "Params": [],
            "NbLiterals": 2,
            "Literals": [
                "6.000000e+00f",
                "0.000000e+00f"
            ],
            "NbOperations": 2,
            "Operations": [
                "auto const var0 = pwgen::iMax(arg0, literal1);",
                "auto const var1 = pwgen::iMin(var0, literal0);"
            ],
            "TacticValue": "0x000000000000001c",
            "StreamId": 0,
            "Metadata": ""
        },
        {
            "Name": "Forced Cast ITensor (Unnamed Layer* 85) [ElementWise]_output_clamp.default from DataType.FLOAT to DataType.HALF - [aten_ops.torch.ops.aten._to_copy.default]-[/features/4/conv_1/2/_to_copy_15]",
            "LayerType": "NoOp",
            "Inputs": [
                {
                    "Name": "(Unnamed Layer* 85) [ElementWise]_output_clamp.default",
                    "Location": "Device",
                    "Dimensions": [
                        1,
                        144,
                        28,
                        28
                    ],
                    "Format/Datatype": "Channel major FP16 format where channel % 8 == 0"
                }
            ],
            "Outputs": [
                {
                    "Name": "(Unnamed Layer* 86) [Identity]_output",
                    "Location": "Device",
                    "Dimensions": [
                        1,
                        144,
                        28,
                        28
                    ],
                    "Format/Datatype": "Channel major FP16 format where channel % 8 == 0"
                }
            ],
            "TacticValue": "0x0000000000000000",
            "StreamId": 0,
            "Metadata": ""
        },
        {
            "Name": "[CONVOLUTION]-[aten_ops.convolution.default]-[/features/4/conv/2/convolution_11] + [SCALE]-[aten_ops._native_batch_norm_legit_no_training.default]-[/features/4/conv/3/_native_batch_norm_legit_no_training_11]",
            "LayerType": "CaskConvolution",
            "Inputs": [
                {
                    "Name": "(Unnamed Layer* 86) [Identity]_output",
                    "Location": "Device",
                    "Dimensions": [
                        1,
                        144,
                        28,
                        28
                    ],
                    "Format/Datatype": "Channel major FP16 format where channel % 8 == 0"
                }
            ],
            "Outputs": [
                {
                    "Name": "(Unnamed Layer* 88) [Scale]_output",
                    "Location": "Device",
                    "Dimensions": [
                        1,
                        32,
                        28,
                        28
                    ],
                    "Format/Datatype": "Channel major FP16 format where channel % 8 == 0"
                }
            ],
            "ParameterType": "Convolution",
            "Kernel": [
                1,
                1
            ],
            "PaddingMode": "kEXPLICIT_ROUND_DOWN",
            "PrePadding": [
                0,
                0
            ],
            "PostPadding": [
                0,
                0
            ],
            "Stride": [
                1,
                1
            ],
            "Dilation": [
                1,
                1
            ],
            "OutMaps": 32,
            "Groups": 1,
            "Weights": {
                "Type": "Half",
                "Count": 4608
            },
            "Bias": {
                "Type": "Half",
                "Count": 32
            },
            "HasSparseWeights": 0,
            "HasDynamicFilter": 0,
            "HasDynamicBias": 0,
            "HasResidual": 0,
            "ConvXAsActInputIdx": -1,
            "BiasAsActInputIdx": -1,
            "ResAsActInputIdx": -1,
            "Activation": "NONE",
            "HasBias": 1,
            "HasReLU": 0,
            "TacticName": "sm80_xmma_fprop_implicit_gemm_f16f16_f16f16_f16_nhwckrsc_nhwc_tilesize128x32x32_stage4_warpsize4x1x1_g1_tensor16x8x16_simple_t1r1s1",
            "TacticValue": "0x8047bcfcebface4a",
            "StreamId": 0,
            "Metadata": ""
        },
        {
            "Name": "[CONVOLUTION]-[aten_ops.convolution.default]-[/features/5/conv_0/0/convolution_12] + [SCALE]-[aten_ops._native_batch_norm_legit_no_training.default]-[/features/5/conv_0/1/_native_batch_norm_legit_no_training_12]",
            "LayerType": "CaskConvolution",
            "Inputs": [
                {
                    "Name": "(Unnamed Layer* 88) [Scale]_output",
                    "Location": "Device",
                    "Dimensions": [
                        1,
                        32,
                        28,
                        28
                    ],
                    "Format/Datatype": "Channel major FP16 format where channel % 8 == 0"
                }
            ],
            "Outputs": [
                {
                    "Name": "(Unnamed Layer* 90) [Scale]_output",
                    "Location": "Device",
                    "Dimensions": [
                        1,
                        192,
                        28,
                        28
                    ],
                    "Format/Datatype": "Channel major FP16 format where channel % 8 == 0"
                }
            ],
            "ParameterType": "Convolution",
            "Kernel": [
                1,
                1
            ],
            "PaddingMode": "kEXPLICIT_ROUND_DOWN",
            "PrePadding": [
                0,
                0
            ],
            "PostPadding": [
                0,
                0
            ],
            "Stride": [
                1,
                1
            ],
            "Dilation": [
                1,
                1
            ],
            "OutMaps": 192,
            "Groups": 1,
            "Weights": {
                "Type": "Half",
                "Count": 6144
            },
            "Bias": {
                "Type": "Half",
                "Count": 192
            },
            "HasSparseWeights": 0,
            "HasDynamicFilter": 0,
            "HasDynamicBias": 0,
            "HasResidual": 0,
            "ConvXAsActInputIdx": -1,
            "BiasAsActInputIdx": -1,
            "ResAsActInputIdx": -1,
            "Activation": "NONE",
            "HasBias": 1,
            "HasReLU": 0,
            "TacticName": "sm80_xmma_fprop_implicit_gemm_indexed_wo_smem_f16f16_f16f16_f16_nhwckrsc_nhwc_tilesize128x32x16_stage1_warpsize4x1x1_g1_tensor16x8x16_aligna8_alignc8",
            "TacticValue": "0xfb0beb2dd64ff6e8",
            "StreamId": 0,
            "Metadata": ""
        },
        {
            "Name": "Forced Cast ITensor (Unnamed Layer* 90) [Scale]_output from DataType.FLOAT to DataType.FLOAT - [aten_ops.torch.ops.aten._to_copy.default]-[/features/5/conv_0/2/_to_copy_16]",
            "LayerType": "NoOp",
            "Inputs": [
                {
                    "Name": "(Unnamed Layer* 90) [Scale]_output",
                    "Location": "Device",
                    "Dimensions": [
                        1,
                        192,
                        28,
                        28
                    ],
                    "Format/Datatype": "Channel major FP16 format where channel % 8 == 0"
                }
            ],
            "Outputs": [
                {
                    "Name": "(Unnamed Layer* 91) [Identity]_output",
                    "Location": "Device",
                    "Dimensions": [
                        1,
                        192,
                        28,
                        28
                    ],
                    "Format/Datatype": "Channel major FP16 format where channel % 8 == 0"
                }
            ],
            "TacticValue": "0x0000000000000000",
            "StreamId": 0,
            "Metadata": ""
        },
        {
            "Name": "PWN(/features/5/conv_0/2/clamp_8_min_rhs + /features/5/conv_0/2/clamp_8_min_rhs_broadcast, PWN(PWN(/features/5/conv_0/2/clamp_8_max_rhs + /features/5/conv_0/2/clamp_8_max_rhs_broadcast, [ELEMENTWISE]-[aten_ops.clamp.default]-[/features/5/conv_0/2/clamp_8_max]), [ELEMENTWISE]-[aten_ops.clamp.default]-[/features/5/conv_0/2/clamp_8_min]))",
            "LayerType": "PointWiseV2",
            "Inputs": [
                {
                    "Name": "(Unnamed Layer* 91) [Identity]_output",
                    "Location": "Device",
                    "Dimensions": [
                        1,
                        192,
                        28,
                        28
                    ],
                    "Format/Datatype": "Channel major FP16 format where channel % 8 == 0"
                }
            ],
            "Outputs": [
                {
                    "Name": "(Unnamed Layer* 97) [ElementWise]_output_clamp.default",
                    "Location": "Device",
                    "Dimensions": [
                        1,
                        192,
                        28,
                        28
                    ],
                    "Format/Datatype": "Channel major FP16 format where channel % 8 == 0"
                }
            ],
            "ParameterType": "PointWise",
            "ParameterSubType": "PointWiseExpression",
            "NbInputArgs": 1,
            "InputArgs": [
                "arg0"
            ],
            "NbOutputVars": 1,
            "OutputVars": [
                "var1"
            ],
            "NbParams": 0,
            "Params": [],
            "NbLiterals": 2,
            "Literals": [
                "6.000000e+00f",
                "0.000000e+00f"
            ],
            "NbOperations": 2,
            "Operations": [
                "auto const var0 = pwgen::iMax(arg0, literal1);",
                "auto const var1 = pwgen::iMin(var0, literal0);"
            ],
            "TacticValue": "0x0000000000000003",
            "StreamId": 0,
            "Metadata": ""
        },
        {
            "Name": "Forced Cast ITensor (Unnamed Layer* 97) [ElementWise]_output_clamp.default from DataType.FLOAT to DataType.HALF - [aten_ops.torch.ops.aten._to_copy.default]-[/features/5/conv_0/2/_to_copy_17]",
            "LayerType": "NoOp",
            "Inputs": [
                {
                    "Name": "(Unnamed Layer* 97) [ElementWise]_output_clamp.default",
                    "Location": "Device",
                    "Dimensions": [
                        1,
                        192,
                        28,
                        28
                    ],
                    "Format/Datatype": "Channel major FP16 format where channel % 8 == 0"
                }
            ],
            "Outputs": [
                {
                    "Name": "(Unnamed Layer* 98) [Identity]_output",
                    "Location": "Device",
                    "Dimensions": [
                        1,
                        192,
                        28,
                        28
                    ],
                    "Format/Datatype": "Channel major FP16 format where channel % 8 == 0"
                }
            ],
            "TacticValue": "0x0000000000000000",
            "StreamId": 0,
            "Metadata": ""
        },
        {
            "Name": "[CONVOLUTION]-[aten_ops.convolution.default]-[/features/5/conv_1/0/convolution_13] + [SCALE]-[aten_ops._native_batch_norm_legit_no_training.default]-[/features/5/conv_1/1/_native_batch_norm_legit_no_training_13]",
            "LayerType": "CaskConvolution",
            "Inputs": [
                {
                    "Name": "(Unnamed Layer* 98) [Identity]_output",
                    "Location": "Device",
                    "Dimensions": [
                        1,
                        192,
                        28,
                        28
                    ],
                    "Format/Datatype": "Channel major FP16 format where channel % 8 == 0"
                }
            ],
            "Outputs": [
                {
                    "Name": "(Unnamed Layer* 100) [Scale]_output",
                    "Location": "Device",
                    "Dimensions": [
                        1,
                        192,
                        28,
                        28
                    ],
                    "Format/Datatype": "Channel major FP16 format where channel % 8 == 0"
                }
            ],
            "ParameterType": "Convolution",
            "Kernel": [
                3,
                3
            ],
            "PaddingMode": "kEXPLICIT_ROUND_DOWN",
            "PrePadding": [
                1,
                1
            ],
            "PostPadding": [
                1,
                1
            ],
            "Stride": [
                1,
                1
            ],
            "Dilation": [
                1,
                1
            ],
            "OutMaps": 192,
            "Groups": 192,
            "Weights": {
                "Type": "Half",
                "Count": 1728
            },
            "Bias": {
                "Type": "Half",
                "Count": 192
            },
            "HasSparseWeights": 0,
            "HasDynamicFilter": 0,
            "HasDynamicBias": 0,
            "HasResidual": 0,
            "ConvXAsActInputIdx": -1,
            "BiasAsActInputIdx": -1,
            "ResAsActInputIdx": -1,
            "Activation": "NONE",
            "HasBias": 1,
            "HasReLU": 0,
            "TacticName": "sm50_xmma_convolution_depthwiseHMMA_FP16NHWCx8_TR3_TS3_STRIDEH1_STRIDEW1",
            "TacticValue": "0xf9f6e2e1b0fd88e6",
            "StreamId": 0,
            "Metadata": ""
        },
        {
            "Name": "Forced Cast ITensor (Unnamed Layer* 100) [Scale]_output from DataType.FLOAT to DataType.FLOAT - [aten_ops.torch.ops.aten._to_copy.default]-[/features/5/conv_1/2/_to_copy_18]",
            "LayerType": "NoOp",
            "Inputs": [
                {
                    "Name": "(Unnamed Layer* 100) [Scale]_output",
                    "Location": "Device",
                    "Dimensions": [
                        1,
                        192,
                        28,
                        28
                    ],
                    "Format/Datatype": "Channel major FP16 format where channel % 8 == 0"
                }
            ],
            "Outputs": [
                {
                    "Name": "(Unnamed Layer* 101) [Identity]_output",
                    "Location": "Device",
                    "Dimensions": [
                        1,
                        192,
                        28,
                        28
                    ],
                    "Format/Datatype": "Channel major FP16 format where channel % 8 == 0"
                }
            ],
            "TacticValue": "0x0000000000000000",
            "StreamId": 0,
            "Metadata": ""
        },
        {
            "Name": "PWN(/features/5/conv_1/2/clamp_9_min_rhs + /features/5/conv_1/2/clamp_9_min_rhs_broadcast, PWN(PWN(/features/5/conv_1/2/clamp_9_max_rhs + /features/5/conv_1/2/clamp_9_max_rhs_broadcast, [ELEMENTWISE]-[aten_ops.clamp.default]-[/features/5/conv_1/2/clamp_9_max]), [ELEMENTWISE]-[aten_ops.clamp.default]-[/features/5/conv_1/2/clamp_9_min]))",
            "LayerType": "PointWiseV2",
            "Inputs": [
                {
                    "Name": "(Unnamed Layer* 101) [Identity]_output",
                    "Location": "Device",
                    "Dimensions": [
                        1,
                        192,
                        28,
                        28
                    ],
                    "Format/Datatype": "Channel major FP16 format where channel % 8 == 0"
                }
            ],
            "Outputs": [
                {
                    "Name": "(Unnamed Layer* 107) [ElementWise]_output_clamp.default",
                    "Location": "Device",
                    "Dimensions": [
                        1,
                        192,
                        28,
                        28
                    ],
                    "Format/Datatype": "Channel major FP16 format where channel % 8 == 0"
                }
            ],
            "ParameterType": "PointWise",
            "ParameterSubType": "PointWiseExpression",
            "NbInputArgs": 1,
            "InputArgs": [
                "arg0"
            ],
            "NbOutputVars": 1,
            "OutputVars": [
                "var1"
            ],
            "NbParams": 0,
            "Params": [],
            "NbLiterals": 2,
            "Literals": [
                "6.000000e+00f",
                "0.000000e+00f"
            ],
            "NbOperations": 2,
            "Operations": [
                "auto const var0 = pwgen::iMax(arg0, literal1);",
                "auto const var1 = pwgen::iMin(var0, literal0);"
            ],
            "TacticValue": "0x0000000000000003",
            "StreamId": 0,
            "Metadata": ""
        },
        {
            "Name": "Forced Cast ITensor (Unnamed Layer* 107) [ElementWise]_output_clamp.default from DataType.FLOAT to DataType.HALF - [aten_ops.torch.ops.aten._to_copy.default]-[/features/5/conv_1/2/_to_copy_19]",
            "LayerType": "NoOp",
            "Inputs": [
                {
                    "Name": "(Unnamed Layer* 107) [ElementWise]_output_clamp.default",
                    "Location": "Device",
                    "Dimensions": [
                        1,
                        192,
                        28,
                        28
                    ],
                    "Format/Datatype": "Channel major FP16 format where channel % 8 == 0"
                }
            ],
            "Outputs": [
                {
                    "Name": "(Unnamed Layer* 108) [Identity]_output",
                    "Location": "Device",
                    "Dimensions": [
                        1,
                        192,
                        28,
                        28
                    ],
                    "Format/Datatype": "Channel major FP16 format where channel % 8 == 0"
                }
            ],
            "TacticValue": "0x0000000000000000",
            "StreamId": 0,
            "Metadata": ""
        },
        {
            "Name": "[CONVOLUTION]-[aten_ops.convolution.default]-[/features/5/conv/2/convolution_14] + [SCALE]-[aten_ops._native_batch_norm_legit_no_training.default]-[/features/5/conv/3/_native_batch_norm_legit_no_training_14] + [ELEMENTWISE]-[aten_ops.add.Tensor]-[/features/5/add_1]",
            "LayerType": "CaskConvolution",
            "Inputs": [
                {
                    "Name": "(Unnamed Layer* 108) [Identity]_output",
                    "Location": "Device",
                    "Dimensions": [
                        1,
                        192,
                        28,
                        28
                    ],
                    "Format/Datatype": "Channel major FP16 format where channel % 8 == 0"
                },
                {
                    "Name": "(Unnamed Layer* 88) [Scale]_output",
                    "Location": "Device",
                    "Dimensions": [
                        1,
                        32,
                        28,
                        28
                    ],
                    "Format/Datatype": "Channel major FP16 format where channel % 8 == 0"
                }
            ],
            "Outputs": [
                {
                    "Name": "(Unnamed Layer* 111) [ElementWise]_output_add.Tensor",
                    "Location": "Device",
                    "Dimensions": [
                        1,
                        32,
                        28,
                        28
                    ],
                    "Format/Datatype": "Channel major FP16 format where channel % 8 == 0"
                }
            ],
            "ParameterType": "Convolution",
            "Kernel": [
                1,
                1
            ],
            "PaddingMode": "kEXPLICIT_ROUND_DOWN",
            "PrePadding": [
                0,
                0
            ],
            "PostPadding": [
                0,
                0
            ],
            "Stride": [
                1,
                1
            ],
            "Dilation": [
                1,
                1
            ],
            "OutMaps": 32,
            "Groups": 1,
            "Weights": {
                "Type": "Half",
                "Count": 6144
            },
            "Bias": {
                "Type": "Half",
                "Count": 32
            },
            "HasSparseWeights": 0,
            "HasDynamicFilter": 0,
            "HasDynamicBias": 0,
            "HasResidual": 1,
            "ConvXAsActInputIdx": -1,
            "BiasAsActInputIdx": -1,
            "ResAsActInputIdx": -1,
            "Activation": "NONE",
            "HasBias": 1,
            "HasReLU": 0,
            "TacticName": "sm80_xmma_fprop_implicit_gemm_f16f16_f16f16_f16_nhwckrsc_nhwc_tilesize128x32x32_stage4_warpsize4x1x1_g1_tensor16x8x16_simple_t1r1s1",
            "TacticValue": "0x8047bcfcebface4a",
            "StreamId": 0,
            "Metadata": ""
        },
        {
            "Name": "[CONVOLUTION]-[aten_ops.convolution.default]-[/features/6/conv_0/0/convolution_15] + [SCALE]-[aten_ops._native_batch_norm_legit_no_training.default]-[/features/6/conv_0/1/_native_batch_norm_legit_no_training_15]",
            "LayerType": "CaskConvolution",
            "Inputs": [
                {
                    "Name": "(Unnamed Layer* 111) [ElementWise]_output_add.Tensor",
                    "Location": "Device",
                    "Dimensions": [
                        1,
                        32,
                        28,
                        28
                    ],
                    "Format/Datatype": "Channel major FP16 format where channel % 8 == 0"
                }
            ],
            "Outputs": [
                {
                    "Name": "(Unnamed Layer* 113) [Scale]_output",
                    "Location": "Device",
                    "Dimensions": [
                        1,
                        192,
                        28,
                        28
                    ],
                    "Format/Datatype": "Channel major FP16 format where channel % 8 == 0"
                }
            ],
            "ParameterType": "Convolution",
            "Kernel": [
                1,
                1
            ],
            "PaddingMode": "kEXPLICIT_ROUND_DOWN",
            "PrePadding": [
                0,
                0
            ],
            "PostPadding": [
                0,
                0
            ],
            "Stride": [
                1,
                1
            ],
            "Dilation": [
                1,
                1
            ],
            "OutMaps": 192,
            "Groups": 1,
            "Weights": {
                "Type": "Half",
                "Count": 6144
            },
            "Bias": {
                "Type": "Half",
                "Count": 192
            },
            "HasSparseWeights": 0,
            "HasDynamicFilter": 0,
            "HasDynamicBias": 0,
            "HasResidual": 0,
            "ConvXAsActInputIdx": -1,
            "BiasAsActInputIdx": -1,
            "ResAsActInputIdx": -1,
            "Activation": "NONE",
            "HasBias": 1,
            "HasReLU": 0,
            "TacticName": "sm80_xmma_fprop_implicit_gemm_indexed_wo_smem_f16f16_f16f16_f16_nhwckrsc_nhwc_tilesize128x32x16_stage1_warpsize4x1x1_g1_tensor16x8x16_aligna8_alignc8",
            "TacticValue": "0xfb0beb2dd64ff6e8",
            "StreamId": 0,
            "Metadata": ""
        },
        {
            "Name": "Forced Cast ITensor (Unnamed Layer* 113) [Scale]_output from DataType.FLOAT to DataType.FLOAT - [aten_ops.torch.ops.aten._to_copy.default]-[/features/6/conv_0/2/_to_copy_20]",
            "LayerType": "NoOp",
            "Inputs": [
                {
                    "Name": "(Unnamed Layer* 113) [Scale]_output",
                    "Location": "Device",
                    "Dimensions": [
                        1,
                        192,
                        28,
                        28
                    ],
                    "Format/Datatype": "Channel major FP16 format where channel % 8 == 0"
                }
            ],
            "Outputs": [
                {
                    "Name": "(Unnamed Layer* 114) [Identity]_output",
                    "Location": "Device",
                    "Dimensions": [
                        1,
                        192,
                        28,
                        28
                    ],
                    "Format/Datatype": "Channel major FP16 format where channel % 8 == 0"
                }
            ],
            "TacticValue": "0x0000000000000000",
            "StreamId": 0,
            "Metadata": ""
        },
        {
            "Name": "PWN(/features/6/conv_0/2/clamp_10_min_rhs + /features/6/conv_0/2/clamp_10_min_rhs_broadcast, PWN(PWN(/features/6/conv_0/2/clamp_10_max_rhs + /features/6/conv_0/2/clamp_10_max_rhs_broadcast, [ELEMENTWISE]-[aten_ops.clamp.default]-[/features/6/conv_0/2/clamp_10_max]), [ELEMENTWISE]-[aten_ops.clamp.default]-[/features/6/conv_0/2/clamp_10_min]))",
            "LayerType": "PointWiseV2",
            "Inputs": [
                {
                    "Name": "(Unnamed Layer* 114) [Identity]_output",
                    "Location": "Device",
                    "Dimensions": [
                        1,
                        192,
                        28,
                        28
                    ],
                    "Format/Datatype": "Channel major FP16 format where channel % 8 == 0"
                }
            ],
            "Outputs": [
                {
                    "Name": "(Unnamed Layer* 120) [ElementWise]_output_clamp.default",
                    "Location": "Device",
                    "Dimensions": [
                        1,
                        192,
                        28,
                        28
                    ],
                    "Format/Datatype": "Channel major FP16 format where channel % 8 == 0"
                }
            ],
            "ParameterType": "PointWise",
            "ParameterSubType": "PointWiseExpression",
            "NbInputArgs": 1,
            "InputArgs": [
                "arg0"
            ],
            "NbOutputVars": 1,
            "OutputVars": [
                "var1"
            ],
            "NbParams": 0,
            "Params": [],
            "NbLiterals": 2,
            "Literals": [
                "6.000000e+00f",
                "0.000000e+00f"
            ],
            "NbOperations": 2,
            "Operations": [
                "auto const var0 = pwgen::iMax(arg0, literal1);",
                "auto const var1 = pwgen::iMin(var0, literal0);"
            ],
            "TacticValue": "0x0000000000000003",
            "StreamId": 0,
            "Metadata": ""
        },
        {
            "Name": "Forced Cast ITensor (Unnamed Layer* 120) [ElementWise]_output_clamp.default from DataType.FLOAT to DataType.HALF - [aten_ops.torch.ops.aten._to_copy.default]-[/features/6/conv_0/2/_to_copy_21]",
            "LayerType": "NoOp",
            "Inputs": [
                {
                    "Name": "(Unnamed Layer* 120) [ElementWise]_output_clamp.default",
                    "Location": "Device",
                    "Dimensions": [
                        1,
                        192,
                        28,
                        28
                    ],
                    "Format/Datatype": "Channel major FP16 format where channel % 8 == 0"
                }
            ],
            "Outputs": [
                {
                    "Name": "(Unnamed Layer* 121) [Identity]_output",
                    "Location": "Device",
                    "Dimensions": [
                        1,
                        192,
                        28,
                        28
                    ],
                    "Format/Datatype": "Channel major FP16 format where channel % 8 == 0"
                }
            ],
            "TacticValue": "0x0000000000000000",
            "StreamId": 0,
            "Metadata": ""
        },
        {
            "Name": "[CONVOLUTION]-[aten_ops.convolution.default]-[/features/6/conv_1/0/convolution_16] + [SCALE]-[aten_ops._native_batch_norm_legit_no_training.default]-[/features/6/conv_1/1/_native_batch_norm_legit_no_training_16]",
            "LayerType": "CaskConvolution",
            "Inputs": [
                {
                    "Name": "(Unnamed Layer* 121) [Identity]_output",
                    "Location": "Device",
                    "Dimensions": [
                        1,
                        192,
                        28,
                        28
                    ],
                    "Format/Datatype": "Channel major FP16 format where channel % 8 == 0"
                }
            ],
            "Outputs": [
                {
                    "Name": "(Unnamed Layer* 123) [Scale]_output",
                    "Location": "Device",
                    "Dimensions": [
                        1,
                        192,
                        28,
                        28
                    ],
                    "Format/Datatype": "Channel major FP16 format where channel % 8 == 0"
                }
            ],
            "ParameterType": "Convolution",
            "Kernel": [
                3,
                3
            ],
            "PaddingMode": "kEXPLICIT_ROUND_DOWN",
            "PrePadding": [
                1,
                1
            ],
            "PostPadding": [
                1,
                1
            ],
            "Stride": [
                1,
                1
            ],
            "Dilation": [
                1,
                1
            ],
            "OutMaps": 192,
            "Groups": 192,
            "Weights": {
                "Type": "Half",
                "Count": 1728
            },
            "Bias": {
                "Type": "Half",
                "Count": 192
            },
            "HasSparseWeights": 0,
            "HasDynamicFilter": 0,
            "HasDynamicBias": 0,
            "HasResidual": 0,
            "ConvXAsActInputIdx": -1,
            "BiasAsActInputIdx": -1,
            "ResAsActInputIdx": -1,
            "Activation": "NONE",
            "HasBias": 1,
            "HasReLU": 0,
            "TacticName": "sm50_xmma_convolution_depthwiseHMMA_FP16NHWCx8_TR3_TS3_STRIDEH1_STRIDEW1",
            "TacticValue": "0xf9f6e2e1b0fd88e6",
            "StreamId": 0,
            "Metadata": ""
        },
        {
            "Name": "Forced Cast ITensor (Unnamed Layer* 123) [Scale]_output from DataType.FLOAT to DataType.FLOAT - [aten_ops.torch.ops.aten._to_copy.default]-[/features/6/conv_1/2/_to_copy_22]",
            "LayerType": "NoOp",
            "Inputs": [
                {
                    "Name": "(Unnamed Layer* 123) [Scale]_output",
                    "Location": "Device",
                    "Dimensions": [
                        1,
                        192,
                        28,
                        28
                    ],
                    "Format/Datatype": "Channel major FP16 format where channel % 8 == 0"
                }
            ],
            "Outputs": [
                {
                    "Name": "(Unnamed Layer* 124) [Identity]_output",
                    "Location": "Device",
                    "Dimensions": [
                        1,
                        192,
                        28,
                        28
                    ],
                    "Format/Datatype": "Channel major FP16 format where channel % 8 == 0"
                }
            ],
            "TacticValue": "0x0000000000000000",
            "StreamId": 0,
            "Metadata": ""
        },
        {
            "Name": "PWN(/features/6/conv_1/2/clamp_11_min_rhs + /features/6/conv_1/2/clamp_11_min_rhs_broadcast, PWN(PWN(/features/6/conv_1/2/clamp_11_max_rhs + /features/6/conv_1/2/clamp_11_max_rhs_broadcast, [ELEMENTWISE]-[aten_ops.clamp.default]-[/features/6/conv_1/2/clamp_11_max]), [ELEMENTWISE]-[aten_ops.clamp.default]-[/features/6/conv_1/2/clamp_11_min]))",
            "LayerType": "PointWiseV2",
            "Inputs": [
                {
                    "Name": "(Unnamed Layer* 124) [Identity]_output",
                    "Location": "Device",
                    "Dimensions": [
                        1,
                        192,
                        28,
                        28
                    ],
                    "Format/Datatype": "Channel major FP16 format where channel % 8 == 0"
                }
            ],
            "Outputs": [
                {
                    "Name": "(Unnamed Layer* 130) [ElementWise]_output_clamp.default",
                    "Location": "Device",
                    "Dimensions": [
                        1,
                        192,
                        28,
                        28
                    ],
                    "Format/Datatype": "Channel major FP16 format where channel % 8 == 0"
                }
            ],
            "ParameterType": "PointWise",
            "ParameterSubType": "PointWiseExpression",
            "NbInputArgs": 1,
            "InputArgs": [
                "arg0"
            ],
            "NbOutputVars": 1,
            "OutputVars": [
                "var1"
            ],
            "NbParams": 0,
            "Params": [],
            "NbLiterals": 2,
            "Literals": [
                "6.000000e+00f",
                "0.000000e+00f"
            ],
            "NbOperations": 2,
            "Operations": [
                "auto const var0 = pwgen::iMax(arg0, literal1);",
                "auto const var1 = pwgen::iMin(var0, literal0);"
            ],
            "TacticValue": "0x0000000000000003",
            "StreamId": 0,
            "Metadata": ""
        },
        {
            "Name": "Forced Cast ITensor (Unnamed Layer* 130) [ElementWise]_output_clamp.default from DataType.FLOAT to DataType.HALF - [aten_ops.torch.ops.aten._to_copy.default]-[/features/6/conv_1/2/_to_copy_23]",
            "LayerType": "NoOp",
            "Inputs": [
                {
                    "Name": "(Unnamed Layer* 130) [ElementWise]_output_clamp.default",
                    "Location": "Device",
                    "Dimensions": [
                        1,
                        192,
                        28,
                        28
                    ],
                    "Format/Datatype": "Channel major FP16 format where channel % 8 == 0"
                }
            ],
            "Outputs": [
                {
                    "Name": "(Unnamed Layer* 131) [Identity]_output",
                    "Location": "Device",
                    "Dimensions": [
                        1,
                        192,
                        28,
                        28
                    ],
                    "Format/Datatype": "Channel major FP16 format where channel % 8 == 0"
                }
            ],
            "TacticValue": "0x0000000000000000",
            "StreamId": 0,
            "Metadata": ""
        },
        {
            "Name": "[CONVOLUTION]-[aten_ops.convolution.default]-[/features/6/conv/2/convolution_17] + [SCALE]-[aten_ops._native_batch_norm_legit_no_training.default]-[/features/6/conv/3/_native_batch_norm_legit_no_training_17] + [ELEMENTWISE]-[aten_ops.add.Tensor]-[/features/6/add_2]",
            "LayerType": "CaskConvolution",
            "Inputs": [
                {
                    "Name": "(Unnamed Layer* 131) [Identity]_output",
                    "Location": "Device",
                    "Dimensions": [
                        1,
                        192,
                        28,
                        28
                    ],
                    "Format/Datatype": "Channel major FP16 format where channel % 8 == 0"
                },
                {
                    "Name": "(Unnamed Layer* 111) [ElementWise]_output_add.Tensor",
                    "Location": "Device",
                    "Dimensions": [
                        1,
                        32,
                        28,
                        28
                    ],
                    "Format/Datatype": "Channel major FP16 format where channel % 8 == 0"
                }
            ],
            "Outputs": [
                {
                    "Name": "(Unnamed Layer* 134) [ElementWise]_output_add.Tensor",
                    "Location": "Device",
                    "Dimensions": [
                        1,
                        32,
                        28,
                        28
                    ],
                    "Format/Datatype": "Channel major FP16 format where channel % 8 == 0"
                }
            ],
            "ParameterType": "Convolution",
            "Kernel": [
                1,
                1
            ],
            "PaddingMode": "kEXPLICIT_ROUND_DOWN",
            "PrePadding": [
                0,
                0
            ],
            "PostPadding": [
                0,
                0
            ],
            "Stride": [
                1,
                1
            ],
            "Dilation": [
                1,
                1
            ],
            "OutMaps": 32,
            "Groups": 1,
            "Weights": {
                "Type": "Half",
                "Count": 6144
            },
            "Bias": {
                "Type": "Half",
                "Count": 32
            },
            "HasSparseWeights": 0,
            "HasDynamicFilter": 0,
            "HasDynamicBias": 0,
            "HasResidual": 1,
            "ConvXAsActInputIdx": -1,
            "BiasAsActInputIdx": -1,
            "ResAsActInputIdx": -1,
            "Activation": "NONE",
            "HasBias": 1,
            "HasReLU": 0,
            "TacticName": "sm80_xmma_fprop_implicit_gemm_f16f16_f16f16_f16_nhwckrsc_nhwc_tilesize128x32x32_stage4_warpsize4x1x1_g1_tensor16x8x16_simple_t1r1s1",
            "TacticValue": "0x8047bcfcebface4a",
            "StreamId": 0,
            "Metadata": ""
        },
        {
            "Name": "[CONVOLUTION]-[aten_ops.convolution.default]-[/features/7/conv_0/0/convolution_18] + [SCALE]-[aten_ops._native_batch_norm_legit_no_training.default]-[/features/7/conv_0/1/_native_batch_norm_legit_no_training_18]",
            "LayerType": "CaskConvolution",
            "Inputs": [
                {
                    "Name": "(Unnamed Layer* 134) [ElementWise]_output_add.Tensor",
                    "Location": "Device",
                    "Dimensions": [
                        1,
                        32,
                        28,
                        28
                    ],
                    "Format/Datatype": "Channel major FP16 format where channel % 8 == 0"
                }
            ],
            "Outputs": [
                {
                    "Name": "(Unnamed Layer* 136) [Scale]_output",
                    "Location": "Device",
                    "Dimensions": [
                        1,
                        192,
                        28,
                        28
                    ],
                    "Format/Datatype": "Channel major FP16 format where channel % 8 == 0"
                }
            ],
            "ParameterType": "Convolution",
            "Kernel": [
                1,
                1
            ],
            "PaddingMode": "kEXPLICIT_ROUND_DOWN",
            "PrePadding": [
                0,
                0
            ],
            "PostPadding": [
                0,
                0
            ],
            "Stride": [
                1,
                1
            ],
            "Dilation": [
                1,
                1
            ],
            "OutMaps": 192,
            "Groups": 1,
            "Weights": {
                "Type": "Half",
                "Count": 6144
            },
            "Bias": {
                "Type": "Half",
                "Count": 192
            },
            "HasSparseWeights": 0,
            "HasDynamicFilter": 0,
            "HasDynamicBias": 0,
            "HasResidual": 0,
            "ConvXAsActInputIdx": -1,
            "BiasAsActInputIdx": -1,
            "ResAsActInputIdx": -1,
            "Activation": "NONE",
            "HasBias": 1,
            "HasReLU": 0,
            "TacticName": "sm80_xmma_fprop_implicit_gemm_indexed_wo_smem_f16f16_f16f16_f16_nhwckrsc_nhwc_tilesize128x32x16_stage1_warpsize4x1x1_g1_tensor16x8x16_aligna8_alignc8",
            "TacticValue": "0xfb0beb2dd64ff6e8",
            "StreamId": 0,
            "Metadata": ""
        },
        {
            "Name": "Forced Cast ITensor (Unnamed Layer* 136) [Scale]_output from DataType.FLOAT to DataType.FLOAT - [aten_ops.torch.ops.aten._to_copy.default]-[/features/7/conv_0/2/_to_copy_24]",
            "LayerType": "NoOp",
            "Inputs": [
                {
                    "Name": "(Unnamed Layer* 136) [Scale]_output",
                    "Location": "Device",
                    "Dimensions": [
                        1,
                        192,
                        28,
                        28
                    ],
                    "Format/Datatype": "Channel major FP16 format where channel % 8 == 0"
                }
            ],
            "Outputs": [
                {
                    "Name": "(Unnamed Layer* 137) [Identity]_output",
                    "Location": "Device",
                    "Dimensions": [
                        1,
                        192,
                        28,
                        28
                    ],
                    "Format/Datatype": "Channel major FP16 format where channel % 8 == 0"
                }
            ],
            "TacticValue": "0x0000000000000000",
            "StreamId": 0,
            "Metadata": ""
        },
        {
            "Name": "PWN(/features/7/conv_0/2/clamp_12_min_rhs + /features/7/conv_0/2/clamp_12_min_rhs_broadcast, PWN(PWN(/features/7/conv_0/2/clamp_12_max_rhs + /features/7/conv_0/2/clamp_12_max_rhs_broadcast, [ELEMENTWISE]-[aten_ops.clamp.default]-[/features/7/conv_0/2/clamp_12_max]), [ELEMENTWISE]-[aten_ops.clamp.default]-[/features/7/conv_0/2/clamp_12_min]))",
            "LayerType": "PointWiseV2",
            "Inputs": [
                {
                    "Name": "(Unnamed Layer* 137) [Identity]_output",
                    "Location": "Device",
                    "Dimensions": [
                        1,
                        192,
                        28,
                        28
                    ],
                    "Format/Datatype": "Channel major FP16 format where channel % 8 == 0"
                }
            ],
            "Outputs": [
                {
                    "Name": "(Unnamed Layer* 143) [ElementWise]_output_clamp.default",
                    "Location": "Device",
                    "Dimensions": [
                        1,
                        192,
                        28,
                        28
                    ],
                    "Format/Datatype": "Channel major FP16 format where channel % 8 == 0"
                }
            ],
            "ParameterType": "PointWise",
            "ParameterSubType": "PointWiseExpression",
            "NbInputArgs": 1,
            "InputArgs": [
                "arg0"
            ],
            "NbOutputVars": 1,
            "OutputVars": [
                "var1"
            ],
            "NbParams": 0,
            "Params": [],
            "NbLiterals": 2,
            "Literals": [
                "6.000000e+00f",
                "0.000000e+00f"
            ],
            "NbOperations": 2,
            "Operations": [
                "auto const var0 = pwgen::iMax(arg0, literal1);",
                "auto const var1 = pwgen::iMin(var0, literal0);"
            ],
            "TacticValue": "0x0000000000000003",
            "StreamId": 0,
            "Metadata": ""
        },
        {
            "Name": "Forced Cast ITensor (Unnamed Layer* 143) [ElementWise]_output_clamp.default from DataType.FLOAT to DataType.HALF - [aten_ops.torch.ops.aten._to_copy.default]-[/features/7/conv_0/2/_to_copy_25]",
            "LayerType": "NoOp",
            "Inputs": [
                {
                    "Name": "(Unnamed Layer* 143) [ElementWise]_output_clamp.default",
                    "Location": "Device",
                    "Dimensions": [
                        1,
                        192,
                        28,
                        28
                    ],
                    "Format/Datatype": "Channel major FP16 format where channel % 8 == 0"
                }
            ],
            "Outputs": [
                {
                    "Name": "(Unnamed Layer* 144) [Identity]_output",
                    "Location": "Device",
                    "Dimensions": [
                        1,
                        192,
                        28,
                        28
                    ],
                    "Format/Datatype": "Channel major FP16 format where channel % 8 == 0"
                }
            ],
            "TacticValue": "0x0000000000000000",
            "StreamId": 0,
            "Metadata": ""
        },
        {
            "Name": "[CONVOLUTION]-[aten_ops.convolution.default]-[/features/7/conv_1/0/convolution_19] + [SCALE]-[aten_ops._native_batch_norm_legit_no_training.default]-[/features/7/conv_1/1/_native_batch_norm_legit_no_training_19]",
            "LayerType": "CaskConvolution",
            "Inputs": [
                {
                    "Name": "(Unnamed Layer* 144) [Identity]_output",
                    "Location": "Device",
                    "Dimensions": [
                        1,
                        192,
                        28,
                        28
                    ],
                    "Format/Datatype": "Channel major FP16 format where channel % 8 == 0"
                }
            ],
            "Outputs": [
                {
                    "Name": "(Unnamed Layer* 146) [Scale]_output",
                    "Location": "Device",
                    "Dimensions": [
                        1,
                        192,
                        14,
                        14
                    ],
                    "Format/Datatype": "Channel major FP16 format where channel % 8 == 0"
                }
            ],
            "ParameterType": "Convolution",
            "Kernel": [
                3,
                3
            ],
            "PaddingMode": "kEXPLICIT_ROUND_DOWN",
            "PrePadding": [
                1,
                1
            ],
            "PostPadding": [
                1,
                1
            ],
            "Stride": [
                2,
                2
            ],
            "Dilation": [
                1,
                1
            ],
            "OutMaps": 192,
            "Groups": 192,
            "Weights": {
                "Type": "Half",
                "Count": 1728
            },
            "Bias": {
                "Type": "Half",
                "Count": 192
            },
            "HasSparseWeights": 0,
            "HasDynamicFilter": 0,
            "HasDynamicBias": 0,
            "HasResidual": 0,
            "ConvXAsActInputIdx": -1,
            "BiasAsActInputIdx": -1,
            "ResAsActInputIdx": -1,
            "Activation": "NONE",
            "HasBias": 1,
            "HasReLU": 0,
            "TacticName": "sm50_xmma_convolution_depthwiseHMMA_FP16NHWCx8_TR3_TS3_STRIDEH2_STRIDEW2",
            "TacticValue": "0x4a741be05296db88",
            "StreamId": 0,
            "Metadata": ""
        },
        {
            "Name": "Forced Cast ITensor (Unnamed Layer* 146) [Scale]_output from DataType.FLOAT to DataType.FLOAT - [aten_ops.torch.ops.aten._to_copy.default]-[/features/7/conv_1/2/_to_copy_26]",
            "LayerType": "NoOp",
            "Inputs": [
                {
                    "Name": "(Unnamed Layer* 146) [Scale]_output",
                    "Location": "Device",
                    "Dimensions": [
                        1,
                        192,
                        14,
                        14
                    ],
                    "Format/Datatype": "Channel major FP16 format where channel % 8 == 0"
                }
            ],
            "Outputs": [
                {
                    "Name": "(Unnamed Layer* 147) [Identity]_output",
                    "Location": "Device",
                    "Dimensions": [
                        1,
                        192,
                        14,
                        14
                    ],
                    "Format/Datatype": "Channel major FP16 format where channel % 8 == 0"
                }
            ],
            "TacticValue": "0x0000000000000000",
            "StreamId": 0,
            "Metadata": ""
        },
        {
            "Name": "PWN(/features/7/conv_1/2/clamp_13_min_rhs + /features/7/conv_1/2/clamp_13_min_rhs_broadcast, PWN(PWN(/features/7/conv_1/2/clamp_13_max_rhs + /features/7/conv_1/2/clamp_13_max_rhs_broadcast, [ELEMENTWISE]-[aten_ops.clamp.default]-[/features/7/conv_1/2/clamp_13_max]), [ELEMENTWISE]-[aten_ops.clamp.default]-[/features/7/conv_1/2/clamp_13_min]))",
            "LayerType": "PointWiseV2",
            "Inputs": [
                {
                    "Name": "(Unnamed Layer* 147) [Identity]_output",
                    "Location": "Device",
                    "Dimensions": [
                        1,
                        192,
                        14,
                        14
                    ],
                    "Format/Datatype": "Channel major FP16 format where channel % 8 == 0"
                }
            ],
            "Outputs": [
                {
                    "Name": "(Unnamed Layer* 153) [ElementWise]_output_clamp.default",
                    "Location": "Device",
                    "Dimensions": [
                        1,
                        192,
                        14,
                        14
                    ],
                    "Format/Datatype": "Channel major FP16 format where channel % 8 == 0"
                }
            ],
            "ParameterType": "PointWise",
            "ParameterSubType": "PointWiseExpression",
            "NbInputArgs": 1,
            "InputArgs": [
                "arg0"
            ],
            "NbOutputVars": 1,
            "OutputVars": [
                "var1"
            ],
            "NbParams": 0,
            "Params": [],
            "NbLiterals": 2,
            "Literals": [
                "6.000000e+00f",
                "0.000000e+00f"
            ],
            "NbOperations": 2,
            "Operations": [
                "auto const var0 = pwgen::iMax(arg0, literal1);",
                "auto const var1 = pwgen::iMin(var0, literal0);"
            ],
            "TacticValue": "0x000000000000001c",
            "StreamId": 0,
            "Metadata": ""
        },
        {
            "Name": "Forced Cast ITensor (Unnamed Layer* 153) [ElementWise]_output_clamp.default from DataType.FLOAT to DataType.HALF - [aten_ops.torch.ops.aten._to_copy.default]-[/features/7/conv_1/2/_to_copy_27]",
            "LayerType": "NoOp",
            "Inputs": [
                {
                    "Name": "(Unnamed Layer* 153) [ElementWise]_output_clamp.default",
                    "Location": "Device",
                    "Dimensions": [
                        1,
                        192,
                        14,
                        14
                    ],
                    "Format/Datatype": "Channel major FP16 format where channel % 8 == 0"
                }
            ],
            "Outputs": [
                {
                    "Name": "(Unnamed Layer* 154) [Identity]_output",
                    "Location": "Device",
                    "Dimensions": [
                        1,
                        192,
                        14,
                        14
                    ],
                    "Format/Datatype": "Channel major FP16 format where channel % 8 == 0"
                }
            ],
            "TacticValue": "0x0000000000000000",
            "StreamId": 0,
            "Metadata": ""
        },
        {
            "Name": "[CONVOLUTION]-[aten_ops.convolution.default]-[/features/7/conv/2/convolution_20] + [SCALE]-[aten_ops._native_batch_norm_legit_no_training.default]-[/features/7/conv/3/_native_batch_norm_legit_no_training_20]",
            "LayerType": "CaskConvolution",
            "Inputs": [
                {
                    "Name": "(Unnamed Layer* 154) [Identity]_output",
                    "Location": "Device",
                    "Dimensions": [
                        1,
                        192,
                        14,
                        14
                    ],
                    "Format/Datatype": "Channel major FP16 format where channel % 8 == 0"
                }
            ],
            "Outputs": [
                {
                    "Name": "(Unnamed Layer* 156) [Scale]_output",
                    "Location": "Device",
                    "Dimensions": [
                        1,
                        64,
                        14,
                        14
                    ],
                    "Format/Datatype": "Channel major FP16 format where channel % 8 == 0"
                }
            ],
            "ParameterType": "Convolution",
            "Kernel": [
                1,
                1
            ],
            "PaddingMode": "kEXPLICIT_ROUND_DOWN",
            "PrePadding": [
                0,
                0
            ],
            "PostPadding": [
                0,
                0
            ],
            "Stride": [
                1,
                1
            ],
            "Dilation": [
                1,
                1
            ],
            "OutMaps": 64,
            "Groups": 1,
            "Weights": {
                "Type": "Half",
                "Count": 12288
            },
            "Bias": {
                "Type": "Half",
                "Count": 64
            },
            "HasSparseWeights": 0,
            "HasDynamicFilter": 0,
            "HasDynamicBias": 0,
            "HasResidual": 0,
            "ConvXAsActInputIdx": -1,
            "BiasAsActInputIdx": -1,
            "ResAsActInputIdx": -1,
            "Activation": "NONE",
            "HasBias": 1,
            "HasReLU": 0,
            "TacticName": "sm80_xmma_fprop_implicit_gemm_f16f16_f16f16_f16_nhwckrsc_nhwc_tilesize64x32x64_stage5_warpsize2x2x1_g1_tensor16x8x16_simple_t1r1s1",
            "TacticValue": "0xe69f3e9fcc7b2069",
            "StreamId": 0,
            "Metadata": ""
        },
        {
            "Name": "[CONVOLUTION]-[aten_ops.convolution.default]-[/features/8/conv_0/0/convolution_21] + [SCALE]-[aten_ops._native_batch_norm_legit_no_training.default]-[/features/8/conv_0/1/_native_batch_norm_legit_no_training_21]",
            "LayerType": "CaskGemmConvolution",
            "Inputs": [
                {
                    "Name": "(Unnamed Layer* 156) [Scale]_output",
                    "Location": "Device",
                    "Dimensions": [
                        1,
                        64,
                        14,
                        14
                    ],
                    "Format/Datatype": "Channel major FP16 format where channel % 8 == 0"
                }
            ],
            "Outputs": [
                {
                    "Name": "(Unnamed Layer* 158) [Scale]_output",
                    "Location": "Device",
                    "Dimensions": [
                        1,
                        384,
                        14,
                        14
                    ],
                    "Format/Datatype": "Channel major FP16 format where channel % 8 == 0"
                }
            ],
            "ParameterType": "Convolution",
            "Kernel": [
                1,
                1
            ],
            "PaddingMode": "kEXPLICIT_ROUND_DOWN",
            "PrePadding": [
                0,
                0
            ],
            "PostPadding": [
                0,
                0
            ],
            "Stride": [
                1,
                1
            ],
            "Dilation": [
                1,
                1
            ],
            "OutMaps": 384,
            "Groups": 1,
            "Weights": {
                "Type": "Half",
                "Count": 24576
            },
            "Bias": {
                "Type": "Half",
                "Count": 384
            },
            "HasSparseWeights": 0,
            "HasDynamicFilter": 0,
            "HasDynamicBias": 0,
            "HasResidual": 0,
            "ConvXAsActInputIdx": -1,
            "BiasAsActInputIdx": -1,
            "ResAsActInputIdx": -1,
            "Activation": "NONE",
            "TacticName": "ampere_h16816gemm_128x64_ldg8_relu_stages_32x6_nn_v1",
            "TacticValue": "0x000000000002067c",
            "StreamId": 0,
            "Metadata": ""
        },
        {
            "Name": "Forced Cast ITensor (Unnamed Layer* 158) [Scale]_output from DataType.FLOAT to DataType.FLOAT - [aten_ops.torch.ops.aten._to_copy.default]-[/features/8/conv_0/2/_to_copy_28]",
            "LayerType": "NoOp",
            "Inputs": [
                {
                    "Name": "(Unnamed Layer* 158) [Scale]_output",
                    "Location": "Device",
                    "Dimensions": [
                        1,
                        384,
                        14,
                        14
                    ],
                    "Format/Datatype": "Channel major FP16 format where channel % 8 == 0"
                }
            ],
            "Outputs": [
                {
                    "Name": "(Unnamed Layer* 159) [Identity]_output",
                    "Location": "Device",
                    "Dimensions": [
                        1,
                        384,
                        14,
                        14
                    ],
                    "Format/Datatype": "Channel major FP16 format where channel % 16 == 0"
                }
            ],
            "TacticValue": "0x0000000000000000",
            "StreamId": 0,
            "Metadata": ""
        },
        {
            "Name": "PWN(/features/8/conv_0/2/clamp_14_min_rhs + /features/8/conv_0/2/clamp_14_min_rhs_broadcast, PWN(PWN(/features/8/conv_0/2/clamp_14_max_rhs + /features/8/conv_0/2/clamp_14_max_rhs_broadcast, [ELEMENTWISE]-[aten_ops.clamp.default]-[/features/8/conv_0/2/clamp_14_max]), [ELEMENTWISE]-[aten_ops.clamp.default]-[/features/8/conv_0/2/clamp_14_min]))",
            "LayerType": "PointWiseV2",
            "Inputs": [
                {
                    "Name": "(Unnamed Layer* 159) [Identity]_output",
                    "Location": "Device",
                    "Dimensions": [
                        1,
                        384,
                        14,
                        14
                    ],
                    "Format/Datatype": "Channel major FP16 format where channel % 16 == 0"
                }
            ],
            "Outputs": [
                {
                    "Name": "(Unnamed Layer* 165) [ElementWise]_output_clamp.default",
                    "Location": "Device",
                    "Dimensions": [
                        1,
                        384,
                        14,
                        14
                    ],
                    "Format/Datatype": "Channel major FP16 format where channel % 16 == 0"
                }
            ],
            "ParameterType": "PointWise",
            "ParameterSubType": "PointWiseExpression",
            "NbInputArgs": 1,
            "InputArgs": [
                "arg0"
            ],
            "NbOutputVars": 1,
            "OutputVars": [
                "var1"
            ],
            "NbParams": 0,
            "Params": [],
            "NbLiterals": 2,
            "Literals": [
                "6.000000e+00f",
                "0.000000e+00f"
            ],
            "NbOperations": 2,
            "Operations": [
                "auto const var0 = pwgen::iMax(arg0, literal1);",
                "auto const var1 = pwgen::iMin(var0, literal0);"
            ],
            "TacticValue": "0x000000000000000b",
            "StreamId": 0,
            "Metadata": ""
        },
        {
            "Name": "Forced Cast ITensor (Unnamed Layer* 165) [ElementWise]_output_clamp.default from DataType.FLOAT to DataType.HALF - [aten_ops.torch.ops.aten._to_copy.default]-[/features/8/conv_0/2/_to_copy_29]",
            "LayerType": "NoOp",
            "Inputs": [
                {
                    "Name": "(Unnamed Layer* 165) [ElementWise]_output_clamp.default",
                    "Location": "Device",
                    "Dimensions": [
                        1,
                        384,
                        14,
                        14
                    ],
                    "Format/Datatype": "Channel major FP16 format where channel % 16 == 0"
                }
            ],
            "Outputs": [
                {
                    "Name": "(Unnamed Layer* 166) [Identity]_output",
                    "Location": "Device",
                    "Dimensions": [
                        1,
                        384,
                        14,
                        14
                    ],
                    "Format/Datatype": "Channel major FP16 format where channel % 8 == 0"
                }
            ],
            "TacticValue": "0x0000000000000000",
            "StreamId": 0,
            "Metadata": ""
        },
        {
            "Name": "[CONVOLUTION]-[aten_ops.convolution.default]-[/features/8/conv_1/0/convolution_22] + [SCALE]-[aten_ops._native_batch_norm_legit_no_training.default]-[/features/8/conv_1/1/_native_batch_norm_legit_no_training_22]",
            "LayerType": "CaskConvolution",
            "Inputs": [
                {
                    "Name": "(Unnamed Layer* 166) [Identity]_output",
                    "Location": "Device",
                    "Dimensions": [
                        1,
                        384,
                        14,
                        14
                    ],
                    "Format/Datatype": "Channel major FP16 format where channel % 8 == 0"
                }
            ],
            "Outputs": [
                {
                    "Name": "(Unnamed Layer* 168) [Scale]_output",
                    "Location": "Device",
                    "Dimensions": [
                        1,
                        384,
                        14,
                        14
                    ],
                    "Format/Datatype": "Channel major FP16 format where channel % 8 == 0"
                }
            ],
            "ParameterType": "Convolution",
            "Kernel": [
                3,
                3
            ],
            "PaddingMode": "kEXPLICIT_ROUND_DOWN",
            "PrePadding": [
                1,
                1
            ],
            "PostPadding": [
                1,
                1
            ],
            "Stride": [
                1,
                1
            ],
            "Dilation": [
                1,
                1
            ],
            "OutMaps": 384,
            "Groups": 384,
            "Weights": {
                "Type": "Half",
                "Count": 3456
            },
            "Bias": {
                "Type": "Half",
                "Count": 384
            },
            "HasSparseWeights": 0,
            "HasDynamicFilter": 0,
            "HasDynamicBias": 0,
            "HasResidual": 0,
            "ConvXAsActInputIdx": -1,
            "BiasAsActInputIdx": -1,
            "ResAsActInputIdx": -1,
            "Activation": "NONE",
            "HasBias": 1,
            "HasReLU": 0,
            "TacticName": "sm50_xmma_convolution_depthwiseHMMA_FP16NHWCx8_TR3_TS3_STRIDEH1_STRIDEW1",
            "TacticValue": "0xf9f6e2e1b0fd88e6",
            "StreamId": 0,
            "Metadata": ""
        },
        {
            "Name": "Forced Cast ITensor (Unnamed Layer* 168) [Scale]_output from DataType.FLOAT to DataType.FLOAT - [aten_ops.torch.ops.aten._to_copy.default]-[/features/8/conv_1/2/_to_copy_30]",
            "LayerType": "NoOp",
            "Inputs": [
                {
                    "Name": "(Unnamed Layer* 168) [Scale]_output",
                    "Location": "Device",
                    "Dimensions": [
                        1,
                        384,
                        14,
                        14
                    ],
                    "Format/Datatype": "Channel major FP16 format where channel % 8 == 0"
                }
            ],
            "Outputs": [
                {
                    "Name": "(Unnamed Layer* 169) [Identity]_output",
                    "Location": "Device",
                    "Dimensions": [
                        1,
                        384,
                        14,
                        14
                    ],
                    "Format/Datatype": "Channel major FP16 format where channel % 16 == 0"
                }
            ],
            "TacticValue": "0x0000000000000000",
            "StreamId": 0,
            "Metadata": ""
        },
        {
            "Name": "PWN(/features/8/conv_1/2/clamp_15_min_rhs + /features/8/conv_1/2/clamp_15_min_rhs_broadcast, PWN(PWN(/features/8/conv_1/2/clamp_15_max_rhs + /features/8/conv_1/2/clamp_15_max_rhs_broadcast, [ELEMENTWISE]-[aten_ops.clamp.default]-[/features/8/conv_1/2/clamp_15_max]), [ELEMENTWISE]-[aten_ops.clamp.default]-[/features/8/conv_1/2/clamp_15_min]))",
            "LayerType": "PointWiseV2",
            "Inputs": [
                {
                    "Name": "(Unnamed Layer* 169) [Identity]_output",
                    "Location": "Device",
                    "Dimensions": [
                        1,
                        384,
                        14,
                        14
                    ],
                    "Format/Datatype": "Channel major FP16 format where channel % 16 == 0"
                }
            ],
            "Outputs": [
                {
                    "Name": "(Unnamed Layer* 175) [ElementWise]_output_clamp.default",
                    "Location": "Device",
                    "Dimensions": [
                        1,
                        384,
                        14,
                        14
                    ],
                    "Format/Datatype": "Channel major FP16 format where channel % 16 == 0"
                }
            ],
            "ParameterType": "PointWise",
            "ParameterSubType": "PointWiseExpression",
            "NbInputArgs": 1,
            "InputArgs": [
                "arg0"
            ],
            "NbOutputVars": 1,
            "OutputVars": [
                "var1"
            ],
            "NbParams": 0,
            "Params": [],
            "NbLiterals": 2,
            "Literals": [
                "6.000000e+00f",
                "0.000000e+00f"
            ],
            "NbOperations": 2,
            "Operations": [
                "auto const var0 = pwgen::iMax(arg0, literal1);",
                "auto const var1 = pwgen::iMin(var0, literal0);"
            ],
            "TacticValue": "0x000000000000000b",
            "StreamId": 0,
            "Metadata": ""
        },
        {
            "Name": "Forced Cast ITensor (Unnamed Layer* 175) [ElementWise]_output_clamp.default from DataType.FLOAT to DataType.HALF - [aten_ops.torch.ops.aten._to_copy.default]-[/features/8/conv_1/2/_to_copy_31]",
            "LayerType": "NoOp",
            "Inputs": [
                {
                    "Name": "(Unnamed Layer* 175) [ElementWise]_output_clamp.default",
                    "Location": "Device",
                    "Dimensions": [
                        1,
                        384,
                        14,
                        14
                    ],
                    "Format/Datatype": "Channel major FP16 format where channel % 16 == 0"
                }
            ],
            "Outputs": [
                {
                    "Name": "(Unnamed Layer* 176) [Identity]_output",
                    "Location": "Device",
                    "Dimensions": [
                        1,
                        384,
                        14,
                        14
                    ],
                    "Format/Datatype": "Channel major FP16 format where channel % 8 == 0"
                }
            ],
            "TacticValue": "0x0000000000000000",
            "StreamId": 0,
            "Metadata": ""
        },
        {
            "Name": "[CONVOLUTION]-[aten_ops.convolution.default]-[/features/8/conv/2/convolution_23] + [SCALE]-[aten_ops._native_batch_norm_legit_no_training.default]-[/features/8/conv/3/_native_batch_norm_legit_no_training_23] + [ELEMENTWISE]-[aten_ops.add.Tensor]-[/features/8/add_3]",
            "LayerType": "CaskGemmConvolution",
            "Inputs": [
                {
                    "Name": "(Unnamed Layer* 176) [Identity]_output",
                    "Location": "Device",
                    "Dimensions": [
                        1,
                        384,
                        14,
                        14
                    ],
                    "Format/Datatype": "Channel major FP16 format where channel % 8 == 0"
                },
                {
                    "Name": "(Unnamed Layer* 156) [Scale]_output",
                    "Location": "Device",
                    "Dimensions": [
                        1,
                        64,
                        14,
                        14
                    ],
                    "Format/Datatype": "Channel major FP16 format where channel % 8 == 0"
                }
            ],
            "Outputs": [
                {
                    "Name": "(Unnamed Layer* 179) [ElementWise]_output_add.Tensor",
                    "Location": "Device",
                    "Dimensions": [
                        1,
                        64,
                        14,
                        14
                    ],
                    "Format/Datatype": "Channel major FP16 format where channel % 8 == 0"
                }
            ],
            "ParameterType": "Convolution",
            "Kernel": [
                1,
                1
            ],
            "PaddingMode": "kEXPLICIT_ROUND_DOWN",
            "PrePadding": [
                0,
                0
            ],
            "PostPadding": [
                0,
                0
            ],
            "Stride": [
                1,
                1
            ],
            "Dilation": [
                1,
                1
            ],
            "OutMaps": 64,
            "Groups": 1,
            "Weights": {
                "Type": "Half",
                "Count": 24576
            },
            "Bias": {
                "Type": "Half",
                "Count": 64
            },
            "HasSparseWeights": 0,
            "HasDynamicFilter": 0,
            "HasDynamicBias": 0,
            "HasResidual": 1,
            "ConvXAsActInputIdx": -1,
            "BiasAsActInputIdx": -1,
            "ResAsActInputIdx": -1,
            "Activation": "NONE",
            "TacticName": "sm80_xmma_gemm_f16f16_f16f16_f16_nn_n_tilesize64x32x64_stage5_warpsize2x2x1_tensor16x8x16",
            "TacticValue": "0x0000000000020137",
            "StreamId": 0,
            "Metadata": ""
        },
        {
            "Name": "[CONVOLUTION]-[aten_ops.convolution.default]-[/features/9/conv_0/0/convolution_24] + [SCALE]-[aten_ops._native_batch_norm_legit_no_training.default]-[/features/9/conv_0/1/_native_batch_norm_legit_no_training_24]",
            "LayerType": "CaskGemmConvolution",
            "Inputs": [
                {
                    "Name": "(Unnamed Layer* 179) [ElementWise]_output_add.Tensor",
                    "Location": "Device",
                    "Dimensions": [
                        1,
                        64,
                        14,
                        14
                    ],
                    "Format/Datatype": "Channel major FP16 format where channel % 8 == 0"
                }
            ],
            "Outputs": [
                {
                    "Name": "(Unnamed Layer* 181) [Scale]_output",
                    "Location": "Device",
                    "Dimensions": [
                        1,
                        384,
                        14,
                        14
                    ],
                    "Format/Datatype": "Channel major FP16 format where channel % 8 == 0"
                }
            ],
            "ParameterType": "Convolution",
            "Kernel": [
                1,
                1
            ],
            "PaddingMode": "kEXPLICIT_ROUND_DOWN",
            "PrePadding": [
                0,
                0
            ],
            "PostPadding": [
                0,
                0
            ],
            "Stride": [
                1,
                1
            ],
            "Dilation": [
                1,
                1
            ],
            "OutMaps": 384,
            "Groups": 1,
            "Weights": {
                "Type": "Half",
                "Count": 24576
            },
            "Bias": {
                "Type": "Half",
                "Count": 384
            },
            "HasSparseWeights": 0,
            "HasDynamicFilter": 0,
            "HasDynamicBias": 0,
            "HasResidual": 0,
            "ConvXAsActInputIdx": -1,
            "BiasAsActInputIdx": -1,
            "ResAsActInputIdx": -1,
            "Activation": "NONE",
            "TacticName": "ampere_h16816gemm_128x64_ldg8_relu_stages_32x6_nn_v1",
            "TacticValue": "0x000000000002067c",
            "StreamId": 0,
            "Metadata": ""
        },
        {
            "Name": "Forced Cast ITensor (Unnamed Layer* 181) [Scale]_output from DataType.FLOAT to DataType.FLOAT - [aten_ops.torch.ops.aten._to_copy.default]-[/features/9/conv_0/2/_to_copy_32]",
            "LayerType": "NoOp",
            "Inputs": [
                {
                    "Name": "(Unnamed Layer* 181) [Scale]_output",
                    "Location": "Device",
                    "Dimensions": [
                        1,
                        384,
                        14,
                        14
                    ],
                    "Format/Datatype": "Channel major FP16 format where channel % 8 == 0"
                }
            ],
            "Outputs": [
                {
                    "Name": "(Unnamed Layer* 182) [Identity]_output",
                    "Location": "Device",
                    "Dimensions": [
                        1,
                        384,
                        14,
                        14
                    ],
                    "Format/Datatype": "Channel major FP16 format where channel % 16 == 0"
                }
            ],
            "TacticValue": "0x0000000000000000",
            "StreamId": 0,
            "Metadata": ""
        },
        {
            "Name": "PWN(/features/9/conv_0/2/clamp_16_min_rhs + /features/9/conv_0/2/clamp_16_min_rhs_broadcast, PWN(PWN(/features/9/conv_0/2/clamp_16_max_rhs + /features/9/conv_0/2/clamp_16_max_rhs_broadcast, [ELEMENTWISE]-[aten_ops.clamp.default]-[/features/9/conv_0/2/clamp_16_max]), [ELEMENTWISE]-[aten_ops.clamp.default]-[/features/9/conv_0/2/clamp_16_min]))",
            "LayerType": "PointWiseV2",
            "Inputs": [
                {
                    "Name": "(Unnamed Layer* 182) [Identity]_output",
                    "Location": "Device",
                    "Dimensions": [
                        1,
                        384,
                        14,
                        14
                    ],
                    "Format/Datatype": "Channel major FP16 format where channel % 16 == 0"
                }
            ],
            "Outputs": [
                {
                    "Name": "(Unnamed Layer* 188) [ElementWise]_output_clamp.default",
                    "Location": "Device",
                    "Dimensions": [
                        1,
                        384,
                        14,
                        14
                    ],
                    "Format/Datatype": "Channel major FP16 format where channel % 16 == 0"
                }
            ],
            "ParameterType": "PointWise",
            "ParameterSubType": "PointWiseExpression",
            "NbInputArgs": 1,
            "InputArgs": [
                "arg0"
            ],
            "NbOutputVars": 1,
            "OutputVars": [
                "var1"
            ],
            "NbParams": 0,
            "Params": [],
            "NbLiterals": 2,
            "Literals": [
                "6.000000e+00f",
                "0.000000e+00f"
            ],
            "NbOperations": 2,
            "Operations": [
                "auto const var0 = pwgen::iMax(arg0, literal1);",
                "auto const var1 = pwgen::iMin(var0, literal0);"
            ],
            "TacticValue": "0x000000000000000b",
            "StreamId": 0,
            "Metadata": ""
        },
        {
            "Name": "Forced Cast ITensor (Unnamed Layer* 188) [ElementWise]_output_clamp.default from DataType.FLOAT to DataType.HALF - [aten_ops.torch.ops.aten._to_copy.default]-[/features/9/conv_0/2/_to_copy_33]",
            "LayerType": "NoOp",
            "Inputs": [
                {
                    "Name": "(Unnamed Layer* 188) [ElementWise]_output_clamp.default",
                    "Location": "Device",
                    "Dimensions": [
                        1,
                        384,
                        14,
                        14
                    ],
                    "Format/Datatype": "Channel major FP16 format where channel % 16 == 0"
                }
            ],
            "Outputs": [
                {
                    "Name": "(Unnamed Layer* 189) [Identity]_output",
                    "Location": "Device",
                    "Dimensions": [
                        1,
                        384,
                        14,
                        14
                    ],
                    "Format/Datatype": "Channel major FP16 format where channel % 8 == 0"
                }
            ],
            "TacticValue": "0x0000000000000000",
            "StreamId": 0,
            "Metadata": ""
        },
        {
            "Name": "[CONVOLUTION]-[aten_ops.convolution.default]-[/features/9/conv_1/0/convolution_25] + [SCALE]-[aten_ops._native_batch_norm_legit_no_training.default]-[/features/9/conv_1/1/_native_batch_norm_legit_no_training_25]",
            "LayerType": "CaskConvolution",
            "Inputs": [
                {
                    "Name": "(Unnamed Layer* 189) [Identity]_output",
                    "Location": "Device",
                    "Dimensions": [
                        1,
                        384,
                        14,
                        14
                    ],
                    "Format/Datatype": "Channel major FP16 format where channel % 8 == 0"
                }
            ],
            "Outputs": [
                {
                    "Name": "(Unnamed Layer* 191) [Scale]_output",
                    "Location": "Device",
                    "Dimensions": [
                        1,
                        384,
                        14,
                        14
                    ],
                    "Format/Datatype": "Channel major FP16 format where channel % 8 == 0"
                }
            ],
            "ParameterType": "Convolution",
            "Kernel": [
                3,
                3
            ],
            "PaddingMode": "kEXPLICIT_ROUND_DOWN",
            "PrePadding": [
                1,
                1
            ],
            "PostPadding": [
                1,
                1
            ],
            "Stride": [
                1,
                1
            ],
            "Dilation": [
                1,
                1
            ],
            "OutMaps": 384,
            "Groups": 384,
            "Weights": {
                "Type": "Half",
                "Count": 3456
            },
            "Bias": {
                "Type": "Half",
                "Count": 384
            },
            "HasSparseWeights": 0,
            "HasDynamicFilter": 0,
            "HasDynamicBias": 0,
            "HasResidual": 0,
            "ConvXAsActInputIdx": -1,
            "BiasAsActInputIdx": -1,
            "ResAsActInputIdx": -1,
            "Activation": "NONE",
            "HasBias": 1,
            "HasReLU": 0,
            "TacticName": "sm50_xmma_convolution_depthwiseHMMA_FP16NHWCx8_TR3_TS3_STRIDEH1_STRIDEW1",
            "TacticValue": "0xf9f6e2e1b0fd88e6",
            "StreamId": 0,
            "Metadata": ""
        },
        {
            "Name": "Forced Cast ITensor (Unnamed Layer* 191) [Scale]_output from DataType.FLOAT to DataType.FLOAT - [aten_ops.torch.ops.aten._to_copy.default]-[/features/9/conv_1/2/_to_copy_34]",
            "LayerType": "NoOp",
            "Inputs": [
                {
                    "Name": "(Unnamed Layer* 191) [Scale]_output",
                    "Location": "Device",
                    "Dimensions": [
                        1,
                        384,
                        14,
                        14
                    ],
                    "Format/Datatype": "Channel major FP16 format where channel % 8 == 0"
                }
            ],
            "Outputs": [
                {
                    "Name": "(Unnamed Layer* 192) [Identity]_output",
                    "Location": "Device",
                    "Dimensions": [
                        1,
                        384,
                        14,
                        14
                    ],
                    "Format/Datatype": "Channel major FP16 format where channel % 16 == 0"
                }
            ],
            "TacticValue": "0x0000000000000000",
            "StreamId": 0,
            "Metadata": ""
        },
        {
            "Name": "PWN(/features/9/conv_1/2/clamp_17_min_rhs + /features/9/conv_1/2/clamp_17_min_rhs_broadcast, PWN(PWN(/features/9/conv_1/2/clamp_17_max_rhs + /features/9/conv_1/2/clamp_17_max_rhs_broadcast, [ELEMENTWISE]-[aten_ops.clamp.default]-[/features/9/conv_1/2/clamp_17_max]), [ELEMENTWISE]-[aten_ops.clamp.default]-[/features/9/conv_1/2/clamp_17_min]))",
            "LayerType": "PointWiseV2",
            "Inputs": [
                {
                    "Name": "(Unnamed Layer* 192) [Identity]_output",
                    "Location": "Device",
                    "Dimensions": [
                        1,
                        384,
                        14,
                        14
                    ],
                    "Format/Datatype": "Channel major FP16 format where channel % 16 == 0"
                }
            ],
            "Outputs": [
                {
                    "Name": "(Unnamed Layer* 198) [ElementWise]_output_clamp.default",
                    "Location": "Device",
                    "Dimensions": [
                        1,
                        384,
                        14,
                        14
                    ],
                    "Format/Datatype": "Channel major FP16 format where channel % 16 == 0"
…
                        960,
                        7,
                        7
                    ],
                    "Format/Datatype": "Channel major FP16 format where channel % 8 == 0"
                }
            ],
            "Outputs": [
                {
                    "Name": "(Unnamed Layer* 347) [ElementWise]_output_clamp.default",
                    "Location": "Device",
                    "Dimensions": [
                        1,
                        960,
                        7,
                        7
                    ],
                    "Format/Datatype": "Channel major FP16 format where channel % 8 == 0"
                }
            ],
            "ParameterType": "PointWise",
            "ParameterSubType": "PointWiseExpression",
            "NbInputArgs": 1,
            "InputArgs": [
                "arg0"
            ],
            "NbOutputVars": 1,
            "OutputVars": [
                "var1"
            ],
            "NbParams": 0,
            "Params": [],
            "NbLiterals": 2,
            "Literals": [
                "6.000000e+00f",
                "0.000000e+00f"
            ],
            "NbOperations": 2,
            "Operations": [
                "auto const var0 = pwgen::iMax(arg0, literal1);",
                "auto const var1 = pwgen::iMin(var0, literal0);"
            ],
            "TacticValue": "0x0000000000000000",
            "StreamId": 0,
            "Metadata": ""
        },
        {
            "Name": "Forced Cast ITensor (Unnamed Layer* 347) [ElementWise]_output_clamp.default from DataType.FLOAT to DataType.HALF - [aten_ops.torch.ops.aten._to_copy.default]-[/features/16/conv_0/2/_to_copy_61]",
            "LayerType": "NoOp",
            "Inputs": [
                {
                    "Name": "(Unnamed Layer* 347) [ElementWise]_output_clamp.default",
                    "Location": "Device",
                    "Dimensions": [
                        1,
                        960,
                        7,
                        7
                    ],
                    "Format/Datatype": "Channel major FP16 format where channel % 8 == 0"
                }
            ],
            "Outputs": [
                {
                    "Name": "(Unnamed Layer* 348) [Identity]_output",
                    "Location": "Device",
                    "Dimensions": [
                        1,
                        960,
                        7,
                        7
                    ],
                    "Format/Datatype": "Channel major FP16 format where channel % 8 == 0"
                }
            ],
            "TacticValue": "0x0000000000000000",
            "StreamId": 0,
            "Metadata": ""
        },
        {
            "Name": "[CONVOLUTION]-[aten_ops.convolution.default]-[/features/16/conv_1/0/convolution_46] + [SCALE]-[aten_ops._native_batch_norm_legit_no_training.default]-[/features/16/conv_1/1/_native_batch_norm_legit_no_training_46]",
            "LayerType": "CaskConvolution",
            "Inputs": [
                {
                    "Name": "(Unnamed Layer* 348) [Identity]_output",
                    "Location": "Device",
                    "Dimensions": [
                        1,
                        960,
                        7,
                        7
                    ],
                    "Format/Datatype": "Channel major FP16 format where channel % 8 == 0"
                }
            ],
            "Outputs": [
                {
                    "Name": "(Unnamed Layer* 350) [Scale]_output",
                    "Location": "Device",
                    "Dimensions": [
                        1,
                        960,
                        7,
                        7
                    ],
                    "Format/Datatype": "Channel major FP16 format where channel % 8 == 0"
                }
            ],
            "ParameterType": "Convolution",
            "Kernel": [
                3,
                3
            ],
            "PaddingMode": "kEXPLICIT_ROUND_DOWN",
            "PrePadding": [
                1,
                1
            ],
            "PostPadding": [
                1,
                1
            ],
            "Stride": [
                1,
                1
            ],
            "Dilation": [
                1,
                1
            ],
            "OutMaps": 960,
            "Groups": 960,
            "Weights": {
                "Type": "Half",
                "Count": 8640
            },
            "Bias": {
                "Type": "Half",
                "Count": 960
            },
            "HasSparseWeights": 0,
            "HasDynamicFilter": 0,
            "HasDynamicBias": 0,
            "HasResidual": 0,
            "ConvXAsActInputIdx": -1,
            "BiasAsActInputIdx": -1,
            "ResAsActInputIdx": -1,
            "Activation": "NONE",
            "HasBias": 1,
            "HasReLU": 0,
            "TacticName": "sm50_xmma_convolution_depthwiseHMMA_FP16NHWCx8_TR3_TS3_STRIDEH1_STRIDEW1",
            "TacticValue": "0xf9f6e2e1b0fd88e6",
            "StreamId": 0,
            "Metadata": ""
        },
        {
            "Name": "Forced Cast ITensor (Unnamed Layer* 350) [Scale]_output from DataType.FLOAT to DataType.FLOAT - [aten_ops.torch.ops.aten._to_copy.default]-[/features/16/conv_1/2/_to_copy_62]",
            "LayerType": "NoOp",
            "Inputs": [
                {
                    "Name": "(Unnamed Layer* 350) [Scale]_output",
                    "Location": "Device",
                    "Dimensions": [
                        1,
                        960,
                        7,
                        7
                    ],
                    "Format/Datatype": "Channel major FP16 format where channel % 8 == 0"
                }
            ],
            "Outputs": [
                {
                    "Name": "(Unnamed Layer* 351) [Identity]_output",
                    "Location": "Device",
                    "Dimensions": [
                        1,
                        960,
                        7,
                        7
                    ],
                    "Format/Datatype": "Channel major FP16 format where channel % 8 == 0"
                }
            ],
            "TacticValue": "0x0000000000000000",
            "StreamId": 0,
            "Metadata": ""
        },
        {
            "Name": "PWN(/features/16/conv_1/2/clamp_31_min_rhs + /features/16/conv_1/2/clamp_31_min_rhs_broadcast, PWN(PWN(/features/16/conv_1/2/clamp_31_max_rhs + /features/16/conv_1/2/clamp_31_max_rhs_broadcast, [ELEMENTWISE]-[aten_ops.clamp.default]-[/features/16/conv_1/2/clamp_31_max]), [ELEMENTWISE]-[aten_ops.clamp.default]-[/features/16/conv_1/2/clamp_31_min]))",
            "LayerType": "PointWiseV2",
            "Inputs": [
                {
                    "Name": "(Unnamed Layer* 351) [Identity]_output",
                    "Location": "Device",
                    "Dimensions": [
                        1,
                        960,
                        7,
                        7
                    ],
                    "Format/Datatype": "Channel major FP16 format where channel % 8 == 0"
                }
            ],
            "Outputs": [
                {
                    "Name": "(Unnamed Layer* 357) [ElementWise]_output_clamp.default",
                    "Location": "Device",
                    "Dimensions": [
                        1,
                        960,
                        7,
                        7
                    ],
                    "Format/Datatype": "Channel major FP16 format where channel % 8 == 0"
                }
            ],
            "ParameterType": "PointWise",
            "ParameterSubType": "PointWiseExpression",
            "NbInputArgs": 1,
            "InputArgs": [
                "arg0"
            ],
            "NbOutputVars": 1,
            "OutputVars": [
                "var1"
            ],
            "NbParams": 0,
            "Params": [],
            "NbLiterals": 2,
            "Literals": [
                "6.000000e+00f",
                "0.000000e+00f"
            ],
            "NbOperations": 2,
            "Operations": [
                "auto const var0 = pwgen::iMax(arg0, literal1);",
                "auto const var1 = pwgen::iMin(var0, literal0);"
            ],
            "TacticValue": "0x0000000000000000",
            "StreamId": 0,
            "Metadata": ""
        },
        {
            "Name": "Forced Cast ITensor (Unnamed Layer* 357) [ElementWise]_output_clamp.default from DataType.FLOAT to DataType.HALF - [aten_ops.torch.ops.aten._to_copy.default]-[/features/16/conv_1/2/_to_copy_63]",
            "LayerType": "NoOp",
            "Inputs": [
                {
                    "Name": "(Unnamed Layer* 357) [ElementWise]_output_clamp.default",
                    "Location": "Device",
                    "Dimensions": [
                        1,
                        960,
                        7,
                        7
                    ],
                    "Format/Datatype": "Channel major FP16 format where channel % 8 == 0"
                }
            ],
            "Outputs": [
                {
                    "Name": "(Unnamed Layer* 358) [Identity]_output",
                    "Location": "Device",
                    "Dimensions": [
                        1,
                        960,
                        7,
                        7
                    ],
                    "Format/Datatype": "Channel major FP16 format where channel % 8 == 0"
                }
            ],
            "TacticValue": "0x0000000000000000",
            "StreamId": 0,
            "Metadata": ""
        },
        {
            "Name": "[CONVOLUTION]-[aten_ops.convolution.default]-[/features/16/conv/2/convolution_47] + [SCALE]-[aten_ops._native_batch_norm_legit_no_training.default]-[/features/16/conv/3/_native_batch_norm_legit_no_training_47] + [ELEMENTWISE]-[aten_ops.add.Tensor]-[/features/16/add_9]",
            "LayerType": "CaskConvolution",
            "Inputs": [
                {
                    "Name": "(Unnamed Layer* 358) [Identity]_output",
                    "Location": "Device",
                    "Dimensions": [
                        1,
                        960,
                        7,
                        7
                    ],
                    "Format/Datatype": "Channel major FP16 format where channel % 8 == 0"
                },
                {
                    "Name": "(Unnamed Layer* 338) [ElementWise]_output_add.Tensor",
                    "Location": "Device",
                    "Dimensions": [
                        1,
                        160,
                        7,
                        7
                    ],
                    "Format/Datatype": "Channel major FP16 format where channel % 8 == 0"
                }
            ],
            "Outputs": [
                {
                    "Name": "(Unnamed Layer* 361) [ElementWise]_output_add.Tensor",
                    "Location": "Device",
                    "Dimensions": [
                        1,
                        160,
                        7,
                        7
                    ],
                    "Format/Datatype": "Channel major FP16 format where channel % 8 == 0"
                }
            ],
            "ParameterType": "Convolution",
            "Kernel": [
                1,
                1
            ],
            "PaddingMode": "kEXPLICIT_ROUND_DOWN",
            "PrePadding": [
                0,
                0
            ],
            "PostPadding": [
                0,
                0
            ],
            "Stride": [
                1,
                1
            ],
            "Dilation": [
                1,
                1
            ],
            "OutMaps": 160,
            "Groups": 1,
            "Weights": {
                "Type": "Half",
                "Count": 153600
            },
            "Bias": {
                "Type": "Half",
                "Count": 160
            },
            "HasSparseWeights": 0,
            "HasDynamicFilter": 0,
            "HasDynamicBias": 0,
            "HasResidual": 1,
            "ConvXAsActInputIdx": -1,
            "BiasAsActInputIdx": -1,
            "ResAsActInputIdx": -1,
            "Activation": "NONE",
            "HasBias": 1,
            "HasReLU": 0,
            "TacticName": "sm80_xmma_fprop_implicit_gemm_f16f16_f16f16_f16_nhwckrsc_nhwc_tilesize64x32x64_stage5_warpsize2x2x1_g1_tensor16x8x16_simple_t1r1s1",
            "TacticValue": "0xe69f3e9fcc7b2069",
            "StreamId": 0,
            "Metadata": ""
        },
        {
            "Name": "[CONVOLUTION]-[aten_ops.convolution.default]-[/features/17/conv_0/0/convolution_48] + [SCALE]-[aten_ops._native_batch_norm_legit_no_training.default]-[/features/17/conv_0/1/_native_batch_norm_legit_no_training_48]",
            "LayerType": "CaskConvolution",
            "Inputs": [
                {
                    "Name": "(Unnamed Layer* 361) [ElementWise]_output_add.Tensor",
                    "Location": "Device",
                    "Dimensions": [
                        1,
                        160,
                        7,
                        7
                    ],
                    "Format/Datatype": "Channel major FP16 format where channel % 8 == 0"
                }
            ],
            "Outputs": [
                {
                    "Name": "(Unnamed Layer* 363) [Scale]_output",
                    "Location": "Device",
                    "Dimensions": [
                        1,
                        960,
                        7,
                        7
                    ],
                    "Format/Datatype": "Channel major FP16 format where channel % 8 == 0"
                }
            ],
            "ParameterType": "Convolution",
            "Kernel": [
                1,
                1
            ],
            "PaddingMode": "kEXPLICIT_ROUND_DOWN",
            "PrePadding": [
                0,
                0
            ],
            "PostPadding": [
                0,
                0
            ],
            "Stride": [
                1,
                1
            ],
            "Dilation": [
                1,
                1
            ],
            "OutMaps": 960,
            "Groups": 1,
            "Weights": {
                "Type": "Half",
                "Count": 153600
            },
            "Bias": {
                "Type": "Half",
                "Count": 960
            },
            "HasSparseWeights": 0,
            "HasDynamicFilter": 0,
            "HasDynamicBias": 0,
            "HasResidual": 0,
            "ConvXAsActInputIdx": -1,
            "BiasAsActInputIdx": -1,
            "ResAsActInputIdx": -1,
            "Activation": "NONE",
            "HasBias": 1,
            "HasReLU": 0,
            "TacticName": "sm80_xmma_fprop_implicit_gemm_f16f16_f16f16_f16_nhwckrsc_nhwc_tilesize64x128x32_stage5_warpsize2x2x1_g1_tensor16x8x16_simple_t1r1s1",
            "TacticValue": "0x5cf18273fea3db5c",
            "StreamId": 0,
            "Metadata": ""
        },
        {
            "Name": "Forced Cast ITensor (Unnamed Layer* 363) [Scale]_output from DataType.FLOAT to DataType.FLOAT - [aten_ops.torch.ops.aten._to_copy.default]-[/features/17/conv_0/2/_to_copy_64]",
            "LayerType": "NoOp",
            "Inputs": [
                {
                    "Name": "(Unnamed Layer* 363) [Scale]_output",
                    "Location": "Device",
                    "Dimensions": [
                        1,
                        960,
                        7,
                        7
                    ],
                    "Format/Datatype": "Channel major FP16 format where channel % 8 == 0"
                }
            ],
            "Outputs": [
                {
                    "Name": "(Unnamed Layer* 364) [Identity]_output",
                    "Location": "Device",
                    "Dimensions": [
                        1,
                        960,
                        7,
                        7
                    ],
                    "Format/Datatype": "Channel major FP16 format where channel % 8 == 0"
                }
            ],
            "TacticValue": "0x0000000000000000",
            "StreamId": 0,
            "Metadata": ""
        },
        {
            "Name": "PWN(/features/17/conv_0/2/clamp_32_min_rhs + /features/17/conv_0/2/clamp_32_min_rhs_broadcast, PWN(PWN(/features/17/conv_0/2/clamp_32_max_rhs + /features/17/conv_0/2/clamp_32_max_rhs_broadcast, [ELEMENTWISE]-[aten_ops.clamp.default]-[/features/17/conv_0/2/clamp_32_max]), [ELEMENTWISE]-[aten_ops.clamp.default]-[/features/17/conv_0/2/clamp_32_min]))",
            "LayerType": "PointWiseV2",
            "Inputs": [
                {
                    "Name": "(Unnamed Layer* 364) [Identity]_output",
                    "Location": "Device",
                    "Dimensions": [
                        1,
                        960,
                        7,
                        7
                    ],
                    "Format/Datatype": "Channel major FP16 format where channel % 8 == 0"
                }
            ],
            "Outputs": [
                {
                    "Name": "(Unnamed Layer* 370) [ElementWise]_output_clamp.default",
                    "Location": "Device",
                    "Dimensions": [
                        1,
                        960,
                        7,
                        7
                    ],
                    "Format/Datatype": "Channel major FP16 format where channel % 8 == 0"
                }
            ],
            "ParameterType": "PointWise",
            "ParameterSubType": "PointWiseExpression",
            "NbInputArgs": 1,
            "InputArgs": [
                "arg0"
            ],
            "NbOutputVars": 1,
            "OutputVars": [
                "var1"
            ],
            "NbParams": 0,
            "Params": [],
            "NbLiterals": 2,
            "Literals": [
                "6.000000e+00f",
                "0.000000e+00f"
            ],
            "NbOperations": 2,
            "Operations": [
                "auto const var0 = pwgen::iMax(arg0, literal1);",
                "auto const var1 = pwgen::iMin(var0, literal0);"
            ],
            "TacticValue": "0x0000000000000000",
            "StreamId": 0,
            "Metadata": ""
        },
        {
            "Name": "Forced Cast ITensor (Unnamed Layer* 370) [ElementWise]_output_clamp.default from DataType.FLOAT to DataType.HALF - [aten_ops.torch.ops.aten._to_copy.default]-[/features/17/conv_0/2/_to_copy_65]",
            "LayerType": "NoOp",
            "Inputs": [
                {
                    "Name": "(Unnamed Layer* 370) [ElementWise]_output_clamp.default",
                    "Location": "Device",
                    "Dimensions": [
                        1,
                        960,
                        7,
                        7
                    ],
                    "Format/Datatype": "Channel major FP16 format where channel % 8 == 0"
                }
            ],
            "Outputs": [
                {
                    "Name": "(Unnamed Layer* 371) [Identity]_output",
                    "Location": "Device",
                    "Dimensions": [
                        1,
                        960,
                        7,
                        7
                    ],
                    "Format/Datatype": "Channel major FP16 format where channel % 8 == 0"
                }
            ],
            "TacticValue": "0x0000000000000000",
            "StreamId": 0,
            "Metadata": ""
        },
        {
            "Name": "[CONVOLUTION]-[aten_ops.convolution.default]-[/features/17/conv_1/0/convolution_49] + [SCALE]-[aten_ops._native_batch_norm_legit_no_training.default]-[/features/17/conv_1/1/_native_batch_norm_legit_no_training_49]",
            "LayerType": "CaskConvolution",
            "Inputs": [
                {
                    "Name": "(Unnamed Layer* 371) [Identity]_output",
                    "Location": "Device",
                    "Dimensions": [
                        1,
                        960,
                        7,
                        7
                    ],
                    "Format/Datatype": "Channel major FP16 format where channel % 8 == 0"
                }
            ],
            "Outputs": [
                {
                    "Name": "(Unnamed Layer* 373) [Scale]_output",
                    "Location": "Device",
                    "Dimensions": [
                        1,
                        960,
                        7,
                        7
                    ],
                    "Format/Datatype": "Channel major FP16 format where channel % 8 == 0"
                }
            ],
            "ParameterType": "Convolution",
            "Kernel": [
                3,
                3
            ],
            "PaddingMode": "kEXPLICIT_ROUND_DOWN",
            "PrePadding": [
                1,
                1
            ],
            "PostPadding": [
                1,
                1
            ],
            "Stride": [
                1,
                1
            ],
            "Dilation": [
                1,
                1
            ],
            "OutMaps": 960,
            "Groups": 960,
            "Weights": {
                "Type": "Half",
                "Count": 8640
            },
            "Bias": {
                "Type": "Half",
                "Count": 960
            },
            "HasSparseWeights": 0,
            "HasDynamicFilter": 0,
            "HasDynamicBias": 0,
            "HasResidual": 0,
            "ConvXAsActInputIdx": -1,
            "BiasAsActInputIdx": -1,
            "ResAsActInputIdx": -1,
            "Activation": "NONE",
            "HasBias": 1,
            "HasReLU": 0,
            "TacticName": "sm50_xmma_convolution_depthwiseHMMA_FP16NHWCx8_TR3_TS3_STRIDEH1_STRIDEW1",
            "TacticValue": "0xf9f6e2e1b0fd88e6",
            "StreamId": 0,
            "Metadata": ""
        },
        {
            "Name": "Forced Cast ITensor (Unnamed Layer* 373) [Scale]_output from DataType.FLOAT to DataType.FLOAT - [aten_ops.torch.ops.aten._to_copy.default]-[/features/17/conv_1/2/_to_copy_66]",
            "LayerType": "NoOp",
            "Inputs": [
                {
                    "Name": "(Unnamed Layer* 373) [Scale]_output",
                    "Location": "Device",
                    "Dimensions": [
                        1,
                        960,
                        7,
                        7
                    ],
                    "Format/Datatype": "Channel major FP16 format where channel % 8 == 0"
                }
            ],
            "Outputs": [
                {
                    "Name": "(Unnamed Layer* 374) [Identity]_output",
                    "Location": "Device",
                    "Dimensions": [
                        1,
                        960,
                        7,
                        7
                    ],
                    "Format/Datatype": "Channel major FP16 format where channel % 8 == 0"
                }
            ],
            "TacticValue": "0x0000000000000000",
            "StreamId": 0,
            "Metadata": ""
        },
        {
            "Name": "PWN(/features/17/conv_1/2/clamp_33_min_rhs + /features/17/conv_1/2/clamp_33_min_rhs_broadcast, PWN(PWN(/features/17/conv_1/2/clamp_33_max_rhs + /features/17/conv_1/2/clamp_33_max_rhs_broadcast, [ELEMENTWISE]-[aten_ops.clamp.default]-[/features/17/conv_1/2/clamp_33_max]), [ELEMENTWISE]-[aten_ops.clamp.default]-[/features/17/conv_1/2/clamp_33_min]))",
            "LayerType": "PointWiseV2",
            "Inputs": [
                {
                    "Name": "(Unnamed Layer* 374) [Identity]_output",
                    "Location": "Device",
                    "Dimensions": [
                        1,
                        960,
                        7,
                        7
                    ],
                    "Format/Datatype": "Channel major FP16 format where channel % 8 == 0"
                }
            ],
            "Outputs": [
                {
                    "Name": "(Unnamed Layer* 380) [ElementWise]_output_clamp.default",
                    "Location": "Device",
                    "Dimensions": [
                        1,
                        960,
                        7,
                        7
                    ],
                    "Format/Datatype": "Channel major FP16 format where channel % 8 == 0"
                }
            ],
            "ParameterType": "PointWise",
            "ParameterSubType": "PointWiseExpression",
            "NbInputArgs": 1,
            "InputArgs": [
                "arg0"
            ],
            "NbOutputVars": 1,
            "OutputVars": [
                "var1"
            ],
            "NbParams": 0,
            "Params": [],
            "NbLiterals": 2,
            "Literals": [
                "6.000000e+00f",
                "0.000000e+00f"
            ],
            "NbOperations": 2,
            "Operations": [
                "auto const var0 = pwgen::iMax(arg0, literal1);",
                "auto const var1 = pwgen::iMin(var0, literal0);"
            ],
            "TacticValue": "0x0000000000000000",
            "StreamId": 0,
            "Metadata": ""
        },
        {
            "Name": "Forced Cast ITensor (Unnamed Layer* 380) [ElementWise]_output_clamp.default from DataType.FLOAT to DataType.HALF - [aten_ops.torch.ops.aten._to_copy.default]-[/features/17/conv_1/2/_to_copy_67]",
            "LayerType": "NoOp",
            "Inputs": [
                {
                    "Name": "(Unnamed Layer* 380) [ElementWise]_output_clamp.default",
                    "Location": "Device",
                    "Dimensions": [
                        1,
                        960,
                        7,
                        7
                    ],
                    "Format/Datatype": "Channel major FP16 format where channel % 8 == 0"
                }
            ],
            "Outputs": [
                {
                    "Name": "(Unnamed Layer* 381) [Identity]_output",
                    "Location": "Device",
                    "Dimensions": [
                        1,
                        960,
                        7,
                        7
                    ],
                    "Format/Datatype": "Channel major FP16 format where channel % 8 == 0"
                }
            ],
            "TacticValue": "0x0000000000000000",
            "StreamId": 0,
            "Metadata": ""
        },
        {
            "Name": "[CONVOLUTION]-[aten_ops.convolution.default]-[/features/17/conv/2/convolution_50] + [SCALE]-[aten_ops._native_batch_norm_legit_no_training.default]-[/features/17/conv/3/_native_batch_norm_legit_no_training_50]",
            "LayerType": "CaskGemmConvolution",
            "Inputs": [
                {
                    "Name": "(Unnamed Layer* 381) [Identity]_output",
                    "Location": "Device",
                    "Dimensions": [
                        1,
                        960,
                        7,
                        7
                    ],
                    "Format/Datatype": "Channel major FP16 format where channel % 8 == 0"
                }
            ],
            "Outputs": [
                {
                    "Name": "(Unnamed Layer* 383) [Scale]_output",
                    "Location": "Device",
                    "Dimensions": [
                        1,
                        320,
                        7,
                        7
                    ],
                    "Format/Datatype": "Channel major FP16 format where channel % 8 == 0"
                }
            ],
            "ParameterType": "Convolution",
            "Kernel": [
                1,
                1
            ],
            "PaddingMode": "kEXPLICIT_ROUND_DOWN",
            "PrePadding": [
                0,
                0
            ],
            "PostPadding": [
                0,
                0
            ],
            "Stride": [
                1,
                1
            ],
            "Dilation": [
                1,
                1
            ],
            "OutMaps": 320,
            "Groups": 1,
            "Weights": {
                "Type": "Half",
                "Count": 307200
            },
            "Bias": {
                "Type": "Half",
                "Count": 320
            },
            "HasSparseWeights": 0,
            "HasDynamicFilter": 0,
            "HasDynamicBias": 0,
            "HasResidual": 0,
            "ConvXAsActInputIdx": -1,
            "BiasAsActInputIdx": -1,
            "ResAsActInputIdx": -1,
            "Activation": "NONE",
            "TacticName": "ampere_h16816gemm_64x64_sliced1x2_ldg8_relu_stages_64x5_tn_v1",
            "TacticValue": "0x0000000000020518",
            "StreamId": 0,
            "Metadata": ""
        },
        {
            "Name": "[CONVOLUTION]-[aten_ops.convolution.default]-[/features_18/0/convolution_51] + [SCALE]-[aten_ops._native_batch_norm_legit_no_training.default]-[/features_18/1/_native_batch_norm_legit_no_training_51]",
            "LayerType": "CaskGemmConvolution",
            "Inputs": [
                {
                    "Name": "(Unnamed Layer* 383) [Scale]_output",
                    "Location": "Device",
                    "Dimensions": [
                        1,
                        320,
                        7,
                        7
                    ],
                    "Format/Datatype": "Channel major FP16 format where channel % 8 == 0"
                }
            ],
            "Outputs": [
                {
                    "Name": "(Unnamed Layer* 385) [Scale]_output",
                    "Location": "Device",
                    "Dimensions": [
                        1,
                        1280,
                        7,
                        7
                    ],
                    "Format/Datatype": "Channel major FP16 format where channel % 8 == 0"
                }
            ],
            "ParameterType": "Convolution",
            "Kernel": [
                1,
                1
            ],
            "PaddingMode": "kEXPLICIT_ROUND_DOWN",
            "PrePadding": [
                0,
                0
            ],
            "PostPadding": [
                0,
                0
            ],
            "Stride": [
                1,
                1
            ],
            "Dilation": [
                1,
                1
            ],
            "OutMaps": 1280,
            "Groups": 1,
            "Weights": {
                "Type": "Half",
                "Count": 409600
            },
            "Bias": {
                "Type": "Half",
                "Count": 1280
            },
            "HasSparseWeights": 0,
            "HasDynamicFilter": 0,
            "HasDynamicBias": 0,
            "HasResidual": 0,
            "ConvXAsActInputIdx": -1,
            "BiasAsActInputIdx": -1,
            "ResAsActInputIdx": -1,
            "Activation": "NONE",
            "TacticName": "ampere_h16816gemm_128x64_ldg8_relu_stages_32x6_nn_v1",
            "TacticValue": "0x000000000002067c",
            "StreamId": 0,
            "Metadata": ""
        },
        {
            "Name": "Forced Cast ITensor (Unnamed Layer* 385) [Scale]_output from DataType.FLOAT to DataType.FLOAT - [aten_ops.torch.ops.aten._to_copy.default]-[/features_18/2/_to_copy_68]",
            "LayerType": "NoOp",
            "Inputs": [
                {
                    "Name": "(Unnamed Layer* 385) [Scale]_output",
                    "Location": "Device",
                    "Dimensions": [
                        1,
                        1280,
                        7,
                        7
                    ],
                    "Format/Datatype": "Channel major FP16 format where channel % 8 == 0"
                }
            ],
            "Outputs": [
                {
                    "Name": "(Unnamed Layer* 386) [Identity]_output",
                    "Location": "Device",
                    "Dimensions": [
                        1,
                        1280,
                        7,
                        7
                    ],
                    "Format/Datatype": "Channel major FP16 format where channel % 16 == 0"
                }
            ],
            "TacticValue": "0x0000000000000000",
            "StreamId": 0,
            "Metadata": ""
        },
        {
            "Name": "PWN(/features_18/2/clamp_34_min_rhs + /features_18/2/clamp_34_min_rhs_broadcast, PWN(PWN(/features_18/2/clamp_34_max_rhs + /features_18/2/clamp_34_max_rhs_broadcast, [ELEMENTWISE]-[aten_ops.clamp.default]-[/features_18/2/clamp_34_max]), [ELEMENTWISE]-[aten_ops.clamp.default]-[/features_18/2/clamp_34_min]))",
            "LayerType": "PointWiseV2",
            "Inputs": [
                {
                    "Name": "(Unnamed Layer* 386) [Identity]_output",
                    "Location": "Device",
                    "Dimensions": [
                        1,
                        1280,
                        7,
                        7
                    ],
                    "Format/Datatype": "Channel major FP16 format where channel % 16 == 0"
                }
            ],
            "Outputs": [
                {
                    "Name": "(Unnamed Layer* 392) [ElementWise]_output_clamp.default",
                    "Location": "Device",
                    "Dimensions": [
                        1,
                        1280,
                        7,
                        7
                    ],
                    "Format/Datatype": "Channel major FP16 format where channel % 16 == 0"
                }
            ],
            "ParameterType": "PointWise",
            "ParameterSubType": "PointWiseExpression",
            "NbInputArgs": 1,
            "InputArgs": [
                "arg0"
            ],
            "NbOutputVars": 1,
            "OutputVars": [
                "var1"
            ],
            "NbParams": 0,
            "Params": [],
            "NbLiterals": 2,
            "Literals": [
                "6.000000e+00f",
                "0.000000e+00f"
            ],
            "NbOperations": 2,
            "Operations": [
                "auto const var0 = pwgen::iMax(arg0, literal1);",
                "auto const var1 = pwgen::iMin(var0, literal0);"
            ],
            "TacticValue": "0x000000000000001d",
            "StreamId": 0,
            "Metadata": ""
        },
        {
            "Name": "Forced Cast ITensor (Unnamed Layer* 392) [ElementWise]_output_clamp.default from DataType.FLOAT to DataType.HALF - [aten_ops.torch.ops.aten._to_copy.default]-[/features_18/2/_to_copy_69]",
            "LayerType": "NoOp",
            "Inputs": [
                {
                    "Name": "(Unnamed Layer* 392) [ElementWise]_output_clamp.default",
                    "Location": "Device",
                    "Dimensions": [
                        1,
                        1280,
                        7,
                        7
                    ],
                    "Format/Datatype": "Channel major FP16 format where channel % 16 == 0"
                }
            ],
            "Outputs": [
                {
                    "Name": "(Unnamed Layer* 393) [Identity]_output",
                    "Location": "Device",
                    "Dimensions": [
                        1,
                        1280,
                        7,
                        7
                    ],
                    "Format/Datatype": "Channel major FP16 format where channel % 8 == 0"
                }
            ],
            "TacticValue": "0x0000000000000000",
            "StreamId": 0,
            "Metadata": ""
        },
        {
            "Name": "[REDUCE]-[aten_ops.mean.dim]-[__/mean]",
            "LayerType": "CaskPooling",
            "Inputs": [
                {
                    "Name": "(Unnamed Layer* 393) [Identity]_output",
                    "Location": "Device",
                    "Dimensions": [
                        1,
                        1280,
                        7,
                        7
                    ],
                    "Format/Datatype": "Channel major FP16 format where channel % 8 == 0"
                }
            ],
            "Outputs": [
                {
                    "Name": "(Unnamed Layer* 394) [Reduce]_output",
                    "Location": "Device",
                    "Dimensions": [
                        1,
                        1280,
                        1,
                        1
                    ],
                    "Format/Datatype": "Channel major FP16 format where channel % 8 == 0"
                }
            ],
            "ParameterType": "Pooling",
            "PoolingType": "AVERAGE",
            "WindowSize": [
                7,
                7
            ],
            "PaddingMode": "kEXPLICIT_ROUND_DOWN",
            "PrePadding": [
                0,
                0
            ],
            "PostPadding": [
                0,
                0
            ],
            "Stride": [
                1,
                1
            ],
            "BlendFactor": 0,
            "AverageCountExcludesPadding": 1,
            "TacticName": "sm50_xmma_pooling_fw_4d_FP16FP32NHWC_Average_FastDiv_CAlign8",
            "TacticValue": "0xdaa6f29208dec74b",
            "StreamId": 0,
            "Metadata": ""
        },
        {
            "Name": "Reformatting CopyNode for Input Tensor 0 to [SHUFFLE]-[aten_ops.reshape.default]-[reshape_default]",
            "LayerType": "NoOp",
            "Inputs": [
                {
                    "Name": "(Unnamed Layer* 394) [Reduce]_output",
                    "Location": "Device",
                    "Dimensions": [
                        1,
                        1280,
                        1,
                        1
                    ],
                    "Format/Datatype": "Channel major FP16 format where channel % 8 == 0"
                }
            ],
            "Outputs": [
                {
                    "Name": "Reformatted Input Tensor 0 to [SHUFFLE]-[aten_ops.reshape.default]-[reshape_default]",
                    "Location": "Device",
                    "Dimensions": [
                        1,
                        1280,
                        1,
                        1
                    ],
                    "Format/Datatype": "Row major linear FP16 format"
                }
            ],
            "TacticValue": "0x0000000000000000",
            "StreamId": 0,
            "Metadata": ""
        },
        {
            "Name": "[SHUFFLE]-[aten_ops.reshape.default]-[reshape_default]",
            "LayerType": "NoOp",
            "Inputs": [
                {
                    "Name": "Reformatted Input Tensor 0 to [SHUFFLE]-[aten_ops.reshape.default]-[reshape_default]",
                    "Location": "Device",
                    "Dimensions": [
                        1,
                        1280,
                        1,
                        1
                    ],
                    "Format/Datatype": "Row major linear FP16 format"
                }
            ],
            "Outputs": [
                {
                    "Name": "(Unnamed Layer* 395) [Shuffle]_output",
                    "Location": "Device",
                    "Dimensions": [
                        1,
                        1280
                    ],
                    "Format/Datatype": "Row major linear FP16 format"
                }
            ],
            "TacticValue": "0x0000000000000000",
            "StreamId": 0,
            "Metadata": ""
        },
        {
            "Name": "Forced Cast ITensor (Unnamed Layer* 395) [Shuffle]_output from DataType.FLOAT to DataType.FLOAT - [aten_ops.torch.ops.aten.clone.default]-[/classifier/0/clone]",
            "LayerType": "NoOp",
            "Inputs": [
                {
                    "Name": "(Unnamed Layer* 395) [Shuffle]_output",
                    "Location": "Device",
                    "Dimensions": [
                        1,
                        1280
                    ],
                    "Format/Datatype": "Row major linear FP16 format"
                }
            ],
            "Outputs": [
                {
                    "Name": "(Unnamed Layer* 396) [Identity]_output",
                    "Location": "Device",
                    "Dimensions": [
                        1,
                        1280
                    ],
                    "Format/Datatype": "Row major linear FP16 format"
                }
            ],
            "TacticValue": "0x0000000000000000",
            "StreamId": 0,
            "Metadata": ""
        },
        {
            "Name": "reshape_before_[MATRIX_MULTIPLY]-[aten_ops.addmm.default]-[/classifier/1/addmm_mm]",
            "LayerType": "NoOp",
            "Inputs": [
                {
                    "Name": "(Unnamed Layer* 396) [Identity]_output",
                    "Location": "Device",
                    "Dimensions": [
                        1,
                        1280
                    ],
                    "Format/Datatype": "Row major linear FP16 format"
                }
            ],
            "Outputs": [
                {
                    "Name": "reshape_before_[MATRIX_MULTIPLY]-[aten_ops.addmm.default]-[/classifier/1/addmm_mm]_out_tensor",
                    "Location": "Device",
                    "Dimensions": [
                        1,
                        1280,
                        1,
                        1
                    ],
                    "Format/Datatype": "Row major linear FP16 format"
                }
            ],
            "TacticValue": "0x0000000000000000",
            "StreamId": 0,
            "Metadata": ""
        },
        {
            "Name": "Reformatting CopyNode for Input Tensor 0 to [MATRIX_MULTIPLY]-[aten_ops.addmm.default]-[/classifier/1/addmm_mm] + /classifier/1/addmm_constant_0 + /classifier/1/addmm_add_lhs_broadcast + unsqueeze_node_after_/classifier/1/addmm_constant_0 + /classifier/1/addmm_add_lhs_broadcast_(Unnamed Layer* 400) [Shuffle]_output + [ELEMENTWISE]-[aten_ops.addmm.default]-[/classifier/1/addmm_add]",
            "LayerType": "NoOp",
            "Inputs": [
                {
                    "Name": "reshape_before_[MATRIX_MULTIPLY]-[aten_ops.addmm.default]-[/classifier/1/addmm_mm]_out_tensor",
                    "Location": "Device",
                    "Dimensions": [
                        1,
                        1280,
                        1,
                        1
                    ],
                    "Format/Datatype": "Row major linear FP16 format"
                }
            ],
            "Outputs": [
                {
                    "Name": "Reformatted Input Tensor 0 to [MATRIX_MULTIPLY]-[aten_ops.addmm.default]-[/classifier/1/addmm_mm] + /classifier/1/addmm_constant_0 + /classifier/1/addmm_add_lhs_broadcast + unsqueeze_node_after_/classifier/1/addmm_constant_0 + /classifier/1/addmm_add_lhs_broadcast_(Unnamed Layer* 400) [Shuffle]_output + [ELEMENTWISE]-[aten_ops.addmm.default]-[/classifier/1/addmm_add]",
                    "Location": "Device",
                    "Dimensions": [
                        1,
                        1280,
                        1,
                        1
                    ],
                    "Format/Datatype": "Channel major FP16 format where channel % 8 == 0"
                }
            ],
            "TacticValue": "0x0000000000000000",
            "StreamId": 0,
            "Metadata": ""
        },
        {
            "Name": "[MATRIX_MULTIPLY]-[aten_ops.addmm.default]-[/classifier/1/addmm_mm] + /classifier/1/addmm_constant_0 + /classifier/1/addmm_add_lhs_broadcast + unsqueeze_node_after_/classifier/1/addmm_constant_0 + /classifier/1/addmm_add_lhs_broadcast_(Unnamed Layer* 400) [Shuffle]_output + [ELEMENTWISE]-[aten_ops.addmm.default]-[/classifier/1/addmm_add]",
            "LayerType": "CaskGemmConvolution",
            "Inputs": [
                {
                    "Name": "Reformatted Input Tensor 0 to [MATRIX_MULTIPLY]-[aten_ops.addmm.default]-[/classifier/1/addmm_mm] + /classifier/1/addmm_constant_0 + /classifier/1/addmm_add_lhs_broadcast + unsqueeze_node_after_/classifier/1/addmm_constant_0 + /classifier/1/addmm_add_lhs_broadcast_(Unnamed Layer* 400) [Shuffle]_output + [ELEMENTWISE]-[aten_ops.addmm.default]-[/classifier/1/addmm_add]",
                    "Location": "Device",
                    "Dimensions": [
                        1,
                        1280,
                        1,
                        1
                    ],
                    "Format/Datatype": "Channel major FP16 format where channel % 8 == 0"
                }
            ],
            "Outputs": [
                {
                    "Name": "[ELEMENTWISE]-[aten_ops.addmm.default]-[/classifier/1/addmm_add]_out_tensor",
                    "Location": "Device",
                    "Dimensions": [
                        1,
                        1000,
                        1,
                        1
                    ],
                    "Format/Datatype": "Channel major FP16 format where channel % 8 == 0"
                }
            ],
            "ParameterType": "Convolution",
            "Kernel": [
                1,
                1
            ],
            "PaddingMode": "kEXPLICIT_ROUND_DOWN",
            "PrePadding": [
                0,
                0
            ],
            "PostPadding": [
                0,
                0
            ],
            "Stride": [
                1,
                1
            ],
            "Dilation": [
                1,
                1
            ],
            "OutMaps": 1000,
            "Groups": 1,
            "Weights": {
                "Type": "Half",
                "Count": 1280000
            },
            "Bias": {
                "Type": "Half",
                "Count": 1000
            },
            "HasSparseWeights": 0,
            "HasDynamicFilter": 0,
            "HasDynamicBias": 0,
            "HasResidual": 0,
            "ConvXAsActInputIdx": -1,
            "BiasAsActInputIdx": -1,
            "ResAsActInputIdx": -1,
            "Activation": "NONE",
            "TacticName": "ampere_h16816gemm_64x64_sliced1x2_ldg8_relu_stages_64x5_tn_v1",
            "TacticValue": "0x0000000000020518",
            "StreamId": 0,
            "Metadata": ""
        },
        {
            "Name": "Reformatting CopyNode for Input Tensor 0 to copied_squeeze_after_[ELEMENTWISE]-[aten_ops.addmm.default]-[/classifier/1/addmm_add]",
            "LayerType": "NoOp",
            "Inputs": [
                {
                    "Name": "[ELEMENTWISE]-[aten_ops.addmm.default]-[/classifier/1/addmm_add]_out_tensor",
                    "Location": "Device",
                    "Dimensions": [
                        1,
                        1000,
                        1,
                        1
                    ],
                    "Format/Datatype": "Channel major FP16 format where channel % 8 == 0"
                }
            ],
            "Outputs": [
                {
                    "Name": "Reformatted Input Tensor 0 to copied_squeeze_after_[ELEMENTWISE]-[aten_ops.addmm.default]-[/classifier/1/addmm_add]",
                    "Location": "Device",
                    "Dimensions": [
                        1,
                        1000,
                        1,
                        1
                    ],
                    "Format/Datatype": "Row major linear FP16 format"
                }
            ],
            "TacticValue": "0x0000000000000000",
            "StreamId": 0,
            "Metadata": ""
        },
        {
            "Name": "copied_squeeze_after_[ELEMENTWISE]-[aten_ops.addmm.default]-[/classifier/1/addmm_add]",
            "LayerType": "NoOp",
            "Inputs": [
                {
                    "Name": "Reformatted Input Tensor 0 to copied_squeeze_after_[ELEMENTWISE]-[aten_ops.addmm.default]-[/classifier/1/addmm_add]",
                    "Location": "Device",
                    "Dimensions": [
                        1,
                        1000,
                        1,
                        1
                    ],
                    "Format/Datatype": "Row major linear FP16 format"
                }
            ],
            "Outputs": [
                {
                    "Name": "output0",
                    "Location": "Device",
                    "Dimensions": [
                        1,
                        1000
                    ],
                    "Format/Datatype": "Row major linear FP16 format"
                }
            ],
            "TacticValue": "0x0000000000000000",
            "StreamId": 0,
            "Metadata": ""
        }
    ],
    "Bindings": [
        "x",
        "output0"
    ]
}